program(1.0)
[buildInfo = dict<tensor<string, []>, tensor<string, []>>({{"coremlc-component-MIL", "3402.3.2"}, {"coremlc-version", "3402.4.1"}})]
{
    func main<ios16>(tensor<fp16, [1, 2998, 80]> preprocessor_output_1, tensor<fp16, [1, 64, 1767]> speaker_masks) {
            tensor<int32, []> var_72 = const()[name = tensor<string, []>("op_72"), val = tensor<int32, []>(1)];
            tensor<int32, [3]> var_82 = const()[name = tensor<string, []>("op_82"), val = tensor<int32, [3]>([0, 2, 1])];
            tensor<int32, [1]> input_1_axes_0 = const()[name = tensor<string, []>("input_1_axes_0"), val = tensor<int32, [1]>([1])];
            tensor<fp16, [1, 80, 2998]> fbank_cast_fp16 = transpose(perm = var_82, x = preprocessor_output_1)[name = tensor<string, []>("transpose_0")];
            tensor<fp16, [1, 1, 80, 2998]> input_1_cast_fp16 = expand_dims(axes = input_1_axes_0, x = fbank_cast_fp16)[name = tensor<string, []>("input_1_cast_fp16")];
            tensor<string, []> input_3_pad_type_0 = const()[name = tensor<string, []>("input_3_pad_type_0"), val = tensor<string, []>("custom")];
            tensor<int32, [4]> input_3_pad_0 = const()[name = tensor<string, []>("input_3_pad_0"), val = tensor<int32, [4]>([1, 1, 1, 1])];
            tensor<int32, [2]> input_3_strides_0 = const()[name = tensor<string, []>("input_3_strides_0"), val = tensor<int32, [2]>([1, 1])];
            tensor<int32, [2]> input_3_dilations_0 = const()[name = tensor<string, []>("input_3_dilations_0"), val = tensor<int32, [2]>([1, 1])];
            tensor<int32, []> input_3_groups_0 = const()[name = tensor<string, []>("input_3_groups_0"), val = tensor<int32, []>(1)];
            tensor<fp16, [32, 1, 3, 3]> const_5_to_fp16 = const()[name = tensor<string, []>("const_5_to_fp16"), val = tensor<fp16, [32, 1, 3, 3]>(BLOBFILE(path = tensor<string, []>("@model_path/weights/weight.bin"), offset = tensor<uint64, []>(64)))];
            tensor<fp16, [32]> const_6_to_fp16 = const()[name = tensor<string, []>("const_6_to_fp16"), val = tensor<fp16, [32]>(BLOBFILE(path = tensor<string, []>("@model_path/weights/weight.bin"), offset = tensor<uint64, []>(704)))];
            tensor<fp16, [1, 32, 80, 2998]> input_5_cast_fp16 = conv(bias = const_6_to_fp16, dilations = input_3_dilations_0, groups = input_3_groups_0, pad = input_3_pad_0, pad_type = input_3_pad_type_0, strides = input_3_strides_0, weight = const_5_to_fp16, x = input_1_cast_fp16)[name = tensor<string, []>("input_5_cast_fp16")];
            tensor<fp16, [1, 32, 80, 2998]> input_7_cast_fp16 = relu(x = input_5_cast_fp16)[name = tensor<string, []>("input_7_cast_fp16")];
            tensor<string, []> input_9_pad_type_0 = const()[name = tensor<string, []>("input_9_pad_type_0"), val = tensor<string, []>("custom")];
            tensor<int32, [4]> input_9_pad_0 = const()[name = tensor<string, []>("input_9_pad_0"), val = tensor<int32, [4]>([1, 1, 1, 1])];
            tensor<int32, [2]> input_9_strides_0 = const()[name = tensor<string, []>("input_9_strides_0"), val = tensor<int32, [2]>([1, 1])];
            tensor<int32, [2]> input_9_dilations_0 = const()[name = tensor<string, []>("input_9_dilations_0"), val = tensor<int32, [2]>([1, 1])];
            tensor<int32, []> input_9_groups_0 = const()[name = tensor<string, []>("input_9_groups_0"), val = tensor<int32, []>(1)];
            tensor<fp16, [32, 32, 3, 3]> const_7_to_fp16_palettized = constexpr_lut_to_dense()[indices = tensor<uint8, [9216]>(BLOBFILE(path = tensor<string, []>("@model_path/weights/weight.bin"), offset = tensor<uint64, []>(832))), lut = tensor<fp16, [256]>(BLOBFILE(path = tensor<string, []>("@model_path/weights/weight.bin"), offset = tensor<uint64, []>(10112))), name = tensor<string, []>("const_7_to_fp16_palettized"), shape = tensor<uint32, [4]>([32, 32, 3, 3])];
            tensor<fp16, [32]> const_8_to_fp16 = const()[name = tensor<string, []>("const_8_to_fp16"), val = tensor<fp16, [32]>(BLOBFILE(path = tensor<string, []>("@model_path/weights/weight.bin"), offset = tensor<uint64, []>(10688)))];
            tensor<fp16, [1, 32, 80, 2998]> input_11_cast_fp16 = conv(bias = const_8_to_fp16, dilations = input_9_dilations_0, groups = input_9_groups_0, pad = input_9_pad_0, pad_type = input_9_pad_type_0, strides = input_9_strides_0, weight = const_7_to_fp16_palettized, x = input_7_cast_fp16)[name = tensor<string, []>("input_11_cast_fp16")];
            tensor<fp16, [1, 32, 80, 2998]> input_13_cast_fp16 = relu(x = input_11_cast_fp16)[name = tensor<string, []>("input_13_cast_fp16")];
            tensor<string, []> input_15_pad_type_0 = const()[name = tensor<string, []>("input_15_pad_type_0"), val = tensor<string, []>("custom")];
            tensor<int32, [4]> input_15_pad_0 = const()[name = tensor<string, []>("input_15_pad_0"), val = tensor<int32, [4]>([1, 1, 1, 1])];
            tensor<int32, [2]> input_15_strides_0 = const()[name = tensor<string, []>("input_15_strides_0"), val = tensor<int32, [2]>([1, 1])];
            tensor<int32, [2]> input_15_dilations_0 = const()[name = tensor<string, []>("input_15_dilations_0"), val = tensor<int32, [2]>([1, 1])];
            tensor<int32, []> input_15_groups_0 = const()[name = tensor<string, []>("input_15_groups_0"), val = tensor<int32, []>(1)];
            tensor<fp16, [32, 32, 3, 3]> const_9_to_fp16_palettized = constexpr_lut_to_dense()[indices = tensor<uint8, [9216]>(BLOBFILE(path = tensor<string, []>("@model_path/weights/weight.bin"), offset = tensor<uint64, []>(10816))), lut = tensor<fp16, [256]>(BLOBFILE(path = tensor<string, []>("@model_path/weights/weight.bin"), offset = tensor<uint64, []>(20096))), name = tensor<string, []>("const_9_to_fp16_palettized"), shape = tensor<uint32, [4]>([32, 32, 3, 3])];
            tensor<fp16, [32]> const_10_to_fp16 = const()[name = tensor<string, []>("const_10_to_fp16"), val = tensor<fp16, [32]>(BLOBFILE(path = tensor<string, []>("@model_path/weights/weight.bin"), offset = tensor<uint64, []>(20672)))];
            tensor<fp16, [1, 32, 80, 2998]> out_1_cast_fp16 = conv(bias = const_10_to_fp16, dilations = input_15_dilations_0, groups = input_15_groups_0, pad = input_15_pad_0, pad_type = input_15_pad_type_0, strides = input_15_strides_0, weight = const_9_to_fp16_palettized, x = input_13_cast_fp16)[name = tensor<string, []>("out_1_cast_fp16")];
            tensor<fp16, [1, 32, 80, 2998]> input_17_cast_fp16 = add(x = out_1_cast_fp16, y = input_7_cast_fp16)[name = tensor<string, []>("input_17_cast_fp16")];
            tensor<fp16, [1, 32, 80, 2998]> input_19_cast_fp16 = relu(x = input_17_cast_fp16)[name = tensor<string, []>("input_19_cast_fp16")];
            tensor<string, []> input_21_pad_type_0 = const()[name = tensor<string, []>("input_21_pad_type_0"), val = tensor<string, []>("custom")];
            tensor<int32, [4]> input_21_pad_0 = const()[name = tensor<string, []>("input_21_pad_0"), val = tensor<int32, [4]>([1, 1, 1, 1])];
            tensor<int32, [2]> input_21_strides_0 = const()[name = tensor<string, []>("input_21_strides_0"), val = tensor<int32, [2]>([1, 1])];
            tensor<int32, [2]> input_21_dilations_0 = const()[name = tensor<string, []>("input_21_dilations_0"), val = tensor<int32, [2]>([1, 1])];
            tensor<int32, []> input_21_groups_0 = const()[name = tensor<string, []>("input_21_groups_0"), val = tensor<int32, []>(1)];
            tensor<fp16, [32, 32, 3, 3]> const_11_to_fp16_palettized = constexpr_lut_to_dense()[indices = tensor<uint8, [9216]>(BLOBFILE(path = tensor<string, []>("@model_path/weights/weight.bin"), offset = tensor<uint64, []>(20800))), lut = tensor<fp16, [256]>(BLOBFILE(path = tensor<string, []>("@model_path/weights/weight.bin"), offset = tensor<uint64, []>(30080))), name = tensor<string, []>("const_11_to_fp16_palettized"), shape = tensor<uint32, [4]>([32, 32, 3, 3])];
            tensor<fp16, [32]> const_12_to_fp16 = const()[name = tensor<string, []>("const_12_to_fp16"), val = tensor<fp16, [32]>(BLOBFILE(path = tensor<string, []>("@model_path/weights/weight.bin"), offset = tensor<uint64, []>(30656)))];
            tensor<fp16, [1, 32, 80, 2998]> input_23_cast_fp16 = conv(bias = const_12_to_fp16, dilations = input_21_dilations_0, groups = input_21_groups_0, pad = input_21_pad_0, pad_type = input_21_pad_type_0, strides = input_21_strides_0, weight = const_11_to_fp16_palettized, x = input_19_cast_fp16)[name = tensor<string, []>("input_23_cast_fp16")];
            tensor<fp16, [1, 32, 80, 2998]> input_25_cast_fp16 = relu(x = input_23_cast_fp16)[name = tensor<string, []>("input_25_cast_fp16")];
            tensor<string, []> input_27_pad_type_0 = const()[name = tensor<string, []>("input_27_pad_type_0"), val = tensor<string, []>("custom")];
            tensor<int32, [4]> input_27_pad_0 = const()[name = tensor<string, []>("input_27_pad_0"), val = tensor<int32, [4]>([1, 1, 1, 1])];
            tensor<int32, [2]> input_27_strides_0 = const()[name = tensor<string, []>("input_27_strides_0"), val = tensor<int32, [2]>([1, 1])];
            tensor<int32, [2]> input_27_dilations_0 = const()[name = tensor<string, []>("input_27_dilations_0"), val = tensor<int32, [2]>([1, 1])];
            tensor<int32, []> input_27_groups_0 = const()[name = tensor<string, []>("input_27_groups_0"), val = tensor<int32, []>(1)];
            tensor<fp16, [32, 32, 3, 3]> const_13_to_fp16_palettized = constexpr_lut_to_dense()[indices = tensor<uint8, [9216]>(BLOBFILE(path = tensor<string, []>("@model_path/weights/weight.bin"), offset = tensor<uint64, []>(30784))), lut = tensor<fp16, [256]>(BLOBFILE(path = tensor<string, []>("@model_path/weights/weight.bin"), offset = tensor<uint64, []>(40064))), name = tensor<string, []>("const_13_to_fp16_palettized"), shape = tensor<uint32, [4]>([32, 32, 3, 3])];
            tensor<fp16, [32]> const_14_to_fp16 = const()[name = tensor<string, []>("const_14_to_fp16"), val = tensor<fp16, [32]>(BLOBFILE(path = tensor<string, []>("@model_path/weights/weight.bin"), offset = tensor<uint64, []>(40640)))];
            tensor<fp16, [1, 32, 80, 2998]> out_3_cast_fp16 = conv(bias = const_14_to_fp16, dilations = input_27_dilations_0, groups = input_27_groups_0, pad = input_27_pad_0, pad_type = input_27_pad_type_0, strides = input_27_strides_0, weight = const_13_to_fp16_palettized, x = input_25_cast_fp16)[name = tensor<string, []>("out_3_cast_fp16")];
            tensor<fp16, [1, 32, 80, 2998]> input_29_cast_fp16 = add(x = out_3_cast_fp16, y = input_19_cast_fp16)[name = tensor<string, []>("input_29_cast_fp16")];
            tensor<fp16, [1, 32, 80, 2998]> input_31_cast_fp16 = relu(x = input_29_cast_fp16)[name = tensor<string, []>("input_31_cast_fp16")];
            tensor<string, []> input_33_pad_type_0 = const()[name = tensor<string, []>("input_33_pad_type_0"), val = tensor<string, []>("custom")];
            tensor<int32, [4]> input_33_pad_0 = const()[name = tensor<string, []>("input_33_pad_0"), val = tensor<int32, [4]>([1, 1, 1, 1])];
            tensor<int32, [2]> input_33_strides_0 = const()[name = tensor<string, []>("input_33_strides_0"), val = tensor<int32, [2]>([1, 1])];
            tensor<int32, [2]> input_33_dilations_0 = const()[name = tensor<string, []>("input_33_dilations_0"), val = tensor<int32, [2]>([1, 1])];
            tensor<int32, []> input_33_groups_0 = const()[name = tensor<string, []>("input_33_groups_0"), val = tensor<int32, []>(1)];
            tensor<fp16, [32, 32, 3, 3]> const_15_to_fp16_palettized = constexpr_lut_to_dense()[indices = tensor<uint8, [9216]>(BLOBFILE(path = tensor<string, []>("@model_path/weights/weight.bin"), offset = tensor<uint64, []>(40768))), lut = tensor<fp16, [256]>(BLOBFILE(path = tensor<string, []>("@model_path/weights/weight.bin"), offset = tensor<uint64, []>(50048))), name = tensor<string, []>("const_15_to_fp16_palettized"), shape = tensor<uint32, [4]>([32, 32, 3, 3])];
            tensor<fp16, [32]> const_16_to_fp16 = const()[name = tensor<string, []>("const_16_to_fp16"), val = tensor<fp16, [32]>(BLOBFILE(path = tensor<string, []>("@model_path/weights/weight.bin"), offset = tensor<uint64, []>(50624)))];
            tensor<fp16, [1, 32, 80, 2998]> input_35_cast_fp16 = conv(bias = const_16_to_fp16, dilations = input_33_dilations_0, groups = input_33_groups_0, pad = input_33_pad_0, pad_type = input_33_pad_type_0, strides = input_33_strides_0, weight = const_15_to_fp16_palettized, x = input_31_cast_fp16)[name = tensor<string, []>("input_35_cast_fp16")];
            tensor<fp16, [1, 32, 80, 2998]> input_37_cast_fp16 = relu(x = input_35_cast_fp16)[name = tensor<string, []>("input_37_cast_fp16")];
            tensor<string, []> input_39_pad_type_0 = const()[name = tensor<string, []>("input_39_pad_type_0"), val = tensor<string, []>("custom")];
            tensor<int32, [4]> input_39_pad_0 = const()[name = tensor<string, []>("input_39_pad_0"), val = tensor<int32, [4]>([1, 1, 1, 1])];
            tensor<int32, [2]> input_39_strides_0 = const()[name = tensor<string, []>("input_39_strides_0"), val = tensor<int32, [2]>([1, 1])];
            tensor<int32, [2]> input_39_dilations_0 = const()[name = tensor<string, []>("input_39_dilations_0"), val = tensor<int32, [2]>([1, 1])];
            tensor<int32, []> input_39_groups_0 = const()[name = tensor<string, []>("input_39_groups_0"), val = tensor<int32, []>(1)];
            tensor<fp16, [32, 32, 3, 3]> const_17_to_fp16_palettized = constexpr_lut_to_dense()[indices = tensor<uint8, [9216]>(BLOBFILE(path = tensor<string, []>("@model_path/weights/weight.bin"), offset = tensor<uint64, []>(50752))), lut = tensor<fp16, [256]>(BLOBFILE(path = tensor<string, []>("@model_path/weights/weight.bin"), offset = tensor<uint64, []>(60032))), name = tensor<string, []>("const_17_to_fp16_palettized"), shape = tensor<uint32, [4]>([32, 32, 3, 3])];
            tensor<fp16, [32]> const_18_to_fp16 = const()[name = tensor<string, []>("const_18_to_fp16"), val = tensor<fp16, [32]>(BLOBFILE(path = tensor<string, []>("@model_path/weights/weight.bin"), offset = tensor<uint64, []>(60608)))];
            tensor<fp16, [1, 32, 80, 2998]> out_5_cast_fp16 = conv(bias = const_18_to_fp16, dilations = input_39_dilations_0, groups = input_39_groups_0, pad = input_39_pad_0, pad_type = input_39_pad_type_0, strides = input_39_strides_0, weight = const_17_to_fp16_palettized, x = input_37_cast_fp16)[name = tensor<string, []>("out_5_cast_fp16")];
            tensor<fp16, [1, 32, 80, 2998]> input_41_cast_fp16 = add(x = out_5_cast_fp16, y = input_31_cast_fp16)[name = tensor<string, []>("input_41_cast_fp16")];
            tensor<fp16, [1, 32, 80, 2998]> input_43_cast_fp16 = relu(x = input_41_cast_fp16)[name = tensor<string, []>("input_43_cast_fp16")];
            tensor<string, []> input_45_pad_type_0 = const()[name = tensor<string, []>("input_45_pad_type_0"), val = tensor<string, []>("custom")];
            tensor<int32, [4]> input_45_pad_0 = const()[name = tensor<string, []>("input_45_pad_0"), val = tensor<int32, [4]>([1, 1, 1, 1])];
            tensor<int32, [2]> input_45_strides_0 = const()[name = tensor<string, []>("input_45_strides_0"), val = tensor<int32, [2]>([2, 2])];
            tensor<int32, [2]> input_45_dilations_0 = const()[name = tensor<string, []>("input_45_dilations_0"), val = tensor<int32, [2]>([1, 1])];
            tensor<int32, []> input_45_groups_0 = const()[name = tensor<string, []>("input_45_groups_0"), val = tensor<int32, []>(1)];
            tensor<fp16, [64, 32, 3, 3]> const_19_to_fp16_palettized = constexpr_lut_to_dense()[indices = tensor<uint8, [18432]>(BLOBFILE(path = tensor<string, []>("@model_path/weights/weight.bin"), offset = tensor<uint64, []>(60736))), lut = tensor<fp16, [256]>(BLOBFILE(path = tensor<string, []>("@model_path/weights/weight.bin"), offset = tensor<uint64, []>(79232))), name = tensor<string, []>("const_19_to_fp16_palettized"), shape = tensor<uint32, [4]>([64, 32, 3, 3])];
            tensor<fp16, [64]> const_20_to_fp16 = const()[name = tensor<string, []>("const_20_to_fp16"), val = tensor<fp16, [64]>(BLOBFILE(path = tensor<string, []>("@model_path/weights/weight.bin"), offset = tensor<uint64, []>(79808)))];
            tensor<fp16, [1, 64, 40, 1499]> input_47_cast_fp16 = conv(bias = const_20_to_fp16, dilations = input_45_dilations_0, groups = input_45_groups_0, pad = input_45_pad_0, pad_type = input_45_pad_type_0, strides = input_45_strides_0, weight = const_19_to_fp16_palettized, x = input_43_cast_fp16)[name = tensor<string, []>("input_47_cast_fp16")];
            tensor<fp16, [1, 64, 40, 1499]> input_49_cast_fp16 = relu(x = input_47_cast_fp16)[name = tensor<string, []>("input_49_cast_fp16")];
            tensor<string, []> input_51_pad_type_0 = const()[name = tensor<string, []>("input_51_pad_type_0"), val = tensor<string, []>("custom")];
            tensor<int32, [4]> input_51_pad_0 = const()[name = tensor<string, []>("input_51_pad_0"), val = tensor<int32, [4]>([1, 1, 1, 1])];
            tensor<int32, [2]> input_51_strides_0 = const()[name = tensor<string, []>("input_51_strides_0"), val = tensor<int32, [2]>([1, 1])];
            tensor<int32, [2]> input_51_dilations_0 = const()[name = tensor<string, []>("input_51_dilations_0"), val = tensor<int32, [2]>([1, 1])];
            tensor<int32, []> input_51_groups_0 = const()[name = tensor<string, []>("input_51_groups_0"), val = tensor<int32, []>(1)];
            tensor<fp16, [64, 64, 3, 3]> const_21_to_fp16_palettized = constexpr_lut_to_dense()[indices = tensor<uint8, [36864]>(BLOBFILE(path = tensor<string, []>("@model_path/weights/weight.bin"), offset = tensor<uint64, []>(80000))), lut = tensor<fp16, [256]>(BLOBFILE(path = tensor<string, []>("@model_path/weights/weight.bin"), offset = tensor<uint64, []>(116928))), name = tensor<string, []>("const_21_to_fp16_palettized"), shape = tensor<uint32, [4]>([64, 64, 3, 3])];
            tensor<fp16, [64]> const_22_to_fp16 = const()[name = tensor<string, []>("const_22_to_fp16"), val = tensor<fp16, [64]>(BLOBFILE(path = tensor<string, []>("@model_path/weights/weight.bin"), offset = tensor<uint64, []>(117504)))];
            tensor<fp16, [1, 64, 40, 1499]> out_7_cast_fp16 = conv(bias = const_22_to_fp16, dilations = input_51_dilations_0, groups = input_51_groups_0, pad = input_51_pad_0, pad_type = input_51_pad_type_0, strides = input_51_strides_0, weight = const_21_to_fp16_palettized, x = input_49_cast_fp16)[name = tensor<string, []>("out_7_cast_fp16")];
            tensor<string, []> input_53_pad_type_0 = const()[name = tensor<string, []>("input_53_pad_type_0"), val = tensor<string, []>("valid")];
            tensor<int32, [2]> input_53_strides_0 = const()[name = tensor<string, []>("input_53_strides_0"), val = tensor<int32, [2]>([2, 2])];
            tensor<int32, [4]> input_53_pad_0 = const()[name = tensor<string, []>("input_53_pad_0"), val = tensor<int32, [4]>([0, 0, 0, 0])];
            tensor<int32, [2]> input_53_dilations_0 = const()[name = tensor<string, []>("input_53_dilations_0"), val = tensor<int32, [2]>([1, 1])];
            tensor<int32, []> input_53_groups_0 = const()[name = tensor<string, []>("input_53_groups_0"), val = tensor<int32, []>(1)];
            tensor<fp16, [64, 32, 1, 1]> const_23_to_fp16 = const()[name = tensor<string, []>("const_23_to_fp16"), val = tensor<fp16, [64, 32, 1, 1]>(BLOBFILE(path = tensor<string, []>("@model_path/weights/weight.bin"), offset = tensor<uint64, []>(117696)))];
            tensor<fp16, [64]> const_24_to_fp16 = const()[name = tensor<string, []>("const_24_to_fp16"), val = tensor<fp16, [64]>(BLOBFILE(path = tensor<string, []>("@model_path/weights/weight.bin"), offset = tensor<uint64, []>(121856)))];
            tensor<fp16, [1, 64, 40, 1499]> var_231_cast_fp16 = conv(bias = const_24_to_fp16, dilations = input_53_dilations_0, groups = input_53_groups_0, pad = input_53_pad_0, pad_type = input_53_pad_type_0, strides = input_53_strides_0, weight = const_23_to_fp16, x = input_43_cast_fp16)[name = tensor<string, []>("op_231_cast_fp16")];
            tensor<fp16, [1, 64, 40, 1499]> input_55_cast_fp16 = add(x = out_7_cast_fp16, y = var_231_cast_fp16)[name = tensor<string, []>("input_55_cast_fp16")];
            tensor<fp16, [1, 64, 40, 1499]> input_57_cast_fp16 = relu(x = input_55_cast_fp16)[name = tensor<string, []>("input_57_cast_fp16")];
            tensor<string, []> input_59_pad_type_0 = const()[name = tensor<string, []>("input_59_pad_type_0"), val = tensor<string, []>("custom")];
            tensor<int32, [4]> input_59_pad_0 = const()[name = tensor<string, []>("input_59_pad_0"), val = tensor<int32, [4]>([1, 1, 1, 1])];
            tensor<int32, [2]> input_59_strides_0 = const()[name = tensor<string, []>("input_59_strides_0"), val = tensor<int32, [2]>([1, 1])];
            tensor<int32, [2]> input_59_dilations_0 = const()[name = tensor<string, []>("input_59_dilations_0"), val = tensor<int32, [2]>([1, 1])];
            tensor<int32, []> input_59_groups_0 = const()[name = tensor<string, []>("input_59_groups_0"), val = tensor<int32, []>(1)];
            tensor<fp16, [64, 64, 3, 3]> const_25_to_fp16_palettized = constexpr_lut_to_dense()[indices = tensor<uint8, [36864]>(BLOBFILE(path = tensor<string, []>("@model_path/weights/weight.bin"), offset = tensor<uint64, []>(122048))), lut = tensor<fp16, [256]>(BLOBFILE(path = tensor<string, []>("@model_path/weights/weight.bin"), offset = tensor<uint64, []>(158976))), name = tensor<string, []>("const_25_to_fp16_palettized"), shape = tensor<uint32, [4]>([64, 64, 3, 3])];
            tensor<fp16, [64]> const_26_to_fp16 = const()[name = tensor<string, []>("const_26_to_fp16"), val = tensor<fp16, [64]>(BLOBFILE(path = tensor<string, []>("@model_path/weights/weight.bin"), offset = tensor<uint64, []>(159552)))];
            tensor<fp16, [1, 64, 40, 1499]> input_61_cast_fp16 = conv(bias = const_26_to_fp16, dilations = input_59_dilations_0, groups = input_59_groups_0, pad = input_59_pad_0, pad_type = input_59_pad_type_0, strides = input_59_strides_0, weight = const_25_to_fp16_palettized, x = input_57_cast_fp16)[name = tensor<string, []>("input_61_cast_fp16")];
            tensor<fp16, [1, 64, 40, 1499]> input_63_cast_fp16 = relu(x = input_61_cast_fp16)[name = tensor<string, []>("input_63_cast_fp16")];
            tensor<string, []> input_65_pad_type_0 = const()[name = tensor<string, []>("input_65_pad_type_0"), val = tensor<string, []>("custom")];
            tensor<int32, [4]> input_65_pad_0 = const()[name = tensor<string, []>("input_65_pad_0"), val = tensor<int32, [4]>([1, 1, 1, 1])];
            tensor<int32, [2]> input_65_strides_0 = const()[name = tensor<string, []>("input_65_strides_0"), val = tensor<int32, [2]>([1, 1])];
            tensor<int32, [2]> input_65_dilations_0 = const()[name = tensor<string, []>("input_65_dilations_0"), val = tensor<int32, [2]>([1, 1])];
            tensor<int32, []> input_65_groups_0 = const()[name = tensor<string, []>("input_65_groups_0"), val = tensor<int32, []>(1)];
            tensor<fp16, [64, 64, 3, 3]> const_27_to_fp16_palettized = constexpr_lut_to_dense()[indices = tensor<uint8, [36864]>(BLOBFILE(path = tensor<string, []>("@model_path/weights/weight.bin"), offset = tensor<uint64, []>(159744))), lut = tensor<fp16, [256]>(BLOBFILE(path = tensor<string, []>("@model_path/weights/weight.bin"), offset = tensor<uint64, []>(196672))), name = tensor<string, []>("const_27_to_fp16_palettized"), shape = tensor<uint32, [4]>([64, 64, 3, 3])];
            tensor<fp16, [64]> const_28_to_fp16 = const()[name = tensor<string, []>("const_28_to_fp16"), val = tensor<fp16, [64]>(BLOBFILE(path = tensor<string, []>("@model_path/weights/weight.bin"), offset = tensor<uint64, []>(197248)))];
            tensor<fp16, [1, 64, 40, 1499]> out_9_cast_fp16 = conv(bias = const_28_to_fp16, dilations = input_65_dilations_0, groups = input_65_groups_0, pad = input_65_pad_0, pad_type = input_65_pad_type_0, strides = input_65_strides_0, weight = const_27_to_fp16_palettized, x = input_63_cast_fp16)[name = tensor<string, []>("out_9_cast_fp16")];
            tensor<fp16, [1, 64, 40, 1499]> input_67_cast_fp16 = add(x = out_9_cast_fp16, y = input_57_cast_fp16)[name = tensor<string, []>("input_67_cast_fp16")];
            tensor<fp16, [1, 64, 40, 1499]> input_69_cast_fp16 = relu(x = input_67_cast_fp16)[name = tensor<string, []>("input_69_cast_fp16")];
            tensor<string, []> input_71_pad_type_0 = const()[name = tensor<string, []>("input_71_pad_type_0"), val = tensor<string, []>("custom")];
            tensor<int32, [4]> input_71_pad_0 = const()[name = tensor<string, []>("input_71_pad_0"), val = tensor<int32, [4]>([1, 1, 1, 1])];
            tensor<int32, [2]> input_71_strides_0 = const()[name = tensor<string, []>("input_71_strides_0"), val = tensor<int32, [2]>([1, 1])];
            tensor<int32, [2]> input_71_dilations_0 = const()[name = tensor<string, []>("input_71_dilations_0"), val = tensor<int32, [2]>([1, 1])];
            tensor<int32, []> input_71_groups_0 = const()[name = tensor<string, []>("input_71_groups_0"), val = tensor<int32, []>(1)];
            tensor<fp16, [64, 64, 3, 3]> const_29_to_fp16_palettized = constexpr_lut_to_dense()[indices = tensor<uint8, [36864]>(BLOBFILE(path = tensor<string, []>("@model_path/weights/weight.bin"), offset = tensor<uint64, []>(197440))), lut = tensor<fp16, [256]>(BLOBFILE(path = tensor<string, []>("@model_path/weights/weight.bin"), offset = tensor<uint64, []>(234368))), name = tensor<string, []>("const_29_to_fp16_palettized"), shape = tensor<uint32, [4]>([64, 64, 3, 3])];
            tensor<fp16, [64]> const_30_to_fp16 = const()[name = tensor<string, []>("const_30_to_fp16"), val = tensor<fp16, [64]>(BLOBFILE(path = tensor<string, []>("@model_path/weights/weight.bin"), offset = tensor<uint64, []>(234944)))];
            tensor<fp16, [1, 64, 40, 1499]> input_73_cast_fp16 = conv(bias = const_30_to_fp16, dilations = input_71_dilations_0, groups = input_71_groups_0, pad = input_71_pad_0, pad_type = input_71_pad_type_0, strides = input_71_strides_0, weight = const_29_to_fp16_palettized, x = input_69_cast_fp16)[name = tensor<string, []>("input_73_cast_fp16")];
            tensor<fp16, [1, 64, 40, 1499]> input_75_cast_fp16 = relu(x = input_73_cast_fp16)[name = tensor<string, []>("input_75_cast_fp16")];
            tensor<string, []> input_77_pad_type_0 = const()[name = tensor<string, []>("input_77_pad_type_0"), val = tensor<string, []>("custom")];
            tensor<int32, [4]> input_77_pad_0 = const()[name = tensor<string, []>("input_77_pad_0"), val = tensor<int32, [4]>([1, 1, 1, 1])];
            tensor<int32, [2]> input_77_strides_0 = const()[name = tensor<string, []>("input_77_strides_0"), val = tensor<int32, [2]>([1, 1])];
            tensor<int32, [2]> input_77_dilations_0 = const()[name = tensor<string, []>("input_77_dilations_0"), val = tensor<int32, [2]>([1, 1])];
            tensor<int32, []> input_77_groups_0 = const()[name = tensor<string, []>("input_77_groups_0"), val = tensor<int32, []>(1)];
            tensor<fp16, [64, 64, 3, 3]> const_31_to_fp16_palettized = constexpr_lut_to_dense()[indices = tensor<uint8, [36864]>(BLOBFILE(path = tensor<string, []>("@model_path/weights/weight.bin"), offset = tensor<uint64, []>(235136))), lut = tensor<fp16, [256]>(BLOBFILE(path = tensor<string, []>("@model_path/weights/weight.bin"), offset = tensor<uint64, []>(272064))), name = tensor<string, []>("const_31_to_fp16_palettized"), shape = tensor<uint32, [4]>([64, 64, 3, 3])];
            tensor<fp16, [64]> const_32_to_fp16 = const()[name = tensor<string, []>("const_32_to_fp16"), val = tensor<fp16, [64]>(BLOBFILE(path = tensor<string, []>("@model_path/weights/weight.bin"), offset = tensor<uint64, []>(272640)))];
            tensor<fp16, [1, 64, 40, 1499]> out_11_cast_fp16 = conv(bias = const_32_to_fp16, dilations = input_77_dilations_0, groups = input_77_groups_0, pad = input_77_pad_0, pad_type = input_77_pad_type_0, strides = input_77_strides_0, weight = const_31_to_fp16_palettized, x = input_75_cast_fp16)[name = tensor<string, []>("out_11_cast_fp16")];
            tensor<fp16, [1, 64, 40, 1499]> input_79_cast_fp16 = add(x = out_11_cast_fp16, y = input_69_cast_fp16)[name = tensor<string, []>("input_79_cast_fp16")];
            tensor<fp16, [1, 64, 40, 1499]> input_81_cast_fp16 = relu(x = input_79_cast_fp16)[name = tensor<string, []>("input_81_cast_fp16")];
            tensor<string, []> input_83_pad_type_0 = const()[name = tensor<string, []>("input_83_pad_type_0"), val = tensor<string, []>("custom")];
            tensor<int32, [4]> input_83_pad_0 = const()[name = tensor<string, []>("input_83_pad_0"), val = tensor<int32, [4]>([1, 1, 1, 1])];
            tensor<int32, [2]> input_83_strides_0 = const()[name = tensor<string, []>("input_83_strides_0"), val = tensor<int32, [2]>([1, 1])];
            tensor<int32, [2]> input_83_dilations_0 = const()[name = tensor<string, []>("input_83_dilations_0"), val = tensor<int32, [2]>([1, 1])];
            tensor<int32, []> input_83_groups_0 = const()[name = tensor<string, []>("input_83_groups_0"), val = tensor<int32, []>(1)];
            tensor<fp16, [64, 64, 3, 3]> const_33_to_fp16_palettized = constexpr_lut_to_dense()[indices = tensor<uint8, [36864]>(BLOBFILE(path = tensor<string, []>("@model_path/weights/weight.bin"), offset = tensor<uint64, []>(272832))), lut = tensor<fp16, [256]>(BLOBFILE(path = tensor<string, []>("@model_path/weights/weight.bin"), offset = tensor<uint64, []>(309760))), name = tensor<string, []>("const_33_to_fp16_palettized"), shape = tensor<uint32, [4]>([64, 64, 3, 3])];
            tensor<fp16, [64]> const_34_to_fp16 = const()[name = tensor<string, []>("const_34_to_fp16"), val = tensor<fp16, [64]>(BLOBFILE(path = tensor<string, []>("@model_path/weights/weight.bin"), offset = tensor<uint64, []>(310336)))];
            tensor<fp16, [1, 64, 40, 1499]> input_85_cast_fp16 = conv(bias = const_34_to_fp16, dilations = input_83_dilations_0, groups = input_83_groups_0, pad = input_83_pad_0, pad_type = input_83_pad_type_0, strides = input_83_strides_0, weight = const_33_to_fp16_palettized, x = input_81_cast_fp16)[name = tensor<string, []>("input_85_cast_fp16")];
            tensor<fp16, [1, 64, 40, 1499]> input_87_cast_fp16 = relu(x = input_85_cast_fp16)[name = tensor<string, []>("input_87_cast_fp16")];
            tensor<string, []> input_89_pad_type_0 = const()[name = tensor<string, []>("input_89_pad_type_0"), val = tensor<string, []>("custom")];
            tensor<int32, [4]> input_89_pad_0 = const()[name = tensor<string, []>("input_89_pad_0"), val = tensor<int32, [4]>([1, 1, 1, 1])];
            tensor<int32, [2]> input_89_strides_0 = const()[name = tensor<string, []>("input_89_strides_0"), val = tensor<int32, [2]>([1, 1])];
            tensor<int32, [2]> input_89_dilations_0 = const()[name = tensor<string, []>("input_89_dilations_0"), val = tensor<int32, [2]>([1, 1])];
            tensor<int32, []> input_89_groups_0 = const()[name = tensor<string, []>("input_89_groups_0"), val = tensor<int32, []>(1)];
            tensor<fp16, [64, 64, 3, 3]> const_35_to_fp16_palettized = constexpr_lut_to_dense()[indices = tensor<uint8, [36864]>(BLOBFILE(path = tensor<string, []>("@model_path/weights/weight.bin"), offset = tensor<uint64, []>(310528))), lut = tensor<fp16, [256]>(BLOBFILE(path = tensor<string, []>("@model_path/weights/weight.bin"), offset = tensor<uint64, []>(347456))), name = tensor<string, []>("const_35_to_fp16_palettized"), shape = tensor<uint32, [4]>([64, 64, 3, 3])];
            tensor<fp16, [64]> const_36_to_fp16 = const()[name = tensor<string, []>("const_36_to_fp16"), val = tensor<fp16, [64]>(BLOBFILE(path = tensor<string, []>("@model_path/weights/weight.bin"), offset = tensor<uint64, []>(348032)))];
            tensor<fp16, [1, 64, 40, 1499]> out_13_cast_fp16 = conv(bias = const_36_to_fp16, dilations = input_89_dilations_0, groups = input_89_groups_0, pad = input_89_pad_0, pad_type = input_89_pad_type_0, strides = input_89_strides_0, weight = const_35_to_fp16_palettized, x = input_87_cast_fp16)[name = tensor<string, []>("out_13_cast_fp16")];
            tensor<fp16, [1, 64, 40, 1499]> input_91_cast_fp16 = add(x = out_13_cast_fp16, y = input_81_cast_fp16)[name = tensor<string, []>("input_91_cast_fp16")];
            tensor<fp16, [1, 64, 40, 1499]> input_93_cast_fp16 = relu(x = input_91_cast_fp16)[name = tensor<string, []>("input_93_cast_fp16")];
            tensor<string, []> input_95_pad_type_0 = const()[name = tensor<string, []>("input_95_pad_type_0"), val = tensor<string, []>("custom")];
            tensor<int32, [4]> input_95_pad_0 = const()[name = tensor<string, []>("input_95_pad_0"), val = tensor<int32, [4]>([1, 1, 1, 1])];
            tensor<int32, [2]> input_95_strides_0 = const()[name = tensor<string, []>("input_95_strides_0"), val = tensor<int32, [2]>([2, 2])];
            tensor<int32, [2]> input_95_dilations_0 = const()[name = tensor<string, []>("input_95_dilations_0"), val = tensor<int32, [2]>([1, 1])];
            tensor<int32, []> input_95_groups_0 = const()[name = tensor<string, []>("input_95_groups_0"), val = tensor<int32, []>(1)];
            tensor<fp16, [128, 64, 3, 3]> const_37_to_fp16_palettized = constexpr_lut_to_dense()[indices = tensor<uint8, [73728]>(BLOBFILE(path = tensor<string, []>("@model_path/weights/weight.bin"), offset = tensor<uint64, []>(348224))), lut = tensor<fp16, [256]>(BLOBFILE(path = tensor<string, []>("@model_path/weights/weight.bin"), offset = tensor<uint64, []>(422016))), name = tensor<string, []>("const_37_to_fp16_palettized"), shape = tensor<uint32, [4]>([128, 64, 3, 3])];
            tensor<fp16, [128]> const_38_to_fp16 = const()[name = tensor<string, []>("const_38_to_fp16"), val = tensor<fp16, [128]>(BLOBFILE(path = tensor<string, []>("@model_path/weights/weight.bin"), offset = tensor<uint64, []>(422592)))];
            tensor<fp16, [1, 128, 20, 750]> input_97_cast_fp16 = conv(bias = const_38_to_fp16, dilations = input_95_dilations_0, groups = input_95_groups_0, pad = input_95_pad_0, pad_type = input_95_pad_type_0, strides = input_95_strides_0, weight = const_37_to_fp16_palettized, x = input_93_cast_fp16)[name = tensor<string, []>("input_97_cast_fp16")];
            tensor<fp16, [1, 128, 20, 750]> input_99_cast_fp16 = relu(x = input_97_cast_fp16)[name = tensor<string, []>("input_99_cast_fp16")];
            tensor<string, []> input_101_pad_type_0 = const()[name = tensor<string, []>("input_101_pad_type_0"), val = tensor<string, []>("custom")];
            tensor<int32, [4]> input_101_pad_0 = const()[name = tensor<string, []>("input_101_pad_0"), val = tensor<int32, [4]>([1, 1, 1, 1])];
            tensor<int32, [2]> input_101_strides_0 = const()[name = tensor<string, []>("input_101_strides_0"), val = tensor<int32, [2]>([1, 1])];
            tensor<int32, [2]> input_101_dilations_0 = const()[name = tensor<string, []>("input_101_dilations_0"), val = tensor<int32, [2]>([1, 1])];
            tensor<int32, []> input_101_groups_0 = const()[name = tensor<string, []>("input_101_groups_0"), val = tensor<int32, []>(1)];
            tensor<fp16, [128, 128, 3, 3]> const_39_to_fp16_palettized = constexpr_lut_to_dense()[indices = tensor<uint8, [147456]>(BLOBFILE(path = tensor<string, []>("@model_path/weights/weight.bin"), offset = tensor<uint64, []>(422912))), lut = tensor<fp16, [256]>(BLOBFILE(path = tensor<string, []>("@model_path/weights/weight.bin"), offset = tensor<uint64, []>(570432))), name = tensor<string, []>("const_39_to_fp16_palettized"), shape = tensor<uint32, [4]>([128, 128, 3, 3])];
            tensor<fp16, [128]> const_40_to_fp16 = const()[name = tensor<string, []>("const_40_to_fp16"), val = tensor<fp16, [128]>(BLOBFILE(path = tensor<string, []>("@model_path/weights/weight.bin"), offset = tensor<uint64, []>(571008)))];
            tensor<fp16, [1, 128, 20, 750]> out_15_cast_fp16 = conv(bias = const_40_to_fp16, dilations = input_101_dilations_0, groups = input_101_groups_0, pad = input_101_pad_0, pad_type = input_101_pad_type_0, strides = input_101_strides_0, weight = const_39_to_fp16_palettized, x = input_99_cast_fp16)[name = tensor<string, []>("out_15_cast_fp16")];
            tensor<string, []> input_103_pad_type_0 = const()[name = tensor<string, []>("input_103_pad_type_0"), val = tensor<string, []>("valid")];
            tensor<int32, [2]> input_103_strides_0 = const()[name = tensor<string, []>("input_103_strides_0"), val = tensor<int32, [2]>([2, 2])];
            tensor<int32, [4]> input_103_pad_0 = const()[name = tensor<string, []>("input_103_pad_0"), val = tensor<int32, [4]>([0, 0, 0, 0])];
            tensor<int32, [2]> input_103_dilations_0 = const()[name = tensor<string, []>("input_103_dilations_0"), val = tensor<int32, [2]>([1, 1])];
            tensor<int32, []> input_103_groups_0 = const()[name = tensor<string, []>("input_103_groups_0"), val = tensor<int32, []>(1)];
            tensor<fp16, [128, 64, 1, 1]> const_41_to_fp16_palettized = constexpr_lut_to_dense()[indices = tensor<uint8, [8192]>(BLOBFILE(path = tensor<string, []>("@model_path/weights/weight.bin"), offset = tensor<uint64, []>(571328))), lut = tensor<fp16, [256]>(BLOBFILE(path = tensor<string, []>("@model_path/weights/weight.bin"), offset = tensor<uint64, []>(579584))), name = tensor<string, []>("const_41_to_fp16_palettized"), shape = tensor<uint32, [4]>([128, 64, 1, 1])];
            tensor<fp16, [128]> const_42_to_fp16 = const()[name = tensor<string, []>("const_42_to_fp16"), val = tensor<fp16, [128]>(BLOBFILE(path = tensor<string, []>("@model_path/weights/weight.bin"), offset = tensor<uint64, []>(580160)))];
            tensor<fp16, [1, 128, 20, 750]> var_367_cast_fp16 = conv(bias = const_42_to_fp16, dilations = input_103_dilations_0, groups = input_103_groups_0, pad = input_103_pad_0, pad_type = input_103_pad_type_0, strides = input_103_strides_0, weight = const_41_to_fp16_palettized, x = input_93_cast_fp16)[name = tensor<string, []>("op_367_cast_fp16")];
            tensor<fp16, [1, 128, 20, 750]> input_105_cast_fp16 = add(x = out_15_cast_fp16, y = var_367_cast_fp16)[name = tensor<string, []>("input_105_cast_fp16")];
            tensor<fp16, [1, 128, 20, 750]> input_107_cast_fp16 = relu(x = input_105_cast_fp16)[name = tensor<string, []>("input_107_cast_fp16")];
            tensor<string, []> input_109_pad_type_0 = const()[name = tensor<string, []>("input_109_pad_type_0"), val = tensor<string, []>("custom")];
            tensor<int32, [4]> input_109_pad_0 = const()[name = tensor<string, []>("input_109_pad_0"), val = tensor<int32, [4]>([1, 1, 1, 1])];
            tensor<int32, [2]> input_109_strides_0 = const()[name = tensor<string, []>("input_109_strides_0"), val = tensor<int32, [2]>([1, 1])];
            tensor<int32, [2]> input_109_dilations_0 = const()[name = tensor<string, []>("input_109_dilations_0"), val = tensor<int32, [2]>([1, 1])];
            tensor<int32, []> input_109_groups_0 = const()[name = tensor<string, []>("input_109_groups_0"), val = tensor<int32, []>(1)];
            tensor<fp16, [128, 128, 3, 3]> const_43_to_fp16_palettized = constexpr_lut_to_dense()[indices = tensor<uint8, [147456]>(BLOBFILE(path = tensor<string, []>("@model_path/weights/weight.bin"), offset = tensor<uint64, []>(580480))), lut = tensor<fp16, [256]>(BLOBFILE(path = tensor<string, []>("@model_path/weights/weight.bin"), offset = tensor<uint64, []>(728000))), name = tensor<string, []>("const_43_to_fp16_palettized"), shape = tensor<uint32, [4]>([128, 128, 3, 3])];
            tensor<fp16, [128]> const_44_to_fp16 = const()[name = tensor<string, []>("const_44_to_fp16"), val = tensor<fp16, [128]>(BLOBFILE(path = tensor<string, []>("@model_path/weights/weight.bin"), offset = tensor<uint64, []>(728576)))];
            tensor<fp16, [1, 128, 20, 750]> input_111_cast_fp16 = conv(bias = const_44_to_fp16, dilations = input_109_dilations_0, groups = input_109_groups_0, pad = input_109_pad_0, pad_type = input_109_pad_type_0, strides = input_109_strides_0, weight = const_43_to_fp16_palettized, x = input_107_cast_fp16)[name = tensor<string, []>("input_111_cast_fp16")];
            tensor<fp16, [1, 128, 20, 750]> input_113_cast_fp16 = relu(x = input_111_cast_fp16)[name = tensor<string, []>("input_113_cast_fp16")];
            tensor<string, []> input_115_pad_type_0 = const()[name = tensor<string, []>("input_115_pad_type_0"), val = tensor<string, []>("custom")];
            tensor<int32, [4]> input_115_pad_0 = const()[name = tensor<string, []>("input_115_pad_0"), val = tensor<int32, [4]>([1, 1, 1, 1])];
            tensor<int32, [2]> input_115_strides_0 = const()[name = tensor<string, []>("input_115_strides_0"), val = tensor<int32, [2]>([1, 1])];
            tensor<int32, [2]> input_115_dilations_0 = const()[name = tensor<string, []>("input_115_dilations_0"), val = tensor<int32, [2]>([1, 1])];
            tensor<int32, []> input_115_groups_0 = const()[name = tensor<string, []>("input_115_groups_0"), val = tensor<int32, []>(1)];
            tensor<fp16, [128, 128, 3, 3]> const_45_to_fp16_palettized = constexpr_lut_to_dense()[indices = tensor<uint8, [147456]>(BLOBFILE(path = tensor<string, []>("@model_path/weights/weight.bin"), offset = tensor<uint64, []>(728896))), lut = tensor<fp16, [256]>(BLOBFILE(path = tensor<string, []>("@model_path/weights/weight.bin"), offset = tensor<uint64, []>(876416))), name = tensor<string, []>("const_45_to_fp16_palettized"), shape = tensor<uint32, [4]>([128, 128, 3, 3])];
            tensor<fp16, [128]> const_46_to_fp16 = const()[name = tensor<string, []>("const_46_to_fp16"), val = tensor<fp16, [128]>(BLOBFILE(path = tensor<string, []>("@model_path/weights/weight.bin"), offset = tensor<uint64, []>(876992)))];
            tensor<fp16, [1, 128, 20, 750]> out_17_cast_fp16 = conv(bias = const_46_to_fp16, dilations = input_115_dilations_0, groups = input_115_groups_0, pad = input_115_pad_0, pad_type = input_115_pad_type_0, strides = input_115_strides_0, weight = const_45_to_fp16_palettized, x = input_113_cast_fp16)[name = tensor<string, []>("out_17_cast_fp16")];
            tensor<fp16, [1, 128, 20, 750]> input_117_cast_fp16 = add(x = out_17_cast_fp16, y = input_107_cast_fp16)[name = tensor<string, []>("input_117_cast_fp16")];
            tensor<fp16, [1, 128, 20, 750]> input_119_cast_fp16 = relu(x = input_117_cast_fp16)[name = tensor<string, []>("input_119_cast_fp16")];
            tensor<string, []> input_121_pad_type_0 = const()[name = tensor<string, []>("input_121_pad_type_0"), val = tensor<string, []>("custom")];
            tensor<int32, [4]> input_121_pad_0 = const()[name = tensor<string, []>("input_121_pad_0"), val = tensor<int32, [4]>([1, 1, 1, 1])];
            tensor<int32, [2]> input_121_strides_0 = const()[name = tensor<string, []>("input_121_strides_0"), val = tensor<int32, [2]>([1, 1])];
            tensor<int32, [2]> input_121_dilations_0 = const()[name = tensor<string, []>("input_121_dilations_0"), val = tensor<int32, [2]>([1, 1])];
            tensor<int32, []> input_121_groups_0 = const()[name = tensor<string, []>("input_121_groups_0"), val = tensor<int32, []>(1)];
            tensor<fp16, [128, 128, 3, 3]> const_47_to_fp16_palettized = constexpr_lut_to_dense()[indices = tensor<uint8, [147456]>(BLOBFILE(path = tensor<string, []>("@model_path/weights/weight.bin"), offset = tensor<uint64, []>(877312))), lut = tensor<fp16, [256]>(BLOBFILE(path = tensor<string, []>("@model_path/weights/weight.bin"), offset = tensor<uint64, []>(1024832))), name = tensor<string, []>("const_47_to_fp16_palettized"), shape = tensor<uint32, [4]>([128, 128, 3, 3])];
            tensor<fp16, [128]> const_48_to_fp16 = const()[name = tensor<string, []>("const_48_to_fp16"), val = tensor<fp16, [128]>(BLOBFILE(path = tensor<string, []>("@model_path/weights/weight.bin"), offset = tensor<uint64, []>(1025408)))];
            tensor<fp16, [1, 128, 20, 750]> input_123_cast_fp16 = conv(bias = const_48_to_fp16, dilations = input_121_dilations_0, groups = input_121_groups_0, pad = input_121_pad_0, pad_type = input_121_pad_type_0, strides = input_121_strides_0, weight = const_47_to_fp16_palettized, x = input_119_cast_fp16)[name = tensor<string, []>("input_123_cast_fp16")];
            tensor<fp16, [1, 128, 20, 750]> input_125_cast_fp16 = relu(x = input_123_cast_fp16)[name = tensor<string, []>("input_125_cast_fp16")];
            tensor<string, []> input_127_pad_type_0 = const()[name = tensor<string, []>("input_127_pad_type_0"), val = tensor<string, []>("custom")];
            tensor<int32, [4]> input_127_pad_0 = const()[name = tensor<string, []>("input_127_pad_0"), val = tensor<int32, [4]>([1, 1, 1, 1])];
            tensor<int32, [2]> input_127_strides_0 = const()[name = tensor<string, []>("input_127_strides_0"), val = tensor<int32, [2]>([1, 1])];
            tensor<int32, [2]> input_127_dilations_0 = const()[name = tensor<string, []>("input_127_dilations_0"), val = tensor<int32, [2]>([1, 1])];
            tensor<int32, []> input_127_groups_0 = const()[name = tensor<string, []>("input_127_groups_0"), val = tensor<int32, []>(1)];
            tensor<fp16, [128, 128, 3, 3]> const_49_to_fp16_palettized = constexpr_lut_to_dense()[indices = tensor<uint8, [147456]>(BLOBFILE(path = tensor<string, []>("@model_path/weights/weight.bin"), offset = tensor<uint64, []>(1025728))), lut = tensor<fp16, [256]>(BLOBFILE(path = tensor<string, []>("@model_path/weights/weight.bin"), offset = tensor<uint64, []>(1173248))), name = tensor<string, []>("const_49_to_fp16_palettized"), shape = tensor<uint32, [4]>([128, 128, 3, 3])];
            tensor<fp16, [128]> const_50_to_fp16 = const()[name = tensor<string, []>("const_50_to_fp16"), val = tensor<fp16, [128]>(BLOBFILE(path = tensor<string, []>("@model_path/weights/weight.bin"), offset = tensor<uint64, []>(1173824)))];
            tensor<fp16, [1, 128, 20, 750]> out_19_cast_fp16 = conv(bias = const_50_to_fp16, dilations = input_127_dilations_0, groups = input_127_groups_0, pad = input_127_pad_0, pad_type = input_127_pad_type_0, strides = input_127_strides_0, weight = const_49_to_fp16_palettized, x = input_125_cast_fp16)[name = tensor<string, []>("out_19_cast_fp16")];
            tensor<fp16, [1, 128, 20, 750]> input_129_cast_fp16 = add(x = out_19_cast_fp16, y = input_119_cast_fp16)[name = tensor<string, []>("input_129_cast_fp16")];
            tensor<fp16, [1, 128, 20, 750]> input_131_cast_fp16 = relu(x = input_129_cast_fp16)[name = tensor<string, []>("input_131_cast_fp16")];
            tensor<string, []> input_133_pad_type_0 = const()[name = tensor<string, []>("input_133_pad_type_0"), val = tensor<string, []>("custom")];
            tensor<int32, [4]> input_133_pad_0 = const()[name = tensor<string, []>("input_133_pad_0"), val = tensor<int32, [4]>([1, 1, 1, 1])];
            tensor<int32, [2]> input_133_strides_0 = const()[name = tensor<string, []>("input_133_strides_0"), val = tensor<int32, [2]>([1, 1])];
            tensor<int32, [2]> input_133_dilations_0 = const()[name = tensor<string, []>("input_133_dilations_0"), val = tensor<int32, [2]>([1, 1])];
            tensor<int32, []> input_133_groups_0 = const()[name = tensor<string, []>("input_133_groups_0"), val = tensor<int32, []>(1)];
            tensor<fp16, [128, 128, 3, 3]> const_51_to_fp16_palettized = constexpr_lut_to_dense()[indices = tensor<uint8, [147456]>(BLOBFILE(path = tensor<string, []>("@model_path/weights/weight.bin"), offset = tensor<uint64, []>(1174144))), lut = tensor<fp16, [256]>(BLOBFILE(path = tensor<string, []>("@model_path/weights/weight.bin"), offset = tensor<uint64, []>(1321664))), name = tensor<string, []>("const_51_to_fp16_palettized"), shape = tensor<uint32, [4]>([128, 128, 3, 3])];
            tensor<fp16, [128]> const_52_to_fp16 = const()[name = tensor<string, []>("const_52_to_fp16"), val = tensor<fp16, [128]>(BLOBFILE(path = tensor<string, []>("@model_path/weights/weight.bin"), offset = tensor<uint64, []>(1322240)))];
            tensor<fp16, [1, 128, 20, 750]> input_135_cast_fp16 = conv(bias = const_52_to_fp16, dilations = input_133_dilations_0, groups = input_133_groups_0, pad = input_133_pad_0, pad_type = input_133_pad_type_0, strides = input_133_strides_0, weight = const_51_to_fp16_palettized, x = input_131_cast_fp16)[name = tensor<string, []>("input_135_cast_fp16")];
            tensor<fp16, [1, 128, 20, 750]> input_137_cast_fp16 = relu(x = input_135_cast_fp16)[name = tensor<string, []>("input_137_cast_fp16")];
            tensor<string, []> input_139_pad_type_0 = const()[name = tensor<string, []>("input_139_pad_type_0"), val = tensor<string, []>("custom")];
            tensor<int32, [4]> input_139_pad_0 = const()[name = tensor<string, []>("input_139_pad_0"), val = tensor<int32, [4]>([1, 1, 1, 1])];
            tensor<int32, [2]> input_139_strides_0 = const()[name = tensor<string, []>("input_139_strides_0"), val = tensor<int32, [2]>([1, 1])];
            tensor<int32, [2]> input_139_dilations_0 = const()[name = tensor<string, []>("input_139_dilations_0"), val = tensor<int32, [2]>([1, 1])];
            tensor<int32, []> input_139_groups_0 = const()[name = tensor<string, []>("input_139_groups_0"), val = tensor<int32, []>(1)];
            tensor<fp16, [128, 128, 3, 3]> const_53_to_fp16_palettized = constexpr_lut_to_dense()[indices = tensor<uint8, [147456]>(BLOBFILE(path = tensor<string, []>("@model_path/weights/weight.bin"), offset = tensor<uint64, []>(1322560))), lut = tensor<fp16, [256]>(BLOBFILE(path = tensor<string, []>("@model_path/weights/weight.bin"), offset = tensor<uint64, []>(1470080))), name = tensor<string, []>("const_53_to_fp16_palettized"), shape = tensor<uint32, [4]>([128, 128, 3, 3])];
            tensor<fp16, [128]> const_54_to_fp16 = const()[name = tensor<string, []>("const_54_to_fp16"), val = tensor<fp16, [128]>(BLOBFILE(path = tensor<string, []>("@model_path/weights/weight.bin"), offset = tensor<uint64, []>(1470656)))];
            tensor<fp16, [1, 128, 20, 750]> out_21_cast_fp16 = conv(bias = const_54_to_fp16, dilations = input_139_dilations_0, groups = input_139_groups_0, pad = input_139_pad_0, pad_type = input_139_pad_type_0, strides = input_139_strides_0, weight = const_53_to_fp16_palettized, x = input_137_cast_fp16)[name = tensor<string, []>("out_21_cast_fp16")];
            tensor<fp16, [1, 128, 20, 750]> input_141_cast_fp16 = add(x = out_21_cast_fp16, y = input_131_cast_fp16)[name = tensor<string, []>("input_141_cast_fp16")];
            tensor<fp16, [1, 128, 20, 750]> input_143_cast_fp16 = relu(x = input_141_cast_fp16)[name = tensor<string, []>("input_143_cast_fp16")];
            tensor<string, []> input_145_pad_type_0 = const()[name = tensor<string, []>("input_145_pad_type_0"), val = tensor<string, []>("custom")];
            tensor<int32, [4]> input_145_pad_0 = const()[name = tensor<string, []>("input_145_pad_0"), val = tensor<int32, [4]>([1, 1, 1, 1])];
            tensor<int32, [2]> input_145_strides_0 = const()[name = tensor<string, []>("input_145_strides_0"), val = tensor<int32, [2]>([1, 1])];
            tensor<int32, [2]> input_145_dilations_0 = const()[name = tensor<string, []>("input_145_dilations_0"), val = tensor<int32, [2]>([1, 1])];
            tensor<int32, []> input_145_groups_0 = const()[name = tensor<string, []>("input_145_groups_0"), val = tensor<int32, []>(1)];
            tensor<fp16, [128, 128, 3, 3]> const_55_to_fp16_palettized = constexpr_lut_to_dense()[indices = tensor<uint8, [147456]>(BLOBFILE(path = tensor<string, []>("@model_path/weights/weight.bin"), offset = tensor<uint64, []>(1470976))), lut = tensor<fp16, [256]>(BLOBFILE(path = tensor<string, []>("@model_path/weights/weight.bin"), offset = tensor<uint64, []>(1618496))), name = tensor<string, []>("const_55_to_fp16_palettized"), shape = tensor<uint32, [4]>([128, 128, 3, 3])];
            tensor<fp16, [128]> const_56_to_fp16 = const()[name = tensor<string, []>("const_56_to_fp16"), val = tensor<fp16, [128]>(BLOBFILE(path = tensor<string, []>("@model_path/weights/weight.bin"), offset = tensor<uint64, []>(1619072)))];
            tensor<fp16, [1, 128, 20, 750]> input_147_cast_fp16 = conv(bias = const_56_to_fp16, dilations = input_145_dilations_0, groups = input_145_groups_0, pad = input_145_pad_0, pad_type = input_145_pad_type_0, strides = input_145_strides_0, weight = const_55_to_fp16_palettized, x = input_143_cast_fp16)[name = tensor<string, []>("input_147_cast_fp16")];
            tensor<fp16, [1, 128, 20, 750]> input_149_cast_fp16 = relu(x = input_147_cast_fp16)[name = tensor<string, []>("input_149_cast_fp16")];
            tensor<string, []> input_151_pad_type_0 = const()[name = tensor<string, []>("input_151_pad_type_0"), val = tensor<string, []>("custom")];
            tensor<int32, [4]> input_151_pad_0 = const()[name = tensor<string, []>("input_151_pad_0"), val = tensor<int32, [4]>([1, 1, 1, 1])];
            tensor<int32, [2]> input_151_strides_0 = const()[name = tensor<string, []>("input_151_strides_0"), val = tensor<int32, [2]>([1, 1])];
            tensor<int32, [2]> input_151_dilations_0 = const()[name = tensor<string, []>("input_151_dilations_0"), val = tensor<int32, [2]>([1, 1])];
            tensor<int32, []> input_151_groups_0 = const()[name = tensor<string, []>("input_151_groups_0"), val = tensor<int32, []>(1)];
            tensor<fp16, [128, 128, 3, 3]> const_57_to_fp16_palettized = constexpr_lut_to_dense()[indices = tensor<uint8, [147456]>(BLOBFILE(path = tensor<string, []>("@model_path/weights/weight.bin"), offset = tensor<uint64, []>(1619392))), lut = tensor<fp16, [256]>(BLOBFILE(path = tensor<string, []>("@model_path/weights/weight.bin"), offset = tensor<uint64, []>(1766912))), name = tensor<string, []>("const_57_to_fp16_palettized"), shape = tensor<uint32, [4]>([128, 128, 3, 3])];
            tensor<fp16, [128]> const_58_to_fp16 = const()[name = tensor<string, []>("const_58_to_fp16"), val = tensor<fp16, [128]>(BLOBFILE(path = tensor<string, []>("@model_path/weights/weight.bin"), offset = tensor<uint64, []>(1767488)))];
            tensor<fp16, [1, 128, 20, 750]> out_23_cast_fp16 = conv(bias = const_58_to_fp16, dilations = input_151_dilations_0, groups = input_151_groups_0, pad = input_151_pad_0, pad_type = input_151_pad_type_0, strides = input_151_strides_0, weight = const_57_to_fp16_palettized, x = input_149_cast_fp16)[name = tensor<string, []>("out_23_cast_fp16")];
            tensor<fp16, [1, 128, 20, 750]> input_153_cast_fp16 = add(x = out_23_cast_fp16, y = input_143_cast_fp16)[name = tensor<string, []>("input_153_cast_fp16")];
            tensor<fp16, [1, 128, 20, 750]> input_155_cast_fp16 = relu(x = input_153_cast_fp16)[name = tensor<string, []>("input_155_cast_fp16")];
            tensor<string, []> input_157_pad_type_0 = const()[name = tensor<string, []>("input_157_pad_type_0"), val = tensor<string, []>("custom")];
            tensor<int32, [4]> input_157_pad_0 = const()[name = tensor<string, []>("input_157_pad_0"), val = tensor<int32, [4]>([1, 1, 1, 1])];
            tensor<int32, [2]> input_157_strides_0 = const()[name = tensor<string, []>("input_157_strides_0"), val = tensor<int32, [2]>([1, 1])];
            tensor<int32, [2]> input_157_dilations_0 = const()[name = tensor<string, []>("input_157_dilations_0"), val = tensor<int32, [2]>([1, 1])];
            tensor<int32, []> input_157_groups_0 = const()[name = tensor<string, []>("input_157_groups_0"), val = tensor<int32, []>(1)];
            tensor<fp16, [128, 128, 3, 3]> const_59_to_fp16_palettized = constexpr_lut_to_dense()[indices = tensor<uint8, [147456]>(BLOBFILE(path = tensor<string, []>("@model_path/weights/weight.bin"), offset = tensor<uint64, []>(1767808))), lut = tensor<fp16, [256]>(BLOBFILE(path = tensor<string, []>("@model_path/weights/weight.bin"), offset = tensor<uint64, []>(1915328))), name = tensor<string, []>("const_59_to_fp16_palettized"), shape = tensor<uint32, [4]>([128, 128, 3, 3])];
            tensor<fp16, [128]> const_60_to_fp16 = const()[name = tensor<string, []>("const_60_to_fp16"), val = tensor<fp16, [128]>(BLOBFILE(path = tensor<string, []>("@model_path/weights/weight.bin"), offset = tensor<uint64, []>(1915904)))];
            tensor<fp16, [1, 128, 20, 750]> input_159_cast_fp16 = conv(bias = const_60_to_fp16, dilations = input_157_dilations_0, groups = input_157_groups_0, pad = input_157_pad_0, pad_type = input_157_pad_type_0, strides = input_157_strides_0, weight = const_59_to_fp16_palettized, x = input_155_cast_fp16)[name = tensor<string, []>("input_159_cast_fp16")];
            tensor<fp16, [1, 128, 20, 750]> input_161_cast_fp16 = relu(x = input_159_cast_fp16)[name = tensor<string, []>("input_161_cast_fp16")];
            tensor<string, []> input_163_pad_type_0 = const()[name = tensor<string, []>("input_163_pad_type_0"), val = tensor<string, []>("custom")];
            tensor<int32, [4]> input_163_pad_0 = const()[name = tensor<string, []>("input_163_pad_0"), val = tensor<int32, [4]>([1, 1, 1, 1])];
            tensor<int32, [2]> input_163_strides_0 = const()[name = tensor<string, []>("input_163_strides_0"), val = tensor<int32, [2]>([1, 1])];
            tensor<int32, [2]> input_163_dilations_0 = const()[name = tensor<string, []>("input_163_dilations_0"), val = tensor<int32, [2]>([1, 1])];
            tensor<int32, []> input_163_groups_0 = const()[name = tensor<string, []>("input_163_groups_0"), val = tensor<int32, []>(1)];
            tensor<fp16, [128, 128, 3, 3]> const_61_to_fp16_palettized = constexpr_lut_to_dense()[indices = tensor<uint8, [147456]>(BLOBFILE(path = tensor<string, []>("@model_path/weights/weight.bin"), offset = tensor<uint64, []>(1916224))), lut = tensor<fp16, [256]>(BLOBFILE(path = tensor<string, []>("@model_path/weights/weight.bin"), offset = tensor<uint64, []>(2063744))), name = tensor<string, []>("const_61_to_fp16_palettized"), shape = tensor<uint32, [4]>([128, 128, 3, 3])];
            tensor<fp16, [128]> const_62_to_fp16 = const()[name = tensor<string, []>("const_62_to_fp16"), val = tensor<fp16, [128]>(BLOBFILE(path = tensor<string, []>("@model_path/weights/weight.bin"), offset = tensor<uint64, []>(2064320)))];
            tensor<fp16, [1, 128, 20, 750]> out_25_cast_fp16 = conv(bias = const_62_to_fp16, dilations = input_163_dilations_0, groups = input_163_groups_0, pad = input_163_pad_0, pad_type = input_163_pad_type_0, strides = input_163_strides_0, weight = const_61_to_fp16_palettized, x = input_161_cast_fp16)[name = tensor<string, []>("out_25_cast_fp16")];
            tensor<fp16, [1, 128, 20, 750]> input_165_cast_fp16 = add(x = out_25_cast_fp16, y = input_155_cast_fp16)[name = tensor<string, []>("input_165_cast_fp16")];
            tensor<fp16, [1, 128, 20, 750]> input_167_cast_fp16 = relu(x = input_165_cast_fp16)[name = tensor<string, []>("input_167_cast_fp16")];
            tensor<string, []> input_169_pad_type_0 = const()[name = tensor<string, []>("input_169_pad_type_0"), val = tensor<string, []>("custom")];
            tensor<int32, [4]> input_169_pad_0 = const()[name = tensor<string, []>("input_169_pad_0"), val = tensor<int32, [4]>([1, 1, 1, 1])];
            tensor<int32, [2]> input_169_strides_0 = const()[name = tensor<string, []>("input_169_strides_0"), val = tensor<int32, [2]>([2, 2])];
            tensor<int32, [2]> input_169_dilations_0 = const()[name = tensor<string, []>("input_169_dilations_0"), val = tensor<int32, [2]>([1, 1])];
            tensor<int32, []> input_169_groups_0 = const()[name = tensor<string, []>("input_169_groups_0"), val = tensor<int32, []>(1)];
            tensor<fp16, [256, 128, 3, 3]> const_63_to_fp16_palettized = constexpr_lut_to_dense()[indices = tensor<uint8, [294912]>(BLOBFILE(path = tensor<string, []>("@model_path/weights/weight.bin"), offset = tensor<uint64, []>(2064640))), lut = tensor<fp16, [256]>(BLOBFILE(path = tensor<string, []>("@model_path/weights/weight.bin"), offset = tensor<uint64, []>(2359616))), name = tensor<string, []>("const_63_to_fp16_palettized"), shape = tensor<uint32, [4]>([256, 128, 3, 3])];
            tensor<fp16, [256]> const_64_to_fp16 = const()[name = tensor<string, []>("const_64_to_fp16"), val = tensor<fp16, [256]>(BLOBFILE(path = tensor<string, []>("@model_path/weights/weight.bin"), offset = tensor<uint64, []>(2360192)))];
            tensor<fp16, [1, 256, 10, 375]> input_171_cast_fp16 = conv(bias = const_64_to_fp16, dilations = input_169_dilations_0, groups = input_169_groups_0, pad = input_169_pad_0, pad_type = input_169_pad_type_0, strides = input_169_strides_0, weight = const_63_to_fp16_palettized, x = input_167_cast_fp16)[name = tensor<string, []>("input_171_cast_fp16")];
            tensor<fp16, [1, 256, 10, 375]> input_173_cast_fp16 = relu(x = input_171_cast_fp16)[name = tensor<string, []>("input_173_cast_fp16")];
            tensor<string, []> input_175_pad_type_0 = const()[name = tensor<string, []>("input_175_pad_type_0"), val = tensor<string, []>("custom")];
            tensor<int32, [4]> input_175_pad_0 = const()[name = tensor<string, []>("input_175_pad_0"), val = tensor<int32, [4]>([1, 1, 1, 1])];
            tensor<int32, [2]> input_175_strides_0 = const()[name = tensor<string, []>("input_175_strides_0"), val = tensor<int32, [2]>([1, 1])];
            tensor<int32, [2]> input_175_dilations_0 = const()[name = tensor<string, []>("input_175_dilations_0"), val = tensor<int32, [2]>([1, 1])];
            tensor<int32, []> input_175_groups_0 = const()[name = tensor<string, []>("input_175_groups_0"), val = tensor<int32, []>(1)];
            tensor<fp16, [256, 256, 3, 3]> const_65_to_fp16_palettized = constexpr_lut_to_dense()[indices = tensor<uint8, [589824]>(BLOBFILE(path = tensor<string, []>("@model_path/weights/weight.bin"), offset = tensor<uint64, []>(2360768))), lut = tensor<fp16, [256]>(BLOBFILE(path = tensor<string, []>("@model_path/weights/weight.bin"), offset = tensor<uint64, []>(2950656))), name = tensor<string, []>("const_65_to_fp16_palettized"), shape = tensor<uint32, [4]>([256, 256, 3, 3])];
            tensor<fp16, [256]> const_66_to_fp16 = const()[name = tensor<string, []>("const_66_to_fp16"), val = tensor<fp16, [256]>(BLOBFILE(path = tensor<string, []>("@model_path/weights/weight.bin"), offset = tensor<uint64, []>(2951232)))];
            tensor<fp16, [1, 256, 10, 375]> out_27_cast_fp16 = conv(bias = const_66_to_fp16, dilations = input_175_dilations_0, groups = input_175_groups_0, pad = input_175_pad_0, pad_type = input_175_pad_type_0, strides = input_175_strides_0, weight = const_65_to_fp16_palettized, x = input_173_cast_fp16)[name = tensor<string, []>("out_27_cast_fp16")];
            tensor<string, []> input_177_pad_type_0 = const()[name = tensor<string, []>("input_177_pad_type_0"), val = tensor<string, []>("valid")];
            tensor<int32, [2]> input_177_strides_0 = const()[name = tensor<string, []>("input_177_strides_0"), val = tensor<int32, [2]>([2, 2])];
            tensor<int32, [4]> input_177_pad_0 = const()[name = tensor<string, []>("input_177_pad_0"), val = tensor<int32, [4]>([0, 0, 0, 0])];
            tensor<int32, [2]> input_177_dilations_0 = const()[name = tensor<string, []>("input_177_dilations_0"), val = tensor<int32, [2]>([1, 1])];
            tensor<int32, []> input_177_groups_0 = const()[name = tensor<string, []>("input_177_groups_0"), val = tensor<int32, []>(1)];
            tensor<fp16, [256, 128, 1, 1]> const_67_to_fp16_palettized = constexpr_lut_to_dense()[indices = tensor<uint8, [32768]>(BLOBFILE(path = tensor<string, []>("@model_path/weights/weight.bin"), offset = tensor<uint64, []>(2951808))), lut = tensor<fp16, [256]>(BLOBFILE(path = tensor<string, []>("@model_path/weights/weight.bin"), offset = tensor<uint64, []>(2984640))), name = tensor<string, []>("const_67_to_fp16_palettized"), shape = tensor<uint32, [4]>([256, 128, 1, 1])];
            tensor<fp16, [256]> const_68_to_fp16 = const()[name = tensor<string, []>("const_68_to_fp16"), val = tensor<fp16, [256]>(BLOBFILE(path = tensor<string, []>("@model_path/weights/weight.bin"), offset = tensor<uint64, []>(2985216)))];
            tensor<fp16, [1, 256, 10, 375]> var_558_cast_fp16 = conv(bias = const_68_to_fp16, dilations = input_177_dilations_0, groups = input_177_groups_0, pad = input_177_pad_0, pad_type = input_177_pad_type_0, strides = input_177_strides_0, weight = const_67_to_fp16_palettized, x = input_167_cast_fp16)[name = tensor<string, []>("op_558_cast_fp16")];
            tensor<fp16, [1, 256, 10, 375]> input_179_cast_fp16 = add(x = out_27_cast_fp16, y = var_558_cast_fp16)[name = tensor<string, []>("input_179_cast_fp16")];
            tensor<fp16, [1, 256, 10, 375]> input_181_cast_fp16 = relu(x = input_179_cast_fp16)[name = tensor<string, []>("input_181_cast_fp16")];
            tensor<string, []> input_183_pad_type_0 = const()[name = tensor<string, []>("input_183_pad_type_0"), val = tensor<string, []>("custom")];
            tensor<int32, [4]> input_183_pad_0 = const()[name = tensor<string, []>("input_183_pad_0"), val = tensor<int32, [4]>([1, 1, 1, 1])];
            tensor<int32, [2]> input_183_strides_0 = const()[name = tensor<string, []>("input_183_strides_0"), val = tensor<int32, [2]>([1, 1])];
            tensor<int32, [2]> input_183_dilations_0 = const()[name = tensor<string, []>("input_183_dilations_0"), val = tensor<int32, [2]>([1, 1])];
            tensor<int32, []> input_183_groups_0 = const()[name = tensor<string, []>("input_183_groups_0"), val = tensor<int32, []>(1)];
            tensor<fp16, [256, 256, 3, 3]> const_69_to_fp16_palettized = constexpr_lut_to_dense()[indices = tensor<uint8, [589824]>(BLOBFILE(path = tensor<string, []>("@model_path/weights/weight.bin"), offset = tensor<uint64, []>(2985792))), lut = tensor<fp16, [256]>(BLOBFILE(path = tensor<string, []>("@model_path/weights/weight.bin"), offset = tensor<uint64, []>(3575680))), name = tensor<string, []>("const_69_to_fp16_palettized"), shape = tensor<uint32, [4]>([256, 256, 3, 3])];
            tensor<fp16, [256]> const_70_to_fp16 = const()[name = tensor<string, []>("const_70_to_fp16"), val = tensor<fp16, [256]>(BLOBFILE(path = tensor<string, []>("@model_path/weights/weight.bin"), offset = tensor<uint64, []>(3576256)))];
            tensor<fp16, [1, 256, 10, 375]> input_185_cast_fp16 = conv(bias = const_70_to_fp16, dilations = input_183_dilations_0, groups = input_183_groups_0, pad = input_183_pad_0, pad_type = input_183_pad_type_0, strides = input_183_strides_0, weight = const_69_to_fp16_palettized, x = input_181_cast_fp16)[name = tensor<string, []>("input_185_cast_fp16")];
            tensor<fp16, [1, 256, 10, 375]> input_187_cast_fp16 = relu(x = input_185_cast_fp16)[name = tensor<string, []>("input_187_cast_fp16")];
            tensor<string, []> input_189_pad_type_0 = const()[name = tensor<string, []>("input_189_pad_type_0"), val = tensor<string, []>("custom")];
            tensor<int32, [4]> input_189_pad_0 = const()[name = tensor<string, []>("input_189_pad_0"), val = tensor<int32, [4]>([1, 1, 1, 1])];
            tensor<int32, [2]> input_189_strides_0 = const()[name = tensor<string, []>("input_189_strides_0"), val = tensor<int32, [2]>([1, 1])];
            tensor<int32, [2]> input_189_dilations_0 = const()[name = tensor<string, []>("input_189_dilations_0"), val = tensor<int32, [2]>([1, 1])];
            tensor<int32, []> input_189_groups_0 = const()[name = tensor<string, []>("input_189_groups_0"), val = tensor<int32, []>(1)];
            tensor<fp16, [256, 256, 3, 3]> const_71_to_fp16_palettized = constexpr_lut_to_dense()[indices = tensor<uint8, [589824]>(BLOBFILE(path = tensor<string, []>("@model_path/weights/weight.bin"), offset = tensor<uint64, []>(3576832))), lut = tensor<fp16, [256]>(BLOBFILE(path = tensor<string, []>("@model_path/weights/weight.bin"), offset = tensor<uint64, []>(4166720))), name = tensor<string, []>("const_71_to_fp16_palettized"), shape = tensor<uint32, [4]>([256, 256, 3, 3])];
            tensor<fp16, [256]> const_72_to_fp16 = const()[name = tensor<string, []>("const_72_to_fp16"), val = tensor<fp16, [256]>(BLOBFILE(path = tensor<string, []>("@model_path/weights/weight.bin"), offset = tensor<uint64, []>(4167296)))];
            tensor<fp16, [1, 256, 10, 375]> out_29_cast_fp16 = conv(bias = const_72_to_fp16, dilations = input_189_dilations_0, groups = input_189_groups_0, pad = input_189_pad_0, pad_type = input_189_pad_type_0, strides = input_189_strides_0, weight = const_71_to_fp16_palettized, x = input_187_cast_fp16)[name = tensor<string, []>("out_29_cast_fp16")];
            tensor<fp16, [1, 256, 10, 375]> input_191_cast_fp16 = add(x = out_29_cast_fp16, y = input_181_cast_fp16)[name = tensor<string, []>("input_191_cast_fp16")];
            tensor<fp16, [1, 256, 10, 375]> input_193_cast_fp16 = relu(x = input_191_cast_fp16)[name = tensor<string, []>("input_193_cast_fp16")];
            tensor<string, []> input_195_pad_type_0 = const()[name = tensor<string, []>("input_195_pad_type_0"), val = tensor<string, []>("custom")];
            tensor<int32, [4]> input_195_pad_0 = const()[name = tensor<string, []>("input_195_pad_0"), val = tensor<int32, [4]>([1, 1, 1, 1])];
            tensor<int32, [2]> input_195_strides_0 = const()[name = tensor<string, []>("input_195_strides_0"), val = tensor<int32, [2]>([1, 1])];
            tensor<int32, [2]> input_195_dilations_0 = const()[name = tensor<string, []>("input_195_dilations_0"), val = tensor<int32, [2]>([1, 1])];
            tensor<int32, []> input_195_groups_0 = const()[name = tensor<string, []>("input_195_groups_0"), val = tensor<int32, []>(1)];
            tensor<fp16, [256, 256, 3, 3]> const_73_to_fp16_palettized = constexpr_lut_to_dense()[indices = tensor<uint8, [589824]>(BLOBFILE(path = tensor<string, []>("@model_path/weights/weight.bin"), offset = tensor<uint64, []>(4167872))), lut = tensor<fp16, [256]>(BLOBFILE(path = tensor<string, []>("@model_path/weights/weight.bin"), offset = tensor<uint64, []>(4757760))), name = tensor<string, []>("const_73_to_fp16_palettized"), shape = tensor<uint32, [4]>([256, 256, 3, 3])];
            tensor<fp16, [256]> const_74_to_fp16 = const()[name = tensor<string, []>("const_74_to_fp16"), val = tensor<fp16, [256]>(BLOBFILE(path = tensor<string, []>("@model_path/weights/weight.bin"), offset = tensor<uint64, []>(4758336)))];
            tensor<fp16, [1, 256, 10, 375]> input_197_cast_fp16 = conv(bias = const_74_to_fp16, dilations = input_195_dilations_0, groups = input_195_groups_0, pad = input_195_pad_0, pad_type = input_195_pad_type_0, strides = input_195_strides_0, weight = const_73_to_fp16_palettized, x = input_193_cast_fp16)[name = tensor<string, []>("input_197_cast_fp16")];
            tensor<fp16, [1, 256, 10, 375]> input_199_cast_fp16 = relu(x = input_197_cast_fp16)[name = tensor<string, []>("input_199_cast_fp16")];
            tensor<string, []> input_201_pad_type_0 = const()[name = tensor<string, []>("input_201_pad_type_0"), val = tensor<string, []>("custom")];
            tensor<int32, [4]> input_201_pad_0 = const()[name = tensor<string, []>("input_201_pad_0"), val = tensor<int32, [4]>([1, 1, 1, 1])];
            tensor<int32, [2]> input_201_strides_0 = const()[name = tensor<string, []>("input_201_strides_0"), val = tensor<int32, [2]>([1, 1])];
            tensor<int32, [2]> input_201_dilations_0 = const()[name = tensor<string, []>("input_201_dilations_0"), val = tensor<int32, [2]>([1, 1])];
            tensor<int32, []> input_201_groups_0 = const()[name = tensor<string, []>("input_201_groups_0"), val = tensor<int32, []>(1)];
            tensor<fp16, [256, 256, 3, 3]> const_75_to_fp16_palettized = constexpr_lut_to_dense()[indices = tensor<uint8, [589824]>(BLOBFILE(path = tensor<string, []>("@model_path/weights/weight.bin"), offset = tensor<uint64, []>(4758912))), lut = tensor<fp16, [256]>(BLOBFILE(path = tensor<string, []>("@model_path/weights/weight.bin"), offset = tensor<uint64, []>(5348800))), name = tensor<string, []>("const_75_to_fp16_palettized"), shape = tensor<uint32, [4]>([256, 256, 3, 3])];
            tensor<fp16, [256]> const_76_to_fp16 = const()[name = tensor<string, []>("const_76_to_fp16"), val = tensor<fp16, [256]>(BLOBFILE(path = tensor<string, []>("@model_path/weights/weight.bin"), offset = tensor<uint64, []>(5349376)))];
            tensor<fp16, [1, 256, 10, 375]> out_cast_fp16 = conv(bias = const_76_to_fp16, dilations = input_201_dilations_0, groups = input_201_groups_0, pad = input_201_pad_0, pad_type = input_201_pad_type_0, strides = input_201_strides_0, weight = const_75_to_fp16_palettized, x = input_199_cast_fp16)[name = tensor<string, []>("out_cast_fp16")];
            tensor<fp16, [1, 256, 10, 375]> input_203_cast_fp16 = add(x = out_cast_fp16, y = input_193_cast_fp16)[name = tensor<string, []>("input_203_cast_fp16")];
            tensor<fp16, [1, 256, 10, 375]> x_cast_fp16 = relu(x = input_203_cast_fp16)[name = tensor<string, []>("x_cast_fp16")];
            tensor<int32, [3]> var_637 = const()[name = tensor<string, []>("op_637"), val = tensor<int32, [3]>([1, 2560, 375])];
            tensor<fp16, [1, 2560, 375]> sequences_cast_fp16 = reshape(shape = var_637, x = x_cast_fp16)[name = tensor<string, []>("sequences_cast_fp16")];
            tensor<int32, [1]> expand_dims_0_axes_0 = const()[name = tensor<string, []>("expand_dims_0_axes_0"), val = tensor<int32, [1]>([3])];
            tensor<fp16, [1, 64, 1767, 1]> expand_dims_0_cast_fp16 = expand_dims(axes = expand_dims_0_axes_0, x = speaker_masks)[name = tensor<string, []>("expand_dims_0_cast_fp16")];
            tensor<fp32, []> upsample_nearest_neighbor_0_scale_factor_height_0 = const()[name = tensor<string, []>("upsample_nearest_neighbor_0_scale_factor_height_0"), val = tensor<fp32, []>(0x1.b2a296p-3)];
            tensor<fp32, []> upsample_nearest_neighbor_0_scale_factor_width_0 = const()[name = tensor<string, []>("upsample_nearest_neighbor_0_scale_factor_width_0"), val = tensor<fp32, []>(0x1p+0)];
            tensor<fp16, [1, 64, 375, 1]> upsample_nearest_neighbor_0_cast_fp16 = upsample_nearest_neighbor(scale_factor_height = upsample_nearest_neighbor_0_scale_factor_height_0, scale_factor_width = upsample_nearest_neighbor_0_scale_factor_width_0, x = expand_dims_0_cast_fp16)[name = tensor<string, []>("upsample_nearest_neighbor_0_cast_fp16")];
            tensor<int32, [1]> weights_1_axes_0 = const()[name = tensor<string, []>("weights_1_axes_0"), val = tensor<int32, [1]>([3])];
            tensor<fp16, [1, 64, 375]> weights_1_cast_fp16 = squeeze(axes = weights_1_axes_0, x = upsample_nearest_neighbor_0_cast_fp16)[name = tensor<string, []>("weights_1_cast_fp16")];
            tensor<int32, [3]> var_643_begin_0 = const()[name = tensor<string, []>("op_643_begin_0"), val = tensor<int32, [3]>([0, 0, 0])];
            tensor<int32, [3]> var_643_end_0 = const()[name = tensor<string, []>("op_643_end_0"), val = tensor<int32, [3]>([1, 1, 375])];
            tensor<bool, [3]> var_643_end_mask_0 = const()[name = tensor<string, []>("op_643_end_mask_0"), val = tensor<bool, [3]>([true, false, true])];
            tensor<bool, [3]> var_643_squeeze_mask_0 = const()[name = tensor<string, []>("op_643_squeeze_mask_0"), val = tensor<bool, [3]>([false, true, false])];
            tensor<fp16, [1, 375]> var_643_cast_fp16 = slice_by_index(begin = var_643_begin_0, end = var_643_end_0, end_mask = var_643_end_mask_0, squeeze_mask = var_643_squeeze_mask_0, x = weights_1_cast_fp16)[name = tensor<string, []>("op_643_cast_fp16")];
            tensor<int32, [1]> weights_5_axes_0 = const()[name = tensor<string, []>("weights_5_axes_0"), val = tensor<int32, [1]>([1])];
            tensor<fp16, [1, 1, 375]> weights_5_cast_fp16 = expand_dims(axes = weights_5_axes_0, x = var_643_cast_fp16)[name = tensor<string, []>("weights_5_cast_fp16")];
            tensor<int32, [1]> var_647_axes_0 = const()[name = tensor<string, []>("op_647_axes_0"), val = tensor<int32, [1]>([2])];
            tensor<bool, []> var_647_keep_dims_0 = const()[name = tensor<string, []>("op_647_keep_dims_0"), val = tensor<bool, []>(false)];
            tensor<fp16, [1, 1]> var_647_cast_fp16 = reduce_sum(axes = var_647_axes_0, keep_dims = var_647_keep_dims_0, x = weights_5_cast_fp16)[name = tensor<string, []>("op_647_cast_fp16")];
            tensor<fp16, []> var_648_to_fp16 = const()[name = tensor<string, []>("op_648_to_fp16"), val = tensor<fp16, []>(0x1p-24)];
            tensor<fp16, [1, 1]> v1_1_cast_fp16 = add(x = var_647_cast_fp16, y = var_648_to_fp16)[name = tensor<string, []>("v1_1_cast_fp16")];
            tensor<fp16, [1, 2560, 375]> var_650_cast_fp16 = mul(x = sequences_cast_fp16, y = weights_5_cast_fp16)[name = tensor<string, []>("op_650_cast_fp16")];
            tensor<int32, [1]> var_652_axes_0 = const()[name = tensor<string, []>("op_652_axes_0"), val = tensor<int32, [1]>([2])];
            tensor<bool, []> var_652_keep_dims_0 = const()[name = tensor<string, []>("op_652_keep_dims_0"), val = tensor<bool, []>(false)];
            tensor<fp16, [1, 2560]> var_652_cast_fp16 = reduce_sum(axes = var_652_axes_0, keep_dims = var_652_keep_dims_0, x = var_650_cast_fp16)[name = tensor<string, []>("op_652_cast_fp16")];
            tensor<fp16, [1, 2560]> mean_1_cast_fp16 = real_div(x = var_652_cast_fp16, y = v1_1_cast_fp16)[name = tensor<string, []>("mean_1_cast_fp16")];
            tensor<int32, [1]> var_654_axes_0 = const()[name = tensor<string, []>("op_654_axes_0"), val = tensor<int32, [1]>([2])];
            tensor<fp16, [1, 2560, 1]> var_654_cast_fp16 = expand_dims(axes = var_654_axes_0, x = mean_1_cast_fp16)[name = tensor<string, []>("op_654_cast_fp16")];
            tensor<fp16, [1, 2560, 375]> var_655_cast_fp16 = sub(x = sequences_cast_fp16, y = var_654_cast_fp16)[name = tensor<string, []>("op_655_cast_fp16")];
            tensor<fp16, [1, 2560, 375]> dx2_1_cast_fp16 = mul(x = var_655_cast_fp16, y = var_655_cast_fp16)[name = tensor<string, []>("dx2_1_cast_fp16")];
            tensor<fp16, [1, 1, 375]> var_657_cast_fp16 = mul(x = weights_5_cast_fp16, y = weights_5_cast_fp16)[name = tensor<string, []>("op_657_cast_fp16")];
            tensor<int32, [1]> v2_1_axes_0 = const()[name = tensor<string, []>("v2_1_axes_0"), val = tensor<int32, [1]>([2])];
            tensor<bool, []> v2_1_keep_dims_0 = const()[name = tensor<string, []>("v2_1_keep_dims_0"), val = tensor<bool, []>(false)];
            tensor<fp16, [1, 1]> v2_1_cast_fp16 = reduce_sum(axes = v2_1_axes_0, keep_dims = v2_1_keep_dims_0, x = var_657_cast_fp16)[name = tensor<string, []>("v2_1_cast_fp16")];
            tensor<fp16, [1, 2560, 375]> var_660_cast_fp16 = mul(x = dx2_1_cast_fp16, y = weights_5_cast_fp16)[name = tensor<string, []>("op_660_cast_fp16")];
            tensor<int32, [1]> var_662_axes_0 = const()[name = tensor<string, []>("op_662_axes_0"), val = tensor<int32, [1]>([2])];
            tensor<bool, []> var_662_keep_dims_0 = const()[name = tensor<string, []>("op_662_keep_dims_0"), val = tensor<bool, []>(false)];
            tensor<fp16, [1, 2560]> var_662_cast_fp16 = reduce_sum(axes = var_662_axes_0, keep_dims = var_662_keep_dims_0, x = var_660_cast_fp16)[name = tensor<string, []>("op_662_cast_fp16")];
            tensor<fp16, [1, 1]> var_663_cast_fp16 = real_div(x = v2_1_cast_fp16, y = v1_1_cast_fp16)[name = tensor<string, []>("op_663_cast_fp16")];
            tensor<fp16, [1, 1]> var_664_cast_fp16 = sub(x = v1_1_cast_fp16, y = var_663_cast_fp16)[name = tensor<string, []>("op_664_cast_fp16")];
            tensor<fp16, []> var_665_to_fp16 = const()[name = tensor<string, []>("op_665_to_fp16"), val = tensor<fp16, []>(0x1p-24)];
            tensor<fp16, [1, 1]> var_666_cast_fp16 = add(x = var_664_cast_fp16, y = var_665_to_fp16)[name = tensor<string, []>("op_666_cast_fp16")];
            tensor<fp16, [1, 2560]> var_1_cast_fp16 = real_div(x = var_662_cast_fp16, y = var_666_cast_fp16)[name = tensor<string, []>("var_1_cast_fp16")];
            tensor<fp16, [1, 2560]> std_1_cast_fp16 = sqrt(x = var_1_cast_fp16)[name = tensor<string, []>("std_1_cast_fp16")];
            tensor<bool, []> var_670_interleave_0 = const()[name = tensor<string, []>("op_670_interleave_0"), val = tensor<bool, []>(false)];
            tensor<fp16, [1, 5120]> var_670_cast_fp16 = concat(axis = var_72, interleave = var_670_interleave_0, values = (mean_1_cast_fp16, std_1_cast_fp16))[name = tensor<string, []>("op_670_cast_fp16")];
            tensor<int32, [3]> var_672_begin_0 = const()[name = tensor<string, []>("op_672_begin_0"), val = tensor<int32, [3]>([0, 1, 0])];
            tensor<int32, [3]> var_672_end_0 = const()[name = tensor<string, []>("op_672_end_0"), val = tensor<int32, [3]>([1, 2, 375])];
            tensor<bool, [3]> var_672_end_mask_0 = const()[name = tensor<string, []>("op_672_end_mask_0"), val = tensor<bool, [3]>([true, false, true])];
            tensor<bool, [3]> var_672_squeeze_mask_0 = const()[name = tensor<string, []>("op_672_squeeze_mask_0"), val = tensor<bool, [3]>([false, true, false])];
            tensor<fp16, [1, 375]> var_672_cast_fp16 = slice_by_index(begin = var_672_begin_0, end = var_672_end_0, end_mask = var_672_end_mask_0, squeeze_mask = var_672_squeeze_mask_0, x = weights_1_cast_fp16)[name = tensor<string, []>("op_672_cast_fp16")];
            tensor<int32, [1]> weights_9_axes_0 = const()[name = tensor<string, []>("weights_9_axes_0"), val = tensor<int32, [1]>([1])];
            tensor<fp16, [1, 1, 375]> weights_9_cast_fp16 = expand_dims(axes = weights_9_axes_0, x = var_672_cast_fp16)[name = tensor<string, []>("weights_9_cast_fp16")];
            tensor<int32, [1]> var_676_axes_0 = const()[name = tensor<string, []>("op_676_axes_0"), val = tensor<int32, [1]>([2])];
            tensor<bool, []> var_676_keep_dims_0 = const()[name = tensor<string, []>("op_676_keep_dims_0"), val = tensor<bool, []>(false)];
            tensor<fp16, [1, 1]> var_676_cast_fp16 = reduce_sum(axes = var_676_axes_0, keep_dims = var_676_keep_dims_0, x = weights_9_cast_fp16)[name = tensor<string, []>("op_676_cast_fp16")];
            tensor<fp16, []> var_677_to_fp16 = const()[name = tensor<string, []>("op_677_to_fp16"), val = tensor<fp16, []>(0x1p-24)];
            tensor<fp16, [1, 1]> v1_3_cast_fp16 = add(x = var_676_cast_fp16, y = var_677_to_fp16)[name = tensor<string, []>("v1_3_cast_fp16")];
            tensor<fp16, [1, 2560, 375]> var_679_cast_fp16 = mul(x = sequences_cast_fp16, y = weights_9_cast_fp16)[name = tensor<string, []>("op_679_cast_fp16")];
            tensor<int32, [1]> var_681_axes_0 = const()[name = tensor<string, []>("op_681_axes_0"), val = tensor<int32, [1]>([2])];
            tensor<bool, []> var_681_keep_dims_0 = const()[name = tensor<string, []>("op_681_keep_dims_0"), val = tensor<bool, []>(false)];
            tensor<fp16, [1, 2560]> var_681_cast_fp16 = reduce_sum(axes = var_681_axes_0, keep_dims = var_681_keep_dims_0, x = var_679_cast_fp16)[name = tensor<string, []>("op_681_cast_fp16")];
            tensor<fp16, [1, 2560]> mean_3_cast_fp16 = real_div(x = var_681_cast_fp16, y = v1_3_cast_fp16)[name = tensor<string, []>("mean_3_cast_fp16")];
            tensor<int32, [1]> var_683_axes_0 = const()[name = tensor<string, []>("op_683_axes_0"), val = tensor<int32, [1]>([2])];
            tensor<fp16, [1, 2560, 1]> var_683_cast_fp16 = expand_dims(axes = var_683_axes_0, x = mean_3_cast_fp16)[name = tensor<string, []>("op_683_cast_fp16")];
            tensor<fp16, [1, 2560, 375]> var_684_cast_fp16 = sub(x = sequences_cast_fp16, y = var_683_cast_fp16)[name = tensor<string, []>("op_684_cast_fp16")];
            tensor<fp16, [1, 2560, 375]> dx2_3_cast_fp16 = mul(x = var_684_cast_fp16, y = var_684_cast_fp16)[name = tensor<string, []>("dx2_3_cast_fp16")];
            tensor<fp16, [1, 1, 375]> var_686_cast_fp16 = mul(x = weights_9_cast_fp16, y = weights_9_cast_fp16)[name = tensor<string, []>("op_686_cast_fp16")];
            tensor<int32, [1]> v2_3_axes_0 = const()[name = tensor<string, []>("v2_3_axes_0"), val = tensor<int32, [1]>([2])];
            tensor<bool, []> v2_3_keep_dims_0 = const()[name = tensor<string, []>("v2_3_keep_dims_0"), val = tensor<bool, []>(false)];
            tensor<fp16, [1, 1]> v2_3_cast_fp16 = reduce_sum(axes = v2_3_axes_0, keep_dims = v2_3_keep_dims_0, x = var_686_cast_fp16)[name = tensor<string, []>("v2_3_cast_fp16")];
            tensor<fp16, [1, 2560, 375]> var_689_cast_fp16 = mul(x = dx2_3_cast_fp16, y = weights_9_cast_fp16)[name = tensor<string, []>("op_689_cast_fp16")];
            tensor<int32, [1]> var_691_axes_0 = const()[name = tensor<string, []>("op_691_axes_0"), val = tensor<int32, [1]>([2])];
            tensor<bool, []> var_691_keep_dims_0 = const()[name = tensor<string, []>("op_691_keep_dims_0"), val = tensor<bool, []>(false)];
            tensor<fp16, [1, 2560]> var_691_cast_fp16 = reduce_sum(axes = var_691_axes_0, keep_dims = var_691_keep_dims_0, x = var_689_cast_fp16)[name = tensor<string, []>("op_691_cast_fp16")];
            tensor<fp16, [1, 1]> var_692_cast_fp16 = real_div(x = v2_3_cast_fp16, y = v1_3_cast_fp16)[name = tensor<string, []>("op_692_cast_fp16")];
            tensor<fp16, [1, 1]> var_693_cast_fp16 = sub(x = v1_3_cast_fp16, y = var_692_cast_fp16)[name = tensor<string, []>("op_693_cast_fp16")];
            tensor<fp16, []> var_694_to_fp16 = const()[name = tensor<string, []>("op_694_to_fp16"), val = tensor<fp16, []>(0x1p-24)];
            tensor<fp16, [1, 1]> var_695_cast_fp16 = add(x = var_693_cast_fp16, y = var_694_to_fp16)[name = tensor<string, []>("op_695_cast_fp16")];
            tensor<fp16, [1, 2560]> var_3_cast_fp16 = real_div(x = var_691_cast_fp16, y = var_695_cast_fp16)[name = tensor<string, []>("var_3_cast_fp16")];
            tensor<fp16, [1, 2560]> std_3_cast_fp16 = sqrt(x = var_3_cast_fp16)[name = tensor<string, []>("std_3_cast_fp16")];
            tensor<bool, []> var_699_interleave_0 = const()[name = tensor<string, []>("op_699_interleave_0"), val = tensor<bool, []>(false)];
            tensor<fp16, [1, 5120]> var_699_cast_fp16 = concat(axis = var_72, interleave = var_699_interleave_0, values = (mean_3_cast_fp16, std_3_cast_fp16))[name = tensor<string, []>("op_699_cast_fp16")];
            tensor<int32, [3]> var_701_begin_0 = const()[name = tensor<string, []>("op_701_begin_0"), val = tensor<int32, [3]>([0, 2, 0])];
            tensor<int32, [3]> var_701_end_0 = const()[name = tensor<string, []>("op_701_end_0"), val = tensor<int32, [3]>([1, 3, 375])];
            tensor<bool, [3]> var_701_end_mask_0 = const()[name = tensor<string, []>("op_701_end_mask_0"), val = tensor<bool, [3]>([true, false, true])];
            tensor<bool, [3]> var_701_squeeze_mask_0 = const()[name = tensor<string, []>("op_701_squeeze_mask_0"), val = tensor<bool, [3]>([false, true, false])];
            tensor<fp16, [1, 375]> var_701_cast_fp16 = slice_by_index(begin = var_701_begin_0, end = var_701_end_0, end_mask = var_701_end_mask_0, squeeze_mask = var_701_squeeze_mask_0, x = weights_1_cast_fp16)[name = tensor<string, []>("op_701_cast_fp16")];
            tensor<int32, [1]> weights_13_axes_0 = const()[name = tensor<string, []>("weights_13_axes_0"), val = tensor<int32, [1]>([1])];
            tensor<fp16, [1, 1, 375]> weights_13_cast_fp16 = expand_dims(axes = weights_13_axes_0, x = var_701_cast_fp16)[name = tensor<string, []>("weights_13_cast_fp16")];
            tensor<int32, [1]> var_705_axes_0 = const()[name = tensor<string, []>("op_705_axes_0"), val = tensor<int32, [1]>([2])];
            tensor<bool, []> var_705_keep_dims_0 = const()[name = tensor<string, []>("op_705_keep_dims_0"), val = tensor<bool, []>(false)];
            tensor<fp16, [1, 1]> var_705_cast_fp16 = reduce_sum(axes = var_705_axes_0, keep_dims = var_705_keep_dims_0, x = weights_13_cast_fp16)[name = tensor<string, []>("op_705_cast_fp16")];
            tensor<fp16, []> var_706_to_fp16 = const()[name = tensor<string, []>("op_706_to_fp16"), val = tensor<fp16, []>(0x1p-24)];
            tensor<fp16, [1, 1]> v1_5_cast_fp16 = add(x = var_705_cast_fp16, y = var_706_to_fp16)[name = tensor<string, []>("v1_5_cast_fp16")];
            tensor<fp16, [1, 2560, 375]> var_708_cast_fp16 = mul(x = sequences_cast_fp16, y = weights_13_cast_fp16)[name = tensor<string, []>("op_708_cast_fp16")];
            tensor<int32, [1]> var_710_axes_0 = const()[name = tensor<string, []>("op_710_axes_0"), val = tensor<int32, [1]>([2])];
            tensor<bool, []> var_710_keep_dims_0 = const()[name = tensor<string, []>("op_710_keep_dims_0"), val = tensor<bool, []>(false)];
            tensor<fp16, [1, 2560]> var_710_cast_fp16 = reduce_sum(axes = var_710_axes_0, keep_dims = var_710_keep_dims_0, x = var_708_cast_fp16)[name = tensor<string, []>("op_710_cast_fp16")];
            tensor<fp16, [1, 2560]> mean_5_cast_fp16 = real_div(x = var_710_cast_fp16, y = v1_5_cast_fp16)[name = tensor<string, []>("mean_5_cast_fp16")];
            tensor<int32, [1]> var_712_axes_0 = const()[name = tensor<string, []>("op_712_axes_0"), val = tensor<int32, [1]>([2])];
            tensor<fp16, [1, 2560, 1]> var_712_cast_fp16 = expand_dims(axes = var_712_axes_0, x = mean_5_cast_fp16)[name = tensor<string, []>("op_712_cast_fp16")];
            tensor<fp16, [1, 2560, 375]> var_713_cast_fp16 = sub(x = sequences_cast_fp16, y = var_712_cast_fp16)[name = tensor<string, []>("op_713_cast_fp16")];
            tensor<fp16, [1, 2560, 375]> dx2_5_cast_fp16 = mul(x = var_713_cast_fp16, y = var_713_cast_fp16)[name = tensor<string, []>("dx2_5_cast_fp16")];
            tensor<fp16, [1, 1, 375]> var_715_cast_fp16 = mul(x = weights_13_cast_fp16, y = weights_13_cast_fp16)[name = tensor<string, []>("op_715_cast_fp16")];
            tensor<int32, [1]> v2_5_axes_0 = const()[name = tensor<string, []>("v2_5_axes_0"), val = tensor<int32, [1]>([2])];
            tensor<bool, []> v2_5_keep_dims_0 = const()[name = tensor<string, []>("v2_5_keep_dims_0"), val = tensor<bool, []>(false)];
            tensor<fp16, [1, 1]> v2_5_cast_fp16 = reduce_sum(axes = v2_5_axes_0, keep_dims = v2_5_keep_dims_0, x = var_715_cast_fp16)[name = tensor<string, []>("v2_5_cast_fp16")];
            tensor<fp16, [1, 2560, 375]> var_718_cast_fp16 = mul(x = dx2_5_cast_fp16, y = weights_13_cast_fp16)[name = tensor<string, []>("op_718_cast_fp16")];
            tensor<int32, [1]> var_720_axes_0 = const()[name = tensor<string, []>("op_720_axes_0"), val = tensor<int32, [1]>([2])];
            tensor<bool, []> var_720_keep_dims_0 = const()[name = tensor<string, []>("op_720_keep_dims_0"), val = tensor<bool, []>(false)];
            tensor<fp16, [1, 2560]> var_720_cast_fp16 = reduce_sum(axes = var_720_axes_0, keep_dims = var_720_keep_dims_0, x = var_718_cast_fp16)[name = tensor<string, []>("op_720_cast_fp16")];
            tensor<fp16, [1, 1]> var_721_cast_fp16 = real_div(x = v2_5_cast_fp16, y = v1_5_cast_fp16)[name = tensor<string, []>("op_721_cast_fp16")];
            tensor<fp16, [1, 1]> var_722_cast_fp16 = sub(x = v1_5_cast_fp16, y = var_721_cast_fp16)[name = tensor<string, []>("op_722_cast_fp16")];
            tensor<fp16, []> var_723_to_fp16 = const()[name = tensor<string, []>("op_723_to_fp16"), val = tensor<fp16, []>(0x1p-24)];
            tensor<fp16, [1, 1]> var_724_cast_fp16 = add(x = var_722_cast_fp16, y = var_723_to_fp16)[name = tensor<string, []>("op_724_cast_fp16")];
            tensor<fp16, [1, 2560]> var_5_cast_fp16 = real_div(x = var_720_cast_fp16, y = var_724_cast_fp16)[name = tensor<string, []>("var_5_cast_fp16")];
            tensor<fp16, [1, 2560]> std_5_cast_fp16 = sqrt(x = var_5_cast_fp16)[name = tensor<string, []>("std_5_cast_fp16")];
            tensor<bool, []> var_728_interleave_0 = const()[name = tensor<string, []>("op_728_interleave_0"), val = tensor<bool, []>(false)];
            tensor<fp16, [1, 5120]> var_728_cast_fp16 = concat(axis = var_72, interleave = var_728_interleave_0, values = (mean_5_cast_fp16, std_5_cast_fp16))[name = tensor<string, []>("op_728_cast_fp16")];
            tensor<int32, [3]> var_730_begin_0 = const()[name = tensor<string, []>("op_730_begin_0"), val = tensor<int32, [3]>([0, 3, 0])];
            tensor<int32, [3]> var_730_end_0 = const()[name = tensor<string, []>("op_730_end_0"), val = tensor<int32, [3]>([1, 4, 375])];
            tensor<bool, [3]> var_730_end_mask_0 = const()[name = tensor<string, []>("op_730_end_mask_0"), val = tensor<bool, [3]>([true, false, true])];
            tensor<bool, [3]> var_730_squeeze_mask_0 = const()[name = tensor<string, []>("op_730_squeeze_mask_0"), val = tensor<bool, [3]>([false, true, false])];
            tensor<fp16, [1, 375]> var_730_cast_fp16 = slice_by_index(begin = var_730_begin_0, end = var_730_end_0, end_mask = var_730_end_mask_0, squeeze_mask = var_730_squeeze_mask_0, x = weights_1_cast_fp16)[name = tensor<string, []>("op_730_cast_fp16")];
            tensor<int32, [1]> weights_17_axes_0 = const()[name = tensor<string, []>("weights_17_axes_0"), val = tensor<int32, [1]>([1])];
            tensor<fp16, [1, 1, 375]> weights_17_cast_fp16 = expand_dims(axes = weights_17_axes_0, x = var_730_cast_fp16)[name = tensor<string, []>("weights_17_cast_fp16")];
            tensor<int32, [1]> var_734_axes_0 = const()[name = tensor<string, []>("op_734_axes_0"), val = tensor<int32, [1]>([2])];
            tensor<bool, []> var_734_keep_dims_0 = const()[name = tensor<string, []>("op_734_keep_dims_0"), val = tensor<bool, []>(false)];
            tensor<fp16, [1, 1]> var_734_cast_fp16 = reduce_sum(axes = var_734_axes_0, keep_dims = var_734_keep_dims_0, x = weights_17_cast_fp16)[name = tensor<string, []>("op_734_cast_fp16")];
            tensor<fp16, []> var_735_to_fp16 = const()[name = tensor<string, []>("op_735_to_fp16"), val = tensor<fp16, []>(0x1p-24)];
            tensor<fp16, [1, 1]> v1_7_cast_fp16 = add(x = var_734_cast_fp16, y = var_735_to_fp16)[name = tensor<string, []>("v1_7_cast_fp16")];
            tensor<fp16, [1, 2560, 375]> var_737_cast_fp16 = mul(x = sequences_cast_fp16, y = weights_17_cast_fp16)[name = tensor<string, []>("op_737_cast_fp16")];
            tensor<int32, [1]> var_739_axes_0 = const()[name = tensor<string, []>("op_739_axes_0"), val = tensor<int32, [1]>([2])];
            tensor<bool, []> var_739_keep_dims_0 = const()[name = tensor<string, []>("op_739_keep_dims_0"), val = tensor<bool, []>(false)];
            tensor<fp16, [1, 2560]> var_739_cast_fp16 = reduce_sum(axes = var_739_axes_0, keep_dims = var_739_keep_dims_0, x = var_737_cast_fp16)[name = tensor<string, []>("op_739_cast_fp16")];
            tensor<fp16, [1, 2560]> mean_7_cast_fp16 = real_div(x = var_739_cast_fp16, y = v1_7_cast_fp16)[name = tensor<string, []>("mean_7_cast_fp16")];
            tensor<int32, [1]> var_741_axes_0 = const()[name = tensor<string, []>("op_741_axes_0"), val = tensor<int32, [1]>([2])];
            tensor<fp16, [1, 2560, 1]> var_741_cast_fp16 = expand_dims(axes = var_741_axes_0, x = mean_7_cast_fp16)[name = tensor<string, []>("op_741_cast_fp16")];
            tensor<fp16, [1, 2560, 375]> var_742_cast_fp16 = sub(x = sequences_cast_fp16, y = var_741_cast_fp16)[name = tensor<string, []>("op_742_cast_fp16")];
            tensor<fp16, [1, 2560, 375]> dx2_7_cast_fp16 = mul(x = var_742_cast_fp16, y = var_742_cast_fp16)[name = tensor<string, []>("dx2_7_cast_fp16")];
            tensor<fp16, [1, 1, 375]> var_744_cast_fp16 = mul(x = weights_17_cast_fp16, y = weights_17_cast_fp16)[name = tensor<string, []>("op_744_cast_fp16")];
            tensor<int32, [1]> v2_7_axes_0 = const()[name = tensor<string, []>("v2_7_axes_0"), val = tensor<int32, [1]>([2])];
            tensor<bool, []> v2_7_keep_dims_0 = const()[name = tensor<string, []>("v2_7_keep_dims_0"), val = tensor<bool, []>(false)];
            tensor<fp16, [1, 1]> v2_7_cast_fp16 = reduce_sum(axes = v2_7_axes_0, keep_dims = v2_7_keep_dims_0, x = var_744_cast_fp16)[name = tensor<string, []>("v2_7_cast_fp16")];
            tensor<fp16, [1, 2560, 375]> var_747_cast_fp16 = mul(x = dx2_7_cast_fp16, y = weights_17_cast_fp16)[name = tensor<string, []>("op_747_cast_fp16")];
            tensor<int32, [1]> var_749_axes_0 = const()[name = tensor<string, []>("op_749_axes_0"), val = tensor<int32, [1]>([2])];
            tensor<bool, []> var_749_keep_dims_0 = const()[name = tensor<string, []>("op_749_keep_dims_0"), val = tensor<bool, []>(false)];
            tensor<fp16, [1, 2560]> var_749_cast_fp16 = reduce_sum(axes = var_749_axes_0, keep_dims = var_749_keep_dims_0, x = var_747_cast_fp16)[name = tensor<string, []>("op_749_cast_fp16")];
            tensor<fp16, [1, 1]> var_750_cast_fp16 = real_div(x = v2_7_cast_fp16, y = v1_7_cast_fp16)[name = tensor<string, []>("op_750_cast_fp16")];
            tensor<fp16, [1, 1]> var_751_cast_fp16 = sub(x = v1_7_cast_fp16, y = var_750_cast_fp16)[name = tensor<string, []>("op_751_cast_fp16")];
            tensor<fp16, []> var_752_to_fp16 = const()[name = tensor<string, []>("op_752_to_fp16"), val = tensor<fp16, []>(0x1p-24)];
            tensor<fp16, [1, 1]> var_753_cast_fp16 = add(x = var_751_cast_fp16, y = var_752_to_fp16)[name = tensor<string, []>("op_753_cast_fp16")];
            tensor<fp16, [1, 2560]> var_7_cast_fp16 = real_div(x = var_749_cast_fp16, y = var_753_cast_fp16)[name = tensor<string, []>("var_7_cast_fp16")];
            tensor<fp16, [1, 2560]> std_7_cast_fp16 = sqrt(x = var_7_cast_fp16)[name = tensor<string, []>("std_7_cast_fp16")];
            tensor<bool, []> var_757_interleave_0 = const()[name = tensor<string, []>("op_757_interleave_0"), val = tensor<bool, []>(false)];
            tensor<fp16, [1, 5120]> var_757_cast_fp16 = concat(axis = var_72, interleave = var_757_interleave_0, values = (mean_7_cast_fp16, std_7_cast_fp16))[name = tensor<string, []>("op_757_cast_fp16")];
            tensor<int32, [3]> var_759_begin_0 = const()[name = tensor<string, []>("op_759_begin_0"), val = tensor<int32, [3]>([0, 4, 0])];
            tensor<int32, [3]> var_759_end_0 = const()[name = tensor<string, []>("op_759_end_0"), val = tensor<int32, [3]>([1, 5, 375])];
            tensor<bool, [3]> var_759_end_mask_0 = const()[name = tensor<string, []>("op_759_end_mask_0"), val = tensor<bool, [3]>([true, false, true])];
            tensor<bool, [3]> var_759_squeeze_mask_0 = const()[name = tensor<string, []>("op_759_squeeze_mask_0"), val = tensor<bool, [3]>([false, true, false])];
            tensor<fp16, [1, 375]> var_759_cast_fp16 = slice_by_index(begin = var_759_begin_0, end = var_759_end_0, end_mask = var_759_end_mask_0, squeeze_mask = var_759_squeeze_mask_0, x = weights_1_cast_fp16)[name = tensor<string, []>("op_759_cast_fp16")];
            tensor<int32, [1]> weights_21_axes_0 = const()[name = tensor<string, []>("weights_21_axes_0"), val = tensor<int32, [1]>([1])];
            tensor<fp16, [1, 1, 375]> weights_21_cast_fp16 = expand_dims(axes = weights_21_axes_0, x = var_759_cast_fp16)[name = tensor<string, []>("weights_21_cast_fp16")];
            tensor<int32, [1]> var_763_axes_0 = const()[name = tensor<string, []>("op_763_axes_0"), val = tensor<int32, [1]>([2])];
            tensor<bool, []> var_763_keep_dims_0 = const()[name = tensor<string, []>("op_763_keep_dims_0"), val = tensor<bool, []>(false)];
            tensor<fp16, [1, 1]> var_763_cast_fp16 = reduce_sum(axes = var_763_axes_0, keep_dims = var_763_keep_dims_0, x = weights_21_cast_fp16)[name = tensor<string, []>("op_763_cast_fp16")];
            tensor<fp16, []> var_764_to_fp16 = const()[name = tensor<string, []>("op_764_to_fp16"), val = tensor<fp16, []>(0x1p-24)];
            tensor<fp16, [1, 1]> v1_9_cast_fp16 = add(x = var_763_cast_fp16, y = var_764_to_fp16)[name = tensor<string, []>("v1_9_cast_fp16")];
            tensor<fp16, [1, 2560, 375]> var_766_cast_fp16 = mul(x = sequences_cast_fp16, y = weights_21_cast_fp16)[name = tensor<string, []>("op_766_cast_fp16")];
            tensor<int32, [1]> var_768_axes_0 = const()[name = tensor<string, []>("op_768_axes_0"), val = tensor<int32, [1]>([2])];
            tensor<bool, []> var_768_keep_dims_0 = const()[name = tensor<string, []>("op_768_keep_dims_0"), val = tensor<bool, []>(false)];
            tensor<fp16, [1, 2560]> var_768_cast_fp16 = reduce_sum(axes = var_768_axes_0, keep_dims = var_768_keep_dims_0, x = var_766_cast_fp16)[name = tensor<string, []>("op_768_cast_fp16")];
            tensor<fp16, [1, 2560]> mean_9_cast_fp16 = real_div(x = var_768_cast_fp16, y = v1_9_cast_fp16)[name = tensor<string, []>("mean_9_cast_fp16")];
            tensor<int32, [1]> var_770_axes_0 = const()[name = tensor<string, []>("op_770_axes_0"), val = tensor<int32, [1]>([2])];
            tensor<fp16, [1, 2560, 1]> var_770_cast_fp16 = expand_dims(axes = var_770_axes_0, x = mean_9_cast_fp16)[name = tensor<string, []>("op_770_cast_fp16")];
            tensor<fp16, [1, 2560, 375]> var_771_cast_fp16 = sub(x = sequences_cast_fp16, y = var_770_cast_fp16)[name = tensor<string, []>("op_771_cast_fp16")];
            tensor<fp16, [1, 2560, 375]> dx2_9_cast_fp16 = mul(x = var_771_cast_fp16, y = var_771_cast_fp16)[name = tensor<string, []>("dx2_9_cast_fp16")];
            tensor<fp16, [1, 1, 375]> var_773_cast_fp16 = mul(x = weights_21_cast_fp16, y = weights_21_cast_fp16)[name = tensor<string, []>("op_773_cast_fp16")];
            tensor<int32, [1]> v2_9_axes_0 = const()[name = tensor<string, []>("v2_9_axes_0"), val = tensor<int32, [1]>([2])];
            tensor<bool, []> v2_9_keep_dims_0 = const()[name = tensor<string, []>("v2_9_keep_dims_0"), val = tensor<bool, []>(false)];
            tensor<fp16, [1, 1]> v2_9_cast_fp16 = reduce_sum(axes = v2_9_axes_0, keep_dims = v2_9_keep_dims_0, x = var_773_cast_fp16)[name = tensor<string, []>("v2_9_cast_fp16")];
            tensor<fp16, [1, 2560, 375]> var_776_cast_fp16 = mul(x = dx2_9_cast_fp16, y = weights_21_cast_fp16)[name = tensor<string, []>("op_776_cast_fp16")];
            tensor<int32, [1]> var_778_axes_0 = const()[name = tensor<string, []>("op_778_axes_0"), val = tensor<int32, [1]>([2])];
            tensor<bool, []> var_778_keep_dims_0 = const()[name = tensor<string, []>("op_778_keep_dims_0"), val = tensor<bool, []>(false)];
            tensor<fp16, [1, 2560]> var_778_cast_fp16 = reduce_sum(axes = var_778_axes_0, keep_dims = var_778_keep_dims_0, x = var_776_cast_fp16)[name = tensor<string, []>("op_778_cast_fp16")];
            tensor<fp16, [1, 1]> var_779_cast_fp16 = real_div(x = v2_9_cast_fp16, y = v1_9_cast_fp16)[name = tensor<string, []>("op_779_cast_fp16")];
            tensor<fp16, [1, 1]> var_780_cast_fp16 = sub(x = v1_9_cast_fp16, y = var_779_cast_fp16)[name = tensor<string, []>("op_780_cast_fp16")];
            tensor<fp16, []> var_781_to_fp16 = const()[name = tensor<string, []>("op_781_to_fp16"), val = tensor<fp16, []>(0x1p-24)];
            tensor<fp16, [1, 1]> var_782_cast_fp16 = add(x = var_780_cast_fp16, y = var_781_to_fp16)[name = tensor<string, []>("op_782_cast_fp16")];
            tensor<fp16, [1, 2560]> var_9_cast_fp16 = real_div(x = var_778_cast_fp16, y = var_782_cast_fp16)[name = tensor<string, []>("var_9_cast_fp16")];
            tensor<fp16, [1, 2560]> std_9_cast_fp16 = sqrt(x = var_9_cast_fp16)[name = tensor<string, []>("std_9_cast_fp16")];
            tensor<bool, []> var_786_interleave_0 = const()[name = tensor<string, []>("op_786_interleave_0"), val = tensor<bool, []>(false)];
            tensor<fp16, [1, 5120]> var_786_cast_fp16 = concat(axis = var_72, interleave = var_786_interleave_0, values = (mean_9_cast_fp16, std_9_cast_fp16))[name = tensor<string, []>("op_786_cast_fp16")];
            tensor<int32, [3]> var_788_begin_0 = const()[name = tensor<string, []>("op_788_begin_0"), val = tensor<int32, [3]>([0, 5, 0])];
            tensor<int32, [3]> var_788_end_0 = const()[name = tensor<string, []>("op_788_end_0"), val = tensor<int32, [3]>([1, 6, 375])];
            tensor<bool, [3]> var_788_end_mask_0 = const()[name = tensor<string, []>("op_788_end_mask_0"), val = tensor<bool, [3]>([true, false, true])];
            tensor<bool, [3]> var_788_squeeze_mask_0 = const()[name = tensor<string, []>("op_788_squeeze_mask_0"), val = tensor<bool, [3]>([false, true, false])];
            tensor<fp16, [1, 375]> var_788_cast_fp16 = slice_by_index(begin = var_788_begin_0, end = var_788_end_0, end_mask = var_788_end_mask_0, squeeze_mask = var_788_squeeze_mask_0, x = weights_1_cast_fp16)[name = tensor<string, []>("op_788_cast_fp16")];
            tensor<int32, [1]> weights_25_axes_0 = const()[name = tensor<string, []>("weights_25_axes_0"), val = tensor<int32, [1]>([1])];
            tensor<fp16, [1, 1, 375]> weights_25_cast_fp16 = expand_dims(axes = weights_25_axes_0, x = var_788_cast_fp16)[name = tensor<string, []>("weights_25_cast_fp16")];
            tensor<int32, [1]> var_792_axes_0 = const()[name = tensor<string, []>("op_792_axes_0"), val = tensor<int32, [1]>([2])];
            tensor<bool, []> var_792_keep_dims_0 = const()[name = tensor<string, []>("op_792_keep_dims_0"), val = tensor<bool, []>(false)];
            tensor<fp16, [1, 1]> var_792_cast_fp16 = reduce_sum(axes = var_792_axes_0, keep_dims = var_792_keep_dims_0, x = weights_25_cast_fp16)[name = tensor<string, []>("op_792_cast_fp16")];
            tensor<fp16, []> var_793_to_fp16 = const()[name = tensor<string, []>("op_793_to_fp16"), val = tensor<fp16, []>(0x1p-24)];
            tensor<fp16, [1, 1]> v1_11_cast_fp16 = add(x = var_792_cast_fp16, y = var_793_to_fp16)[name = tensor<string, []>("v1_11_cast_fp16")];
            tensor<fp16, [1, 2560, 375]> var_795_cast_fp16 = mul(x = sequences_cast_fp16, y = weights_25_cast_fp16)[name = tensor<string, []>("op_795_cast_fp16")];
            tensor<int32, [1]> var_797_axes_0 = const()[name = tensor<string, []>("op_797_axes_0"), val = tensor<int32, [1]>([2])];
            tensor<bool, []> var_797_keep_dims_0 = const()[name = tensor<string, []>("op_797_keep_dims_0"), val = tensor<bool, []>(false)];
            tensor<fp16, [1, 2560]> var_797_cast_fp16 = reduce_sum(axes = var_797_axes_0, keep_dims = var_797_keep_dims_0, x = var_795_cast_fp16)[name = tensor<string, []>("op_797_cast_fp16")];
            tensor<fp16, [1, 2560]> mean_11_cast_fp16 = real_div(x = var_797_cast_fp16, y = v1_11_cast_fp16)[name = tensor<string, []>("mean_11_cast_fp16")];
            tensor<int32, [1]> var_799_axes_0 = const()[name = tensor<string, []>("op_799_axes_0"), val = tensor<int32, [1]>([2])];
            tensor<fp16, [1, 2560, 1]> var_799_cast_fp16 = expand_dims(axes = var_799_axes_0, x = mean_11_cast_fp16)[name = tensor<string, []>("op_799_cast_fp16")];
            tensor<fp16, [1, 2560, 375]> var_800_cast_fp16 = sub(x = sequences_cast_fp16, y = var_799_cast_fp16)[name = tensor<string, []>("op_800_cast_fp16")];
            tensor<fp16, [1, 2560, 375]> dx2_11_cast_fp16 = mul(x = var_800_cast_fp16, y = var_800_cast_fp16)[name = tensor<string, []>("dx2_11_cast_fp16")];
            tensor<fp16, [1, 1, 375]> var_802_cast_fp16 = mul(x = weights_25_cast_fp16, y = weights_25_cast_fp16)[name = tensor<string, []>("op_802_cast_fp16")];
            tensor<int32, [1]> v2_11_axes_0 = const()[name = tensor<string, []>("v2_11_axes_0"), val = tensor<int32, [1]>([2])];
            tensor<bool, []> v2_11_keep_dims_0 = const()[name = tensor<string, []>("v2_11_keep_dims_0"), val = tensor<bool, []>(false)];
            tensor<fp16, [1, 1]> v2_11_cast_fp16 = reduce_sum(axes = v2_11_axes_0, keep_dims = v2_11_keep_dims_0, x = var_802_cast_fp16)[name = tensor<string, []>("v2_11_cast_fp16")];
            tensor<fp16, [1, 2560, 375]> var_805_cast_fp16 = mul(x = dx2_11_cast_fp16, y = weights_25_cast_fp16)[name = tensor<string, []>("op_805_cast_fp16")];
            tensor<int32, [1]> var_807_axes_0 = const()[name = tensor<string, []>("op_807_axes_0"), val = tensor<int32, [1]>([2])];
            tensor<bool, []> var_807_keep_dims_0 = const()[name = tensor<string, []>("op_807_keep_dims_0"), val = tensor<bool, []>(false)];
            tensor<fp16, [1, 2560]> var_807_cast_fp16 = reduce_sum(axes = var_807_axes_0, keep_dims = var_807_keep_dims_0, x = var_805_cast_fp16)[name = tensor<string, []>("op_807_cast_fp16")];
            tensor<fp16, [1, 1]> var_808_cast_fp16 = real_div(x = v2_11_cast_fp16, y = v1_11_cast_fp16)[name = tensor<string, []>("op_808_cast_fp16")];
            tensor<fp16, [1, 1]> var_809_cast_fp16 = sub(x = v1_11_cast_fp16, y = var_808_cast_fp16)[name = tensor<string, []>("op_809_cast_fp16")];
            tensor<fp16, []> var_810_to_fp16 = const()[name = tensor<string, []>("op_810_to_fp16"), val = tensor<fp16, []>(0x1p-24)];
            tensor<fp16, [1, 1]> var_811_cast_fp16 = add(x = var_809_cast_fp16, y = var_810_to_fp16)[name = tensor<string, []>("op_811_cast_fp16")];
            tensor<fp16, [1, 2560]> var_11_cast_fp16 = real_div(x = var_807_cast_fp16, y = var_811_cast_fp16)[name = tensor<string, []>("var_11_cast_fp16")];
            tensor<fp16, [1, 2560]> std_11_cast_fp16 = sqrt(x = var_11_cast_fp16)[name = tensor<string, []>("std_11_cast_fp16")];
            tensor<bool, []> var_815_interleave_0 = const()[name = tensor<string, []>("op_815_interleave_0"), val = tensor<bool, []>(false)];
            tensor<fp16, [1, 5120]> var_815_cast_fp16 = concat(axis = var_72, interleave = var_815_interleave_0, values = (mean_11_cast_fp16, std_11_cast_fp16))[name = tensor<string, []>("op_815_cast_fp16")];
            tensor<int32, [3]> var_817_begin_0 = const()[name = tensor<string, []>("op_817_begin_0"), val = tensor<int32, [3]>([0, 6, 0])];
            tensor<int32, [3]> var_817_end_0 = const()[name = tensor<string, []>("op_817_end_0"), val = tensor<int32, [3]>([1, 7, 375])];
            tensor<bool, [3]> var_817_end_mask_0 = const()[name = tensor<string, []>("op_817_end_mask_0"), val = tensor<bool, [3]>([true, false, true])];
            tensor<bool, [3]> var_817_squeeze_mask_0 = const()[name = tensor<string, []>("op_817_squeeze_mask_0"), val = tensor<bool, [3]>([false, true, false])];
            tensor<fp16, [1, 375]> var_817_cast_fp16 = slice_by_index(begin = var_817_begin_0, end = var_817_end_0, end_mask = var_817_end_mask_0, squeeze_mask = var_817_squeeze_mask_0, x = weights_1_cast_fp16)[name = tensor<string, []>("op_817_cast_fp16")];
            tensor<int32, [1]> weights_29_axes_0 = const()[name = tensor<string, []>("weights_29_axes_0"), val = tensor<int32, [1]>([1])];
            tensor<fp16, [1, 1, 375]> weights_29_cast_fp16 = expand_dims(axes = weights_29_axes_0, x = var_817_cast_fp16)[name = tensor<string, []>("weights_29_cast_fp16")];
            tensor<int32, [1]> var_821_axes_0 = const()[name = tensor<string, []>("op_821_axes_0"), val = tensor<int32, [1]>([2])];
            tensor<bool, []> var_821_keep_dims_0 = const()[name = tensor<string, []>("op_821_keep_dims_0"), val = tensor<bool, []>(false)];
            tensor<fp16, [1, 1]> var_821_cast_fp16 = reduce_sum(axes = var_821_axes_0, keep_dims = var_821_keep_dims_0, x = weights_29_cast_fp16)[name = tensor<string, []>("op_821_cast_fp16")];
            tensor<fp16, []> var_822_to_fp16 = const()[name = tensor<string, []>("op_822_to_fp16"), val = tensor<fp16, []>(0x1p-24)];
            tensor<fp16, [1, 1]> v1_13_cast_fp16 = add(x = var_821_cast_fp16, y = var_822_to_fp16)[name = tensor<string, []>("v1_13_cast_fp16")];
            tensor<fp16, [1, 2560, 375]> var_824_cast_fp16 = mul(x = sequences_cast_fp16, y = weights_29_cast_fp16)[name = tensor<string, []>("op_824_cast_fp16")];
            tensor<int32, [1]> var_826_axes_0 = const()[name = tensor<string, []>("op_826_axes_0"), val = tensor<int32, [1]>([2])];
            tensor<bool, []> var_826_keep_dims_0 = const()[name = tensor<string, []>("op_826_keep_dims_0"), val = tensor<bool, []>(false)];
            tensor<fp16, [1, 2560]> var_826_cast_fp16 = reduce_sum(axes = var_826_axes_0, keep_dims = var_826_keep_dims_0, x = var_824_cast_fp16)[name = tensor<string, []>("op_826_cast_fp16")];
            tensor<fp16, [1, 2560]> mean_13_cast_fp16 = real_div(x = var_826_cast_fp16, y = v1_13_cast_fp16)[name = tensor<string, []>("mean_13_cast_fp16")];
            tensor<int32, [1]> var_828_axes_0 = const()[name = tensor<string, []>("op_828_axes_0"), val = tensor<int32, [1]>([2])];
            tensor<fp16, [1, 2560, 1]> var_828_cast_fp16 = expand_dims(axes = var_828_axes_0, x = mean_13_cast_fp16)[name = tensor<string, []>("op_828_cast_fp16")];
            tensor<fp16, [1, 2560, 375]> var_829_cast_fp16 = sub(x = sequences_cast_fp16, y = var_828_cast_fp16)[name = tensor<string, []>("op_829_cast_fp16")];
            tensor<fp16, [1, 2560, 375]> dx2_13_cast_fp16 = mul(x = var_829_cast_fp16, y = var_829_cast_fp16)[name = tensor<string, []>("dx2_13_cast_fp16")];
            tensor<fp16, [1, 1, 375]> var_831_cast_fp16 = mul(x = weights_29_cast_fp16, y = weights_29_cast_fp16)[name = tensor<string, []>("op_831_cast_fp16")];
            tensor<int32, [1]> v2_13_axes_0 = const()[name = tensor<string, []>("v2_13_axes_0"), val = tensor<int32, [1]>([2])];
            tensor<bool, []> v2_13_keep_dims_0 = const()[name = tensor<string, []>("v2_13_keep_dims_0"), val = tensor<bool, []>(false)];
            tensor<fp16, [1, 1]> v2_13_cast_fp16 = reduce_sum(axes = v2_13_axes_0, keep_dims = v2_13_keep_dims_0, x = var_831_cast_fp16)[name = tensor<string, []>("v2_13_cast_fp16")];
            tensor<fp16, [1, 2560, 375]> var_834_cast_fp16 = mul(x = dx2_13_cast_fp16, y = weights_29_cast_fp16)[name = tensor<string, []>("op_834_cast_fp16")];
            tensor<int32, [1]> var_836_axes_0 = const()[name = tensor<string, []>("op_836_axes_0"), val = tensor<int32, [1]>([2])];
            tensor<bool, []> var_836_keep_dims_0 = const()[name = tensor<string, []>("op_836_keep_dims_0"), val = tensor<bool, []>(false)];
            tensor<fp16, [1, 2560]> var_836_cast_fp16 = reduce_sum(axes = var_836_axes_0, keep_dims = var_836_keep_dims_0, x = var_834_cast_fp16)[name = tensor<string, []>("op_836_cast_fp16")];
            tensor<fp16, [1, 1]> var_837_cast_fp16 = real_div(x = v2_13_cast_fp16, y = v1_13_cast_fp16)[name = tensor<string, []>("op_837_cast_fp16")];
            tensor<fp16, [1, 1]> var_838_cast_fp16 = sub(x = v1_13_cast_fp16, y = var_837_cast_fp16)[name = tensor<string, []>("op_838_cast_fp16")];
            tensor<fp16, []> var_839_to_fp16 = const()[name = tensor<string, []>("op_839_to_fp16"), val = tensor<fp16, []>(0x1p-24)];
            tensor<fp16, [1, 1]> var_840_cast_fp16 = add(x = var_838_cast_fp16, y = var_839_to_fp16)[name = tensor<string, []>("op_840_cast_fp16")];
            tensor<fp16, [1, 2560]> var_13_cast_fp16 = real_div(x = var_836_cast_fp16, y = var_840_cast_fp16)[name = tensor<string, []>("var_13_cast_fp16")];
            tensor<fp16, [1, 2560]> std_13_cast_fp16 = sqrt(x = var_13_cast_fp16)[name = tensor<string, []>("std_13_cast_fp16")];
            tensor<bool, []> var_844_interleave_0 = const()[name = tensor<string, []>("op_844_interleave_0"), val = tensor<bool, []>(false)];
            tensor<fp16, [1, 5120]> var_844_cast_fp16 = concat(axis = var_72, interleave = var_844_interleave_0, values = (mean_13_cast_fp16, std_13_cast_fp16))[name = tensor<string, []>("op_844_cast_fp16")];
            tensor<int32, [3]> var_846_begin_0 = const()[name = tensor<string, []>("op_846_begin_0"), val = tensor<int32, [3]>([0, 7, 0])];
            tensor<int32, [3]> var_846_end_0 = const()[name = tensor<string, []>("op_846_end_0"), val = tensor<int32, [3]>([1, 8, 375])];
            tensor<bool, [3]> var_846_end_mask_0 = const()[name = tensor<string, []>("op_846_end_mask_0"), val = tensor<bool, [3]>([true, false, true])];
            tensor<bool, [3]> var_846_squeeze_mask_0 = const()[name = tensor<string, []>("op_846_squeeze_mask_0"), val = tensor<bool, [3]>([false, true, false])];
            tensor<fp16, [1, 375]> var_846_cast_fp16 = slice_by_index(begin = var_846_begin_0, end = var_846_end_0, end_mask = var_846_end_mask_0, squeeze_mask = var_846_squeeze_mask_0, x = weights_1_cast_fp16)[name = tensor<string, []>("op_846_cast_fp16")];
            tensor<int32, [1]> weights_33_axes_0 = const()[name = tensor<string, []>("weights_33_axes_0"), val = tensor<int32, [1]>([1])];
            tensor<fp16, [1, 1, 375]> weights_33_cast_fp16 = expand_dims(axes = weights_33_axes_0, x = var_846_cast_fp16)[name = tensor<string, []>("weights_33_cast_fp16")];
            tensor<int32, [1]> var_850_axes_0 = const()[name = tensor<string, []>("op_850_axes_0"), val = tensor<int32, [1]>([2])];
            tensor<bool, []> var_850_keep_dims_0 = const()[name = tensor<string, []>("op_850_keep_dims_0"), val = tensor<bool, []>(false)];
            tensor<fp16, [1, 1]> var_850_cast_fp16 = reduce_sum(axes = var_850_axes_0, keep_dims = var_850_keep_dims_0, x = weights_33_cast_fp16)[name = tensor<string, []>("op_850_cast_fp16")];
            tensor<fp16, []> var_851_to_fp16 = const()[name = tensor<string, []>("op_851_to_fp16"), val = tensor<fp16, []>(0x1p-24)];
            tensor<fp16, [1, 1]> v1_15_cast_fp16 = add(x = var_850_cast_fp16, y = var_851_to_fp16)[name = tensor<string, []>("v1_15_cast_fp16")];
            tensor<fp16, [1, 2560, 375]> var_853_cast_fp16 = mul(x = sequences_cast_fp16, y = weights_33_cast_fp16)[name = tensor<string, []>("op_853_cast_fp16")];
            tensor<int32, [1]> var_855_axes_0 = const()[name = tensor<string, []>("op_855_axes_0"), val = tensor<int32, [1]>([2])];
            tensor<bool, []> var_855_keep_dims_0 = const()[name = tensor<string, []>("op_855_keep_dims_0"), val = tensor<bool, []>(false)];
            tensor<fp16, [1, 2560]> var_855_cast_fp16 = reduce_sum(axes = var_855_axes_0, keep_dims = var_855_keep_dims_0, x = var_853_cast_fp16)[name = tensor<string, []>("op_855_cast_fp16")];
            tensor<fp16, [1, 2560]> mean_15_cast_fp16 = real_div(x = var_855_cast_fp16, y = v1_15_cast_fp16)[name = tensor<string, []>("mean_15_cast_fp16")];
            tensor<int32, [1]> var_857_axes_0 = const()[name = tensor<string, []>("op_857_axes_0"), val = tensor<int32, [1]>([2])];
            tensor<fp16, [1, 2560, 1]> var_857_cast_fp16 = expand_dims(axes = var_857_axes_0, x = mean_15_cast_fp16)[name = tensor<string, []>("op_857_cast_fp16")];
            tensor<fp16, [1, 2560, 375]> var_858_cast_fp16 = sub(x = sequences_cast_fp16, y = var_857_cast_fp16)[name = tensor<string, []>("op_858_cast_fp16")];
            tensor<fp16, [1, 2560, 375]> dx2_15_cast_fp16 = mul(x = var_858_cast_fp16, y = var_858_cast_fp16)[name = tensor<string, []>("dx2_15_cast_fp16")];
            tensor<fp16, [1, 1, 375]> var_860_cast_fp16 = mul(x = weights_33_cast_fp16, y = weights_33_cast_fp16)[name = tensor<string, []>("op_860_cast_fp16")];
            tensor<int32, [1]> v2_15_axes_0 = const()[name = tensor<string, []>("v2_15_axes_0"), val = tensor<int32, [1]>([2])];
            tensor<bool, []> v2_15_keep_dims_0 = const()[name = tensor<string, []>("v2_15_keep_dims_0"), val = tensor<bool, []>(false)];
            tensor<fp16, [1, 1]> v2_15_cast_fp16 = reduce_sum(axes = v2_15_axes_0, keep_dims = v2_15_keep_dims_0, x = var_860_cast_fp16)[name = tensor<string, []>("v2_15_cast_fp16")];
            tensor<fp16, [1, 2560, 375]> var_863_cast_fp16 = mul(x = dx2_15_cast_fp16, y = weights_33_cast_fp16)[name = tensor<string, []>("op_863_cast_fp16")];
            tensor<int32, [1]> var_865_axes_0 = const()[name = tensor<string, []>("op_865_axes_0"), val = tensor<int32, [1]>([2])];
            tensor<bool, []> var_865_keep_dims_0 = const()[name = tensor<string, []>("op_865_keep_dims_0"), val = tensor<bool, []>(false)];
            tensor<fp16, [1, 2560]> var_865_cast_fp16 = reduce_sum(axes = var_865_axes_0, keep_dims = var_865_keep_dims_0, x = var_863_cast_fp16)[name = tensor<string, []>("op_865_cast_fp16")];
            tensor<fp16, [1, 1]> var_866_cast_fp16 = real_div(x = v2_15_cast_fp16, y = v1_15_cast_fp16)[name = tensor<string, []>("op_866_cast_fp16")];
            tensor<fp16, [1, 1]> var_867_cast_fp16 = sub(x = v1_15_cast_fp16, y = var_866_cast_fp16)[name = tensor<string, []>("op_867_cast_fp16")];
            tensor<fp16, []> var_868_to_fp16 = const()[name = tensor<string, []>("op_868_to_fp16"), val = tensor<fp16, []>(0x1p-24)];
            tensor<fp16, [1, 1]> var_869_cast_fp16 = add(x = var_867_cast_fp16, y = var_868_to_fp16)[name = tensor<string, []>("op_869_cast_fp16")];
            tensor<fp16, [1, 2560]> var_15_cast_fp16 = real_div(x = var_865_cast_fp16, y = var_869_cast_fp16)[name = tensor<string, []>("var_15_cast_fp16")];
            tensor<fp16, [1, 2560]> std_15_cast_fp16 = sqrt(x = var_15_cast_fp16)[name = tensor<string, []>("std_15_cast_fp16")];
            tensor<bool, []> var_873_interleave_0 = const()[name = tensor<string, []>("op_873_interleave_0"), val = tensor<bool, []>(false)];
            tensor<fp16, [1, 5120]> var_873_cast_fp16 = concat(axis = var_72, interleave = var_873_interleave_0, values = (mean_15_cast_fp16, std_15_cast_fp16))[name = tensor<string, []>("op_873_cast_fp16")];
            tensor<int32, [3]> var_875_begin_0 = const()[name = tensor<string, []>("op_875_begin_0"), val = tensor<int32, [3]>([0, 8, 0])];
            tensor<int32, [3]> var_875_end_0 = const()[name = tensor<string, []>("op_875_end_0"), val = tensor<int32, [3]>([1, 9, 375])];
            tensor<bool, [3]> var_875_end_mask_0 = const()[name = tensor<string, []>("op_875_end_mask_0"), val = tensor<bool, [3]>([true, false, true])];
            tensor<bool, [3]> var_875_squeeze_mask_0 = const()[name = tensor<string, []>("op_875_squeeze_mask_0"), val = tensor<bool, [3]>([false, true, false])];
            tensor<fp16, [1, 375]> var_875_cast_fp16 = slice_by_index(begin = var_875_begin_0, end = var_875_end_0, end_mask = var_875_end_mask_0, squeeze_mask = var_875_squeeze_mask_0, x = weights_1_cast_fp16)[name = tensor<string, []>("op_875_cast_fp16")];
            tensor<int32, [1]> weights_37_axes_0 = const()[name = tensor<string, []>("weights_37_axes_0"), val = tensor<int32, [1]>([1])];
            tensor<fp16, [1, 1, 375]> weights_37_cast_fp16 = expand_dims(axes = weights_37_axes_0, x = var_875_cast_fp16)[name = tensor<string, []>("weights_37_cast_fp16")];
            tensor<int32, [1]> var_879_axes_0 = const()[name = tensor<string, []>("op_879_axes_0"), val = tensor<int32, [1]>([2])];
            tensor<bool, []> var_879_keep_dims_0 = const()[name = tensor<string, []>("op_879_keep_dims_0"), val = tensor<bool, []>(false)];
            tensor<fp16, [1, 1]> var_879_cast_fp16 = reduce_sum(axes = var_879_axes_0, keep_dims = var_879_keep_dims_0, x = weights_37_cast_fp16)[name = tensor<string, []>("op_879_cast_fp16")];
            tensor<fp16, []> var_880_to_fp16 = const()[name = tensor<string, []>("op_880_to_fp16"), val = tensor<fp16, []>(0x1p-24)];
            tensor<fp16, [1, 1]> v1_17_cast_fp16 = add(x = var_879_cast_fp16, y = var_880_to_fp16)[name = tensor<string, []>("v1_17_cast_fp16")];
            tensor<fp16, [1, 2560, 375]> var_882_cast_fp16 = mul(x = sequences_cast_fp16, y = weights_37_cast_fp16)[name = tensor<string, []>("op_882_cast_fp16")];
            tensor<int32, [1]> var_884_axes_0 = const()[name = tensor<string, []>("op_884_axes_0"), val = tensor<int32, [1]>([2])];
            tensor<bool, []> var_884_keep_dims_0 = const()[name = tensor<string, []>("op_884_keep_dims_0"), val = tensor<bool, []>(false)];
            tensor<fp16, [1, 2560]> var_884_cast_fp16 = reduce_sum(axes = var_884_axes_0, keep_dims = var_884_keep_dims_0, x = var_882_cast_fp16)[name = tensor<string, []>("op_884_cast_fp16")];
            tensor<fp16, [1, 2560]> mean_17_cast_fp16 = real_div(x = var_884_cast_fp16, y = v1_17_cast_fp16)[name = tensor<string, []>("mean_17_cast_fp16")];
            tensor<int32, [1]> var_886_axes_0 = const()[name = tensor<string, []>("op_886_axes_0"), val = tensor<int32, [1]>([2])];
            tensor<fp16, [1, 2560, 1]> var_886_cast_fp16 = expand_dims(axes = var_886_axes_0, x = mean_17_cast_fp16)[name = tensor<string, []>("op_886_cast_fp16")];
            tensor<fp16, [1, 2560, 375]> var_887_cast_fp16 = sub(x = sequences_cast_fp16, y = var_886_cast_fp16)[name = tensor<string, []>("op_887_cast_fp16")];
            tensor<fp16, [1, 2560, 375]> dx2_17_cast_fp16 = mul(x = var_887_cast_fp16, y = var_887_cast_fp16)[name = tensor<string, []>("dx2_17_cast_fp16")];
            tensor<fp16, [1, 1, 375]> var_889_cast_fp16 = mul(x = weights_37_cast_fp16, y = weights_37_cast_fp16)[name = tensor<string, []>("op_889_cast_fp16")];
            tensor<int32, [1]> v2_17_axes_0 = const()[name = tensor<string, []>("v2_17_axes_0"), val = tensor<int32, [1]>([2])];
            tensor<bool, []> v2_17_keep_dims_0 = const()[name = tensor<string, []>("v2_17_keep_dims_0"), val = tensor<bool, []>(false)];
            tensor<fp16, [1, 1]> v2_17_cast_fp16 = reduce_sum(axes = v2_17_axes_0, keep_dims = v2_17_keep_dims_0, x = var_889_cast_fp16)[name = tensor<string, []>("v2_17_cast_fp16")];
            tensor<fp16, [1, 2560, 375]> var_892_cast_fp16 = mul(x = dx2_17_cast_fp16, y = weights_37_cast_fp16)[name = tensor<string, []>("op_892_cast_fp16")];
            tensor<int32, [1]> var_894_axes_0 = const()[name = tensor<string, []>("op_894_axes_0"), val = tensor<int32, [1]>([2])];
            tensor<bool, []> var_894_keep_dims_0 = const()[name = tensor<string, []>("op_894_keep_dims_0"), val = tensor<bool, []>(false)];
            tensor<fp16, [1, 2560]> var_894_cast_fp16 = reduce_sum(axes = var_894_axes_0, keep_dims = var_894_keep_dims_0, x = var_892_cast_fp16)[name = tensor<string, []>("op_894_cast_fp16")];
            tensor<fp16, [1, 1]> var_895_cast_fp16 = real_div(x = v2_17_cast_fp16, y = v1_17_cast_fp16)[name = tensor<string, []>("op_895_cast_fp16")];
            tensor<fp16, [1, 1]> var_896_cast_fp16 = sub(x = v1_17_cast_fp16, y = var_895_cast_fp16)[name = tensor<string, []>("op_896_cast_fp16")];
            tensor<fp16, []> var_897_to_fp16 = const()[name = tensor<string, []>("op_897_to_fp16"), val = tensor<fp16, []>(0x1p-24)];
            tensor<fp16, [1, 1]> var_898_cast_fp16 = add(x = var_896_cast_fp16, y = var_897_to_fp16)[name = tensor<string, []>("op_898_cast_fp16")];
            tensor<fp16, [1, 2560]> var_17_cast_fp16 = real_div(x = var_894_cast_fp16, y = var_898_cast_fp16)[name = tensor<string, []>("var_17_cast_fp16")];
            tensor<fp16, [1, 2560]> std_17_cast_fp16 = sqrt(x = var_17_cast_fp16)[name = tensor<string, []>("std_17_cast_fp16")];
            tensor<bool, []> var_902_interleave_0 = const()[name = tensor<string, []>("op_902_interleave_0"), val = tensor<bool, []>(false)];
            tensor<fp16, [1, 5120]> var_902_cast_fp16 = concat(axis = var_72, interleave = var_902_interleave_0, values = (mean_17_cast_fp16, std_17_cast_fp16))[name = tensor<string, []>("op_902_cast_fp16")];
            tensor<int32, [3]> var_904_begin_0 = const()[name = tensor<string, []>("op_904_begin_0"), val = tensor<int32, [3]>([0, 9, 0])];
            tensor<int32, [3]> var_904_end_0 = const()[name = tensor<string, []>("op_904_end_0"), val = tensor<int32, [3]>([1, 10, 375])];
            tensor<bool, [3]> var_904_end_mask_0 = const()[name = tensor<string, []>("op_904_end_mask_0"), val = tensor<bool, [3]>([true, false, true])];
            tensor<bool, [3]> var_904_squeeze_mask_0 = const()[name = tensor<string, []>("op_904_squeeze_mask_0"), val = tensor<bool, [3]>([false, true, false])];
            tensor<fp16, [1, 375]> var_904_cast_fp16 = slice_by_index(begin = var_904_begin_0, end = var_904_end_0, end_mask = var_904_end_mask_0, squeeze_mask = var_904_squeeze_mask_0, x = weights_1_cast_fp16)[name = tensor<string, []>("op_904_cast_fp16")];
            tensor<int32, [1]> weights_41_axes_0 = const()[name = tensor<string, []>("weights_41_axes_0"), val = tensor<int32, [1]>([1])];
            tensor<fp16, [1, 1, 375]> weights_41_cast_fp16 = expand_dims(axes = weights_41_axes_0, x = var_904_cast_fp16)[name = tensor<string, []>("weights_41_cast_fp16")];
            tensor<int32, [1]> var_908_axes_0 = const()[name = tensor<string, []>("op_908_axes_0"), val = tensor<int32, [1]>([2])];
            tensor<bool, []> var_908_keep_dims_0 = const()[name = tensor<string, []>("op_908_keep_dims_0"), val = tensor<bool, []>(false)];
            tensor<fp16, [1, 1]> var_908_cast_fp16 = reduce_sum(axes = var_908_axes_0, keep_dims = var_908_keep_dims_0, x = weights_41_cast_fp16)[name = tensor<string, []>("op_908_cast_fp16")];
            tensor<fp16, []> var_909_to_fp16 = const()[name = tensor<string, []>("op_909_to_fp16"), val = tensor<fp16, []>(0x1p-24)];
            tensor<fp16, [1, 1]> v1_19_cast_fp16 = add(x = var_908_cast_fp16, y = var_909_to_fp16)[name = tensor<string, []>("v1_19_cast_fp16")];
            tensor<fp16, [1, 2560, 375]> var_911_cast_fp16 = mul(x = sequences_cast_fp16, y = weights_41_cast_fp16)[name = tensor<string, []>("op_911_cast_fp16")];
            tensor<int32, [1]> var_913_axes_0 = const()[name = tensor<string, []>("op_913_axes_0"), val = tensor<int32, [1]>([2])];
            tensor<bool, []> var_913_keep_dims_0 = const()[name = tensor<string, []>("op_913_keep_dims_0"), val = tensor<bool, []>(false)];
            tensor<fp16, [1, 2560]> var_913_cast_fp16 = reduce_sum(axes = var_913_axes_0, keep_dims = var_913_keep_dims_0, x = var_911_cast_fp16)[name = tensor<string, []>("op_913_cast_fp16")];
            tensor<fp16, [1, 2560]> mean_19_cast_fp16 = real_div(x = var_913_cast_fp16, y = v1_19_cast_fp16)[name = tensor<string, []>("mean_19_cast_fp16")];
            tensor<int32, [1]> var_915_axes_0 = const()[name = tensor<string, []>("op_915_axes_0"), val = tensor<int32, [1]>([2])];
            tensor<fp16, [1, 2560, 1]> var_915_cast_fp16 = expand_dims(axes = var_915_axes_0, x = mean_19_cast_fp16)[name = tensor<string, []>("op_915_cast_fp16")];
            tensor<fp16, [1, 2560, 375]> var_916_cast_fp16 = sub(x = sequences_cast_fp16, y = var_915_cast_fp16)[name = tensor<string, []>("op_916_cast_fp16")];
            tensor<fp16, [1, 2560, 375]> dx2_19_cast_fp16 = mul(x = var_916_cast_fp16, y = var_916_cast_fp16)[name = tensor<string, []>("dx2_19_cast_fp16")];
            tensor<fp16, [1, 1, 375]> var_918_cast_fp16 = mul(x = weights_41_cast_fp16, y = weights_41_cast_fp16)[name = tensor<string, []>("op_918_cast_fp16")];
            tensor<int32, [1]> v2_19_axes_0 = const()[name = tensor<string, []>("v2_19_axes_0"), val = tensor<int32, [1]>([2])];
            tensor<bool, []> v2_19_keep_dims_0 = const()[name = tensor<string, []>("v2_19_keep_dims_0"), val = tensor<bool, []>(false)];
            tensor<fp16, [1, 1]> v2_19_cast_fp16 = reduce_sum(axes = v2_19_axes_0, keep_dims = v2_19_keep_dims_0, x = var_918_cast_fp16)[name = tensor<string, []>("v2_19_cast_fp16")];
            tensor<fp16, [1, 2560, 375]> var_921_cast_fp16 = mul(x = dx2_19_cast_fp16, y = weights_41_cast_fp16)[name = tensor<string, []>("op_921_cast_fp16")];
            tensor<int32, [1]> var_923_axes_0 = const()[name = tensor<string, []>("op_923_axes_0"), val = tensor<int32, [1]>([2])];
            tensor<bool, []> var_923_keep_dims_0 = const()[name = tensor<string, []>("op_923_keep_dims_0"), val = tensor<bool, []>(false)];
            tensor<fp16, [1, 2560]> var_923_cast_fp16 = reduce_sum(axes = var_923_axes_0, keep_dims = var_923_keep_dims_0, x = var_921_cast_fp16)[name = tensor<string, []>("op_923_cast_fp16")];
            tensor<fp16, [1, 1]> var_924_cast_fp16 = real_div(x = v2_19_cast_fp16, y = v1_19_cast_fp16)[name = tensor<string, []>("op_924_cast_fp16")];
            tensor<fp16, [1, 1]> var_925_cast_fp16 = sub(x = v1_19_cast_fp16, y = var_924_cast_fp16)[name = tensor<string, []>("op_925_cast_fp16")];
            tensor<fp16, []> var_926_to_fp16 = const()[name = tensor<string, []>("op_926_to_fp16"), val = tensor<fp16, []>(0x1p-24)];
            tensor<fp16, [1, 1]> var_927_cast_fp16 = add(x = var_925_cast_fp16, y = var_926_to_fp16)[name = tensor<string, []>("op_927_cast_fp16")];
            tensor<fp16, [1, 2560]> var_19_cast_fp16 = real_div(x = var_923_cast_fp16, y = var_927_cast_fp16)[name = tensor<string, []>("var_19_cast_fp16")];
            tensor<fp16, [1, 2560]> std_19_cast_fp16 = sqrt(x = var_19_cast_fp16)[name = tensor<string, []>("std_19_cast_fp16")];
            tensor<bool, []> var_931_interleave_0 = const()[name = tensor<string, []>("op_931_interleave_0"), val = tensor<bool, []>(false)];
            tensor<fp16, [1, 5120]> var_931_cast_fp16 = concat(axis = var_72, interleave = var_931_interleave_0, values = (mean_19_cast_fp16, std_19_cast_fp16))[name = tensor<string, []>("op_931_cast_fp16")];
            tensor<int32, [3]> var_933_begin_0 = const()[name = tensor<string, []>("op_933_begin_0"), val = tensor<int32, [3]>([0, 10, 0])];
            tensor<int32, [3]> var_933_end_0 = const()[name = tensor<string, []>("op_933_end_0"), val = tensor<int32, [3]>([1, 11, 375])];
            tensor<bool, [3]> var_933_end_mask_0 = const()[name = tensor<string, []>("op_933_end_mask_0"), val = tensor<bool, [3]>([true, false, true])];
            tensor<bool, [3]> var_933_squeeze_mask_0 = const()[name = tensor<string, []>("op_933_squeeze_mask_0"), val = tensor<bool, [3]>([false, true, false])];
            tensor<fp16, [1, 375]> var_933_cast_fp16 = slice_by_index(begin = var_933_begin_0, end = var_933_end_0, end_mask = var_933_end_mask_0, squeeze_mask = var_933_squeeze_mask_0, x = weights_1_cast_fp16)[name = tensor<string, []>("op_933_cast_fp16")];
            tensor<int32, [1]> weights_45_axes_0 = const()[name = tensor<string, []>("weights_45_axes_0"), val = tensor<int32, [1]>([1])];
            tensor<fp16, [1, 1, 375]> weights_45_cast_fp16 = expand_dims(axes = weights_45_axes_0, x = var_933_cast_fp16)[name = tensor<string, []>("weights_45_cast_fp16")];
            tensor<int32, [1]> var_937_axes_0 = const()[name = tensor<string, []>("op_937_axes_0"), val = tensor<int32, [1]>([2])];
            tensor<bool, []> var_937_keep_dims_0 = const()[name = tensor<string, []>("op_937_keep_dims_0"), val = tensor<bool, []>(false)];
            tensor<fp16, [1, 1]> var_937_cast_fp16 = reduce_sum(axes = var_937_axes_0, keep_dims = var_937_keep_dims_0, x = weights_45_cast_fp16)[name = tensor<string, []>("op_937_cast_fp16")];
            tensor<fp16, []> var_938_to_fp16 = const()[name = tensor<string, []>("op_938_to_fp16"), val = tensor<fp16, []>(0x1p-24)];
            tensor<fp16, [1, 1]> v1_21_cast_fp16 = add(x = var_937_cast_fp16, y = var_938_to_fp16)[name = tensor<string, []>("v1_21_cast_fp16")];
            tensor<fp16, [1, 2560, 375]> var_940_cast_fp16 = mul(x = sequences_cast_fp16, y = weights_45_cast_fp16)[name = tensor<string, []>("op_940_cast_fp16")];
            tensor<int32, [1]> var_942_axes_0 = const()[name = tensor<string, []>("op_942_axes_0"), val = tensor<int32, [1]>([2])];
            tensor<bool, []> var_942_keep_dims_0 = const()[name = tensor<string, []>("op_942_keep_dims_0"), val = tensor<bool, []>(false)];
            tensor<fp16, [1, 2560]> var_942_cast_fp16 = reduce_sum(axes = var_942_axes_0, keep_dims = var_942_keep_dims_0, x = var_940_cast_fp16)[name = tensor<string, []>("op_942_cast_fp16")];
            tensor<fp16, [1, 2560]> mean_21_cast_fp16 = real_div(x = var_942_cast_fp16, y = v1_21_cast_fp16)[name = tensor<string, []>("mean_21_cast_fp16")];
            tensor<int32, [1]> var_944_axes_0 = const()[name = tensor<string, []>("op_944_axes_0"), val = tensor<int32, [1]>([2])];
            tensor<fp16, [1, 2560, 1]> var_944_cast_fp16 = expand_dims(axes = var_944_axes_0, x = mean_21_cast_fp16)[name = tensor<string, []>("op_944_cast_fp16")];
            tensor<fp16, [1, 2560, 375]> var_945_cast_fp16 = sub(x = sequences_cast_fp16, y = var_944_cast_fp16)[name = tensor<string, []>("op_945_cast_fp16")];
            tensor<fp16, [1, 2560, 375]> dx2_21_cast_fp16 = mul(x = var_945_cast_fp16, y = var_945_cast_fp16)[name = tensor<string, []>("dx2_21_cast_fp16")];
            tensor<fp16, [1, 1, 375]> var_947_cast_fp16 = mul(x = weights_45_cast_fp16, y = weights_45_cast_fp16)[name = tensor<string, []>("op_947_cast_fp16")];
            tensor<int32, [1]> v2_21_axes_0 = const()[name = tensor<string, []>("v2_21_axes_0"), val = tensor<int32, [1]>([2])];
            tensor<bool, []> v2_21_keep_dims_0 = const()[name = tensor<string, []>("v2_21_keep_dims_0"), val = tensor<bool, []>(false)];
            tensor<fp16, [1, 1]> v2_21_cast_fp16 = reduce_sum(axes = v2_21_axes_0, keep_dims = v2_21_keep_dims_0, x = var_947_cast_fp16)[name = tensor<string, []>("v2_21_cast_fp16")];
            tensor<fp16, [1, 2560, 375]> var_950_cast_fp16 = mul(x = dx2_21_cast_fp16, y = weights_45_cast_fp16)[name = tensor<string, []>("op_950_cast_fp16")];
            tensor<int32, [1]> var_952_axes_0 = const()[name = tensor<string, []>("op_952_axes_0"), val = tensor<int32, [1]>([2])];
            tensor<bool, []> var_952_keep_dims_0 = const()[name = tensor<string, []>("op_952_keep_dims_0"), val = tensor<bool, []>(false)];
            tensor<fp16, [1, 2560]> var_952_cast_fp16 = reduce_sum(axes = var_952_axes_0, keep_dims = var_952_keep_dims_0, x = var_950_cast_fp16)[name = tensor<string, []>("op_952_cast_fp16")];
            tensor<fp16, [1, 1]> var_953_cast_fp16 = real_div(x = v2_21_cast_fp16, y = v1_21_cast_fp16)[name = tensor<string, []>("op_953_cast_fp16")];
            tensor<fp16, [1, 1]> var_954_cast_fp16 = sub(x = v1_21_cast_fp16, y = var_953_cast_fp16)[name = tensor<string, []>("op_954_cast_fp16")];
            tensor<fp16, []> var_955_to_fp16 = const()[name = tensor<string, []>("op_955_to_fp16"), val = tensor<fp16, []>(0x1p-24)];
            tensor<fp16, [1, 1]> var_956_cast_fp16 = add(x = var_954_cast_fp16, y = var_955_to_fp16)[name = tensor<string, []>("op_956_cast_fp16")];
            tensor<fp16, [1, 2560]> var_21_cast_fp16 = real_div(x = var_952_cast_fp16, y = var_956_cast_fp16)[name = tensor<string, []>("var_21_cast_fp16")];
            tensor<fp16, [1, 2560]> std_21_cast_fp16 = sqrt(x = var_21_cast_fp16)[name = tensor<string, []>("std_21_cast_fp16")];
            tensor<bool, []> var_960_interleave_0 = const()[name = tensor<string, []>("op_960_interleave_0"), val = tensor<bool, []>(false)];
            tensor<fp16, [1, 5120]> var_960_cast_fp16 = concat(axis = var_72, interleave = var_960_interleave_0, values = (mean_21_cast_fp16, std_21_cast_fp16))[name = tensor<string, []>("op_960_cast_fp16")];
            tensor<int32, [3]> var_962_begin_0 = const()[name = tensor<string, []>("op_962_begin_0"), val = tensor<int32, [3]>([0, 11, 0])];
            tensor<int32, [3]> var_962_end_0 = const()[name = tensor<string, []>("op_962_end_0"), val = tensor<int32, [3]>([1, 12, 375])];
            tensor<bool, [3]> var_962_end_mask_0 = const()[name = tensor<string, []>("op_962_end_mask_0"), val = tensor<bool, [3]>([true, false, true])];
            tensor<bool, [3]> var_962_squeeze_mask_0 = const()[name = tensor<string, []>("op_962_squeeze_mask_0"), val = tensor<bool, [3]>([false, true, false])];
            tensor<fp16, [1, 375]> var_962_cast_fp16 = slice_by_index(begin = var_962_begin_0, end = var_962_end_0, end_mask = var_962_end_mask_0, squeeze_mask = var_962_squeeze_mask_0, x = weights_1_cast_fp16)[name = tensor<string, []>("op_962_cast_fp16")];
            tensor<int32, [1]> weights_49_axes_0 = const()[name = tensor<string, []>("weights_49_axes_0"), val = tensor<int32, [1]>([1])];
            tensor<fp16, [1, 1, 375]> weights_49_cast_fp16 = expand_dims(axes = weights_49_axes_0, x = var_962_cast_fp16)[name = tensor<string, []>("weights_49_cast_fp16")];
            tensor<int32, [1]> var_966_axes_0 = const()[name = tensor<string, []>("op_966_axes_0"), val = tensor<int32, [1]>([2])];
            tensor<bool, []> var_966_keep_dims_0 = const()[name = tensor<string, []>("op_966_keep_dims_0"), val = tensor<bool, []>(false)];
            tensor<fp16, [1, 1]> var_966_cast_fp16 = reduce_sum(axes = var_966_axes_0, keep_dims = var_966_keep_dims_0, x = weights_49_cast_fp16)[name = tensor<string, []>("op_966_cast_fp16")];
            tensor<fp16, []> var_967_to_fp16 = const()[name = tensor<string, []>("op_967_to_fp16"), val = tensor<fp16, []>(0x1p-24)];
            tensor<fp16, [1, 1]> v1_23_cast_fp16 = add(x = var_966_cast_fp16, y = var_967_to_fp16)[name = tensor<string, []>("v1_23_cast_fp16")];
            tensor<fp16, [1, 2560, 375]> var_969_cast_fp16 = mul(x = sequences_cast_fp16, y = weights_49_cast_fp16)[name = tensor<string, []>("op_969_cast_fp16")];
            tensor<int32, [1]> var_971_axes_0 = const()[name = tensor<string, []>("op_971_axes_0"), val = tensor<int32, [1]>([2])];
            tensor<bool, []> var_971_keep_dims_0 = const()[name = tensor<string, []>("op_971_keep_dims_0"), val = tensor<bool, []>(false)];
            tensor<fp16, [1, 2560]> var_971_cast_fp16 = reduce_sum(axes = var_971_axes_0, keep_dims = var_971_keep_dims_0, x = var_969_cast_fp16)[name = tensor<string, []>("op_971_cast_fp16")];
            tensor<fp16, [1, 2560]> mean_23_cast_fp16 = real_div(x = var_971_cast_fp16, y = v1_23_cast_fp16)[name = tensor<string, []>("mean_23_cast_fp16")];
            tensor<int32, [1]> var_973_axes_0 = const()[name = tensor<string, []>("op_973_axes_0"), val = tensor<int32, [1]>([2])];
            tensor<fp16, [1, 2560, 1]> var_973_cast_fp16 = expand_dims(axes = var_973_axes_0, x = mean_23_cast_fp16)[name = tensor<string, []>("op_973_cast_fp16")];
            tensor<fp16, [1, 2560, 375]> var_974_cast_fp16 = sub(x = sequences_cast_fp16, y = var_973_cast_fp16)[name = tensor<string, []>("op_974_cast_fp16")];
            tensor<fp16, [1, 2560, 375]> dx2_23_cast_fp16 = mul(x = var_974_cast_fp16, y = var_974_cast_fp16)[name = tensor<string, []>("dx2_23_cast_fp16")];
            tensor<fp16, [1, 1, 375]> var_976_cast_fp16 = mul(x = weights_49_cast_fp16, y = weights_49_cast_fp16)[name = tensor<string, []>("op_976_cast_fp16")];
            tensor<int32, [1]> v2_23_axes_0 = const()[name = tensor<string, []>("v2_23_axes_0"), val = tensor<int32, [1]>([2])];
            tensor<bool, []> v2_23_keep_dims_0 = const()[name = tensor<string, []>("v2_23_keep_dims_0"), val = tensor<bool, []>(false)];
            tensor<fp16, [1, 1]> v2_23_cast_fp16 = reduce_sum(axes = v2_23_axes_0, keep_dims = v2_23_keep_dims_0, x = var_976_cast_fp16)[name = tensor<string, []>("v2_23_cast_fp16")];
            tensor<fp16, [1, 2560, 375]> var_979_cast_fp16 = mul(x = dx2_23_cast_fp16, y = weights_49_cast_fp16)[name = tensor<string, []>("op_979_cast_fp16")];
            tensor<int32, [1]> var_981_axes_0 = const()[name = tensor<string, []>("op_981_axes_0"), val = tensor<int32, [1]>([2])];
            tensor<bool, []> var_981_keep_dims_0 = const()[name = tensor<string, []>("op_981_keep_dims_0"), val = tensor<bool, []>(false)];
            tensor<fp16, [1, 2560]> var_981_cast_fp16 = reduce_sum(axes = var_981_axes_0, keep_dims = var_981_keep_dims_0, x = var_979_cast_fp16)[name = tensor<string, []>("op_981_cast_fp16")];
            tensor<fp16, [1, 1]> var_982_cast_fp16 = real_div(x = v2_23_cast_fp16, y = v1_23_cast_fp16)[name = tensor<string, []>("op_982_cast_fp16")];
            tensor<fp16, [1, 1]> var_983_cast_fp16 = sub(x = v1_23_cast_fp16, y = var_982_cast_fp16)[name = tensor<string, []>("op_983_cast_fp16")];
            tensor<fp16, []> var_984_to_fp16 = const()[name = tensor<string, []>("op_984_to_fp16"), val = tensor<fp16, []>(0x1p-24)];
            tensor<fp16, [1, 1]> var_985_cast_fp16 = add(x = var_983_cast_fp16, y = var_984_to_fp16)[name = tensor<string, []>("op_985_cast_fp16")];
            tensor<fp16, [1, 2560]> var_23_cast_fp16 = real_div(x = var_981_cast_fp16, y = var_985_cast_fp16)[name = tensor<string, []>("var_23_cast_fp16")];
            tensor<fp16, [1, 2560]> std_23_cast_fp16 = sqrt(x = var_23_cast_fp16)[name = tensor<string, []>("std_23_cast_fp16")];
            tensor<bool, []> var_989_interleave_0 = const()[name = tensor<string, []>("op_989_interleave_0"), val = tensor<bool, []>(false)];
            tensor<fp16, [1, 5120]> var_989_cast_fp16 = concat(axis = var_72, interleave = var_989_interleave_0, values = (mean_23_cast_fp16, std_23_cast_fp16))[name = tensor<string, []>("op_989_cast_fp16")];
            tensor<int32, [3]> var_991_begin_0 = const()[name = tensor<string, []>("op_991_begin_0"), val = tensor<int32, [3]>([0, 12, 0])];
            tensor<int32, [3]> var_991_end_0 = const()[name = tensor<string, []>("op_991_end_0"), val = tensor<int32, [3]>([1, 13, 375])];
            tensor<bool, [3]> var_991_end_mask_0 = const()[name = tensor<string, []>("op_991_end_mask_0"), val = tensor<bool, [3]>([true, false, true])];
            tensor<bool, [3]> var_991_squeeze_mask_0 = const()[name = tensor<string, []>("op_991_squeeze_mask_0"), val = tensor<bool, [3]>([false, true, false])];
            tensor<fp16, [1, 375]> var_991_cast_fp16 = slice_by_index(begin = var_991_begin_0, end = var_991_end_0, end_mask = var_991_end_mask_0, squeeze_mask = var_991_squeeze_mask_0, x = weights_1_cast_fp16)[name = tensor<string, []>("op_991_cast_fp16")];
            tensor<int32, [1]> weights_53_axes_0 = const()[name = tensor<string, []>("weights_53_axes_0"), val = tensor<int32, [1]>([1])];
            tensor<fp16, [1, 1, 375]> weights_53_cast_fp16 = expand_dims(axes = weights_53_axes_0, x = var_991_cast_fp16)[name = tensor<string, []>("weights_53_cast_fp16")];
            tensor<int32, [1]> var_995_axes_0 = const()[name = tensor<string, []>("op_995_axes_0"), val = tensor<int32, [1]>([2])];
            tensor<bool, []> var_995_keep_dims_0 = const()[name = tensor<string, []>("op_995_keep_dims_0"), val = tensor<bool, []>(false)];
            tensor<fp16, [1, 1]> var_995_cast_fp16 = reduce_sum(axes = var_995_axes_0, keep_dims = var_995_keep_dims_0, x = weights_53_cast_fp16)[name = tensor<string, []>("op_995_cast_fp16")];
            tensor<fp16, []> var_996_to_fp16 = const()[name = tensor<string, []>("op_996_to_fp16"), val = tensor<fp16, []>(0x1p-24)];
            tensor<fp16, [1, 1]> v1_25_cast_fp16 = add(x = var_995_cast_fp16, y = var_996_to_fp16)[name = tensor<string, []>("v1_25_cast_fp16")];
            tensor<fp16, [1, 2560, 375]> var_998_cast_fp16 = mul(x = sequences_cast_fp16, y = weights_53_cast_fp16)[name = tensor<string, []>("op_998_cast_fp16")];
            tensor<int32, [1]> var_1000_axes_0 = const()[name = tensor<string, []>("op_1000_axes_0"), val = tensor<int32, [1]>([2])];
            tensor<bool, []> var_1000_keep_dims_0 = const()[name = tensor<string, []>("op_1000_keep_dims_0"), val = tensor<bool, []>(false)];
            tensor<fp16, [1, 2560]> var_1000_cast_fp16 = reduce_sum(axes = var_1000_axes_0, keep_dims = var_1000_keep_dims_0, x = var_998_cast_fp16)[name = tensor<string, []>("op_1000_cast_fp16")];
            tensor<fp16, [1, 2560]> mean_25_cast_fp16 = real_div(x = var_1000_cast_fp16, y = v1_25_cast_fp16)[name = tensor<string, []>("mean_25_cast_fp16")];
            tensor<int32, [1]> var_1002_axes_0 = const()[name = tensor<string, []>("op_1002_axes_0"), val = tensor<int32, [1]>([2])];
            tensor<fp16, [1, 2560, 1]> var_1002_cast_fp16 = expand_dims(axes = var_1002_axes_0, x = mean_25_cast_fp16)[name = tensor<string, []>("op_1002_cast_fp16")];
            tensor<fp16, [1, 2560, 375]> var_1003_cast_fp16 = sub(x = sequences_cast_fp16, y = var_1002_cast_fp16)[name = tensor<string, []>("op_1003_cast_fp16")];
            tensor<fp16, [1, 2560, 375]> dx2_25_cast_fp16 = mul(x = var_1003_cast_fp16, y = var_1003_cast_fp16)[name = tensor<string, []>("dx2_25_cast_fp16")];
            tensor<fp16, [1, 1, 375]> var_1005_cast_fp16 = mul(x = weights_53_cast_fp16, y = weights_53_cast_fp16)[name = tensor<string, []>("op_1005_cast_fp16")];
            tensor<int32, [1]> v2_25_axes_0 = const()[name = tensor<string, []>("v2_25_axes_0"), val = tensor<int32, [1]>([2])];
            tensor<bool, []> v2_25_keep_dims_0 = const()[name = tensor<string, []>("v2_25_keep_dims_0"), val = tensor<bool, []>(false)];
            tensor<fp16, [1, 1]> v2_25_cast_fp16 = reduce_sum(axes = v2_25_axes_0, keep_dims = v2_25_keep_dims_0, x = var_1005_cast_fp16)[name = tensor<string, []>("v2_25_cast_fp16")];
            tensor<fp16, [1, 2560, 375]> var_1008_cast_fp16 = mul(x = dx2_25_cast_fp16, y = weights_53_cast_fp16)[name = tensor<string, []>("op_1008_cast_fp16")];
            tensor<int32, [1]> var_1010_axes_0 = const()[name = tensor<string, []>("op_1010_axes_0"), val = tensor<int32, [1]>([2])];
            tensor<bool, []> var_1010_keep_dims_0 = const()[name = tensor<string, []>("op_1010_keep_dims_0"), val = tensor<bool, []>(false)];
            tensor<fp16, [1, 2560]> var_1010_cast_fp16 = reduce_sum(axes = var_1010_axes_0, keep_dims = var_1010_keep_dims_0, x = var_1008_cast_fp16)[name = tensor<string, []>("op_1010_cast_fp16")];
            tensor<fp16, [1, 1]> var_1011_cast_fp16 = real_div(x = v2_25_cast_fp16, y = v1_25_cast_fp16)[name = tensor<string, []>("op_1011_cast_fp16")];
            tensor<fp16, [1, 1]> var_1012_cast_fp16 = sub(x = v1_25_cast_fp16, y = var_1011_cast_fp16)[name = tensor<string, []>("op_1012_cast_fp16")];
            tensor<fp16, []> var_1013_to_fp16 = const()[name = tensor<string, []>("op_1013_to_fp16"), val = tensor<fp16, []>(0x1p-24)];
            tensor<fp16, [1, 1]> var_1014_cast_fp16 = add(x = var_1012_cast_fp16, y = var_1013_to_fp16)[name = tensor<string, []>("op_1014_cast_fp16")];
            tensor<fp16, [1, 2560]> var_25_cast_fp16 = real_div(x = var_1010_cast_fp16, y = var_1014_cast_fp16)[name = tensor<string, []>("var_25_cast_fp16")];
            tensor<fp16, [1, 2560]> std_25_cast_fp16 = sqrt(x = var_25_cast_fp16)[name = tensor<string, []>("std_25_cast_fp16")];
            tensor<bool, []> var_1018_interleave_0 = const()[name = tensor<string, []>("op_1018_interleave_0"), val = tensor<bool, []>(false)];
            tensor<fp16, [1, 5120]> var_1018_cast_fp16 = concat(axis = var_72, interleave = var_1018_interleave_0, values = (mean_25_cast_fp16, std_25_cast_fp16))[name = tensor<string, []>("op_1018_cast_fp16")];
            tensor<int32, [3]> var_1020_begin_0 = const()[name = tensor<string, []>("op_1020_begin_0"), val = tensor<int32, [3]>([0, 13, 0])];
            tensor<int32, [3]> var_1020_end_0 = const()[name = tensor<string, []>("op_1020_end_0"), val = tensor<int32, [3]>([1, 14, 375])];
            tensor<bool, [3]> var_1020_end_mask_0 = const()[name = tensor<string, []>("op_1020_end_mask_0"), val = tensor<bool, [3]>([true, false, true])];
            tensor<bool, [3]> var_1020_squeeze_mask_0 = const()[name = tensor<string, []>("op_1020_squeeze_mask_0"), val = tensor<bool, [3]>([false, true, false])];
…
            tensor<fp16, [1, 2560]> std_111_cast_fp16 = sqrt(x = var_111_cast_fp16)[name = tensor<string, []>("std_111_cast_fp16")];
            tensor<bool, []> var_2265_interleave_0 = const()[name = tensor<string, []>("op_2265_interleave_0"), val = tensor<bool, []>(false)];
            tensor<fp16, [1, 5120]> var_2265_cast_fp16 = concat(axis = var_72, interleave = var_2265_interleave_0, values = (mean_111_cast_fp16, std_111_cast_fp16))[name = tensor<string, []>("op_2265_cast_fp16")];
            tensor<int32, [3]> var_2267_begin_0 = const()[name = tensor<string, []>("op_2267_begin_0"), val = tensor<int32, [3]>([0, 56, 0])];
            tensor<int32, [3]> var_2267_end_0 = const()[name = tensor<string, []>("op_2267_end_0"), val = tensor<int32, [3]>([1, 57, 375])];
            tensor<bool, [3]> var_2267_end_mask_0 = const()[name = tensor<string, []>("op_2267_end_mask_0"), val = tensor<bool, [3]>([true, false, true])];
            tensor<bool, [3]> var_2267_squeeze_mask_0 = const()[name = tensor<string, []>("op_2267_squeeze_mask_0"), val = tensor<bool, [3]>([false, true, false])];
            tensor<fp16, [1, 375]> var_2267_cast_fp16 = slice_by_index(begin = var_2267_begin_0, end = var_2267_end_0, end_mask = var_2267_end_mask_0, squeeze_mask = var_2267_squeeze_mask_0, x = weights_1_cast_fp16)[name = tensor<string, []>("op_2267_cast_fp16")];
            tensor<int32, [1]> weights_229_axes_0 = const()[name = tensor<string, []>("weights_229_axes_0"), val = tensor<int32, [1]>([1])];
            tensor<fp16, [1, 1, 375]> weights_229_cast_fp16 = expand_dims(axes = weights_229_axes_0, x = var_2267_cast_fp16)[name = tensor<string, []>("weights_229_cast_fp16")];
            tensor<int32, [1]> var_2271_axes_0 = const()[name = tensor<string, []>("op_2271_axes_0"), val = tensor<int32, [1]>([2])];
            tensor<bool, []> var_2271_keep_dims_0 = const()[name = tensor<string, []>("op_2271_keep_dims_0"), val = tensor<bool, []>(false)];
            tensor<fp16, [1, 1]> var_2271_cast_fp16 = reduce_sum(axes = var_2271_axes_0, keep_dims = var_2271_keep_dims_0, x = weights_229_cast_fp16)[name = tensor<string, []>("op_2271_cast_fp16")];
            tensor<fp16, []> var_2272_to_fp16 = const()[name = tensor<string, []>("op_2272_to_fp16"), val = tensor<fp16, []>(0x1p-24)];
            tensor<fp16, [1, 1]> v1_113_cast_fp16 = add(x = var_2271_cast_fp16, y = var_2272_to_fp16)[name = tensor<string, []>("v1_113_cast_fp16")];
            tensor<fp16, [1, 2560, 375]> var_2274_cast_fp16 = mul(x = sequences_cast_fp16, y = weights_229_cast_fp16)[name = tensor<string, []>("op_2274_cast_fp16")];
            tensor<int32, [1]> var_2276_axes_0 = const()[name = tensor<string, []>("op_2276_axes_0"), val = tensor<int32, [1]>([2])];
            tensor<bool, []> var_2276_keep_dims_0 = const()[name = tensor<string, []>("op_2276_keep_dims_0"), val = tensor<bool, []>(false)];
            tensor<fp16, [1, 2560]> var_2276_cast_fp16 = reduce_sum(axes = var_2276_axes_0, keep_dims = var_2276_keep_dims_0, x = var_2274_cast_fp16)[name = tensor<string, []>("op_2276_cast_fp16")];
            tensor<fp16, [1, 2560]> mean_113_cast_fp16 = real_div(x = var_2276_cast_fp16, y = v1_113_cast_fp16)[name = tensor<string, []>("mean_113_cast_fp16")];
            tensor<int32, [1]> var_2278_axes_0 = const()[name = tensor<string, []>("op_2278_axes_0"), val = tensor<int32, [1]>([2])];
            tensor<fp16, [1, 2560, 1]> var_2278_cast_fp16 = expand_dims(axes = var_2278_axes_0, x = mean_113_cast_fp16)[name = tensor<string, []>("op_2278_cast_fp16")];
            tensor<fp16, [1, 2560, 375]> var_2279_cast_fp16 = sub(x = sequences_cast_fp16, y = var_2278_cast_fp16)[name = tensor<string, []>("op_2279_cast_fp16")];
            tensor<fp16, [1, 2560, 375]> dx2_113_cast_fp16 = mul(x = var_2279_cast_fp16, y = var_2279_cast_fp16)[name = tensor<string, []>("dx2_113_cast_fp16")];
            tensor<fp16, [1, 1, 375]> var_2281_cast_fp16 = mul(x = weights_229_cast_fp16, y = weights_229_cast_fp16)[name = tensor<string, []>("op_2281_cast_fp16")];
            tensor<int32, [1]> v2_113_axes_0 = const()[name = tensor<string, []>("v2_113_axes_0"), val = tensor<int32, [1]>([2])];
            tensor<bool, []> v2_113_keep_dims_0 = const()[name = tensor<string, []>("v2_113_keep_dims_0"), val = tensor<bool, []>(false)];
            tensor<fp16, [1, 1]> v2_113_cast_fp16 = reduce_sum(axes = v2_113_axes_0, keep_dims = v2_113_keep_dims_0, x = var_2281_cast_fp16)[name = tensor<string, []>("v2_113_cast_fp16")];
            tensor<fp16, [1, 2560, 375]> var_2284_cast_fp16 = mul(x = dx2_113_cast_fp16, y = weights_229_cast_fp16)[name = tensor<string, []>("op_2284_cast_fp16")];
            tensor<int32, [1]> var_2286_axes_0 = const()[name = tensor<string, []>("op_2286_axes_0"), val = tensor<int32, [1]>([2])];
            tensor<bool, []> var_2286_keep_dims_0 = const()[name = tensor<string, []>("op_2286_keep_dims_0"), val = tensor<bool, []>(false)];
            tensor<fp16, [1, 2560]> var_2286_cast_fp16 = reduce_sum(axes = var_2286_axes_0, keep_dims = var_2286_keep_dims_0, x = var_2284_cast_fp16)[name = tensor<string, []>("op_2286_cast_fp16")];
            tensor<fp16, [1, 1]> var_2287_cast_fp16 = real_div(x = v2_113_cast_fp16, y = v1_113_cast_fp16)[name = tensor<string, []>("op_2287_cast_fp16")];
            tensor<fp16, [1, 1]> var_2288_cast_fp16 = sub(x = v1_113_cast_fp16, y = var_2287_cast_fp16)[name = tensor<string, []>("op_2288_cast_fp16")];
            tensor<fp16, []> var_2289_to_fp16 = const()[name = tensor<string, []>("op_2289_to_fp16"), val = tensor<fp16, []>(0x1p-24)];
            tensor<fp16, [1, 1]> var_2290_cast_fp16 = add(x = var_2288_cast_fp16, y = var_2289_to_fp16)[name = tensor<string, []>("op_2290_cast_fp16")];
            tensor<fp16, [1, 2560]> var_113_cast_fp16 = real_div(x = var_2286_cast_fp16, y = var_2290_cast_fp16)[name = tensor<string, []>("var_113_cast_fp16")];
            tensor<fp16, [1, 2560]> std_113_cast_fp16 = sqrt(x = var_113_cast_fp16)[name = tensor<string, []>("std_113_cast_fp16")];
            tensor<bool, []> var_2294_interleave_0 = const()[name = tensor<string, []>("op_2294_interleave_0"), val = tensor<bool, []>(false)];
            tensor<fp16, [1, 5120]> var_2294_cast_fp16 = concat(axis = var_72, interleave = var_2294_interleave_0, values = (mean_113_cast_fp16, std_113_cast_fp16))[name = tensor<string, []>("op_2294_cast_fp16")];
            tensor<int32, [3]> var_2296_begin_0 = const()[name = tensor<string, []>("op_2296_begin_0"), val = tensor<int32, [3]>([0, 57, 0])];
            tensor<int32, [3]> var_2296_end_0 = const()[name = tensor<string, []>("op_2296_end_0"), val = tensor<int32, [3]>([1, 58, 375])];
            tensor<bool, [3]> var_2296_end_mask_0 = const()[name = tensor<string, []>("op_2296_end_mask_0"), val = tensor<bool, [3]>([true, false, true])];
            tensor<bool, [3]> var_2296_squeeze_mask_0 = const()[name = tensor<string, []>("op_2296_squeeze_mask_0"), val = tensor<bool, [3]>([false, true, false])];
            tensor<fp16, [1, 375]> var_2296_cast_fp16 = slice_by_index(begin = var_2296_begin_0, end = var_2296_end_0, end_mask = var_2296_end_mask_0, squeeze_mask = var_2296_squeeze_mask_0, x = weights_1_cast_fp16)[name = tensor<string, []>("op_2296_cast_fp16")];
            tensor<int32, [1]> weights_233_axes_0 = const()[name = tensor<string, []>("weights_233_axes_0"), val = tensor<int32, [1]>([1])];
            tensor<fp16, [1, 1, 375]> weights_233_cast_fp16 = expand_dims(axes = weights_233_axes_0, x = var_2296_cast_fp16)[name = tensor<string, []>("weights_233_cast_fp16")];
            tensor<int32, [1]> var_2300_axes_0 = const()[name = tensor<string, []>("op_2300_axes_0"), val = tensor<int32, [1]>([2])];
            tensor<bool, []> var_2300_keep_dims_0 = const()[name = tensor<string, []>("op_2300_keep_dims_0"), val = tensor<bool, []>(false)];
            tensor<fp16, [1, 1]> var_2300_cast_fp16 = reduce_sum(axes = var_2300_axes_0, keep_dims = var_2300_keep_dims_0, x = weights_233_cast_fp16)[name = tensor<string, []>("op_2300_cast_fp16")];
            tensor<fp16, []> var_2301_to_fp16 = const()[name = tensor<string, []>("op_2301_to_fp16"), val = tensor<fp16, []>(0x1p-24)];
            tensor<fp16, [1, 1]> v1_115_cast_fp16 = add(x = var_2300_cast_fp16, y = var_2301_to_fp16)[name = tensor<string, []>("v1_115_cast_fp16")];
            tensor<fp16, [1, 2560, 375]> var_2303_cast_fp16 = mul(x = sequences_cast_fp16, y = weights_233_cast_fp16)[name = tensor<string, []>("op_2303_cast_fp16")];
            tensor<int32, [1]> var_2305_axes_0 = const()[name = tensor<string, []>("op_2305_axes_0"), val = tensor<int32, [1]>([2])];
            tensor<bool, []> var_2305_keep_dims_0 = const()[name = tensor<string, []>("op_2305_keep_dims_0"), val = tensor<bool, []>(false)];
            tensor<fp16, [1, 2560]> var_2305_cast_fp16 = reduce_sum(axes = var_2305_axes_0, keep_dims = var_2305_keep_dims_0, x = var_2303_cast_fp16)[name = tensor<string, []>("op_2305_cast_fp16")];
            tensor<fp16, [1, 2560]> mean_115_cast_fp16 = real_div(x = var_2305_cast_fp16, y = v1_115_cast_fp16)[name = tensor<string, []>("mean_115_cast_fp16")];
            tensor<int32, [1]> var_2307_axes_0 = const()[name = tensor<string, []>("op_2307_axes_0"), val = tensor<int32, [1]>([2])];
            tensor<fp16, [1, 2560, 1]> var_2307_cast_fp16 = expand_dims(axes = var_2307_axes_0, x = mean_115_cast_fp16)[name = tensor<string, []>("op_2307_cast_fp16")];
            tensor<fp16, [1, 2560, 375]> var_2308_cast_fp16 = sub(x = sequences_cast_fp16, y = var_2307_cast_fp16)[name = tensor<string, []>("op_2308_cast_fp16")];
            tensor<fp16, [1, 2560, 375]> dx2_115_cast_fp16 = mul(x = var_2308_cast_fp16, y = var_2308_cast_fp16)[name = tensor<string, []>("dx2_115_cast_fp16")];
            tensor<fp16, [1, 1, 375]> var_2310_cast_fp16 = mul(x = weights_233_cast_fp16, y = weights_233_cast_fp16)[name = tensor<string, []>("op_2310_cast_fp16")];
            tensor<int32, [1]> v2_115_axes_0 = const()[name = tensor<string, []>("v2_115_axes_0"), val = tensor<int32, [1]>([2])];
            tensor<bool, []> v2_115_keep_dims_0 = const()[name = tensor<string, []>("v2_115_keep_dims_0"), val = tensor<bool, []>(false)];
            tensor<fp16, [1, 1]> v2_115_cast_fp16 = reduce_sum(axes = v2_115_axes_0, keep_dims = v2_115_keep_dims_0, x = var_2310_cast_fp16)[name = tensor<string, []>("v2_115_cast_fp16")];
            tensor<fp16, [1, 2560, 375]> var_2313_cast_fp16 = mul(x = dx2_115_cast_fp16, y = weights_233_cast_fp16)[name = tensor<string, []>("op_2313_cast_fp16")];
            tensor<int32, [1]> var_2315_axes_0 = const()[name = tensor<string, []>("op_2315_axes_0"), val = tensor<int32, [1]>([2])];
            tensor<bool, []> var_2315_keep_dims_0 = const()[name = tensor<string, []>("op_2315_keep_dims_0"), val = tensor<bool, []>(false)];
            tensor<fp16, [1, 2560]> var_2315_cast_fp16 = reduce_sum(axes = var_2315_axes_0, keep_dims = var_2315_keep_dims_0, x = var_2313_cast_fp16)[name = tensor<string, []>("op_2315_cast_fp16")];
            tensor<fp16, [1, 1]> var_2316_cast_fp16 = real_div(x = v2_115_cast_fp16, y = v1_115_cast_fp16)[name = tensor<string, []>("op_2316_cast_fp16")];
            tensor<fp16, [1, 1]> var_2317_cast_fp16 = sub(x = v1_115_cast_fp16, y = var_2316_cast_fp16)[name = tensor<string, []>("op_2317_cast_fp16")];
            tensor<fp16, []> var_2318_to_fp16 = const()[name = tensor<string, []>("op_2318_to_fp16"), val = tensor<fp16, []>(0x1p-24)];
            tensor<fp16, [1, 1]> var_2319_cast_fp16 = add(x = var_2317_cast_fp16, y = var_2318_to_fp16)[name = tensor<string, []>("op_2319_cast_fp16")];
            tensor<fp16, [1, 2560]> var_115_cast_fp16 = real_div(x = var_2315_cast_fp16, y = var_2319_cast_fp16)[name = tensor<string, []>("var_115_cast_fp16")];
            tensor<fp16, [1, 2560]> std_115_cast_fp16 = sqrt(x = var_115_cast_fp16)[name = tensor<string, []>("std_115_cast_fp16")];
            tensor<bool, []> var_2323_interleave_0 = const()[name = tensor<string, []>("op_2323_interleave_0"), val = tensor<bool, []>(false)];
            tensor<fp16, [1, 5120]> var_2323_cast_fp16 = concat(axis = var_72, interleave = var_2323_interleave_0, values = (mean_115_cast_fp16, std_115_cast_fp16))[name = tensor<string, []>("op_2323_cast_fp16")];
            tensor<int32, [3]> var_2325_begin_0 = const()[name = tensor<string, []>("op_2325_begin_0"), val = tensor<int32, [3]>([0, 58, 0])];
            tensor<int32, [3]> var_2325_end_0 = const()[name = tensor<string, []>("op_2325_end_0"), val = tensor<int32, [3]>([1, 59, 375])];
            tensor<bool, [3]> var_2325_end_mask_0 = const()[name = tensor<string, []>("op_2325_end_mask_0"), val = tensor<bool, [3]>([true, false, true])];
            tensor<bool, [3]> var_2325_squeeze_mask_0 = const()[name = tensor<string, []>("op_2325_squeeze_mask_0"), val = tensor<bool, [3]>([false, true, false])];
            tensor<fp16, [1, 375]> var_2325_cast_fp16 = slice_by_index(begin = var_2325_begin_0, end = var_2325_end_0, end_mask = var_2325_end_mask_0, squeeze_mask = var_2325_squeeze_mask_0, x = weights_1_cast_fp16)[name = tensor<string, []>("op_2325_cast_fp16")];
            tensor<int32, [1]> weights_237_axes_0 = const()[name = tensor<string, []>("weights_237_axes_0"), val = tensor<int32, [1]>([1])];
            tensor<fp16, [1, 1, 375]> weights_237_cast_fp16 = expand_dims(axes = weights_237_axes_0, x = var_2325_cast_fp16)[name = tensor<string, []>("weights_237_cast_fp16")];
            tensor<int32, [1]> var_2329_axes_0 = const()[name = tensor<string, []>("op_2329_axes_0"), val = tensor<int32, [1]>([2])];
            tensor<bool, []> var_2329_keep_dims_0 = const()[name = tensor<string, []>("op_2329_keep_dims_0"), val = tensor<bool, []>(false)];
            tensor<fp16, [1, 1]> var_2329_cast_fp16 = reduce_sum(axes = var_2329_axes_0, keep_dims = var_2329_keep_dims_0, x = weights_237_cast_fp16)[name = tensor<string, []>("op_2329_cast_fp16")];
            tensor<fp16, []> var_2330_to_fp16 = const()[name = tensor<string, []>("op_2330_to_fp16"), val = tensor<fp16, []>(0x1p-24)];
            tensor<fp16, [1, 1]> v1_117_cast_fp16 = add(x = var_2329_cast_fp16, y = var_2330_to_fp16)[name = tensor<string, []>("v1_117_cast_fp16")];
            tensor<fp16, [1, 2560, 375]> var_2332_cast_fp16 = mul(x = sequences_cast_fp16, y = weights_237_cast_fp16)[name = tensor<string, []>("op_2332_cast_fp16")];
            tensor<int32, [1]> var_2334_axes_0 = const()[name = tensor<string, []>("op_2334_axes_0"), val = tensor<int32, [1]>([2])];
            tensor<bool, []> var_2334_keep_dims_0 = const()[name = tensor<string, []>("op_2334_keep_dims_0"), val = tensor<bool, []>(false)];
            tensor<fp16, [1, 2560]> var_2334_cast_fp16 = reduce_sum(axes = var_2334_axes_0, keep_dims = var_2334_keep_dims_0, x = var_2332_cast_fp16)[name = tensor<string, []>("op_2334_cast_fp16")];
            tensor<fp16, [1, 2560]> mean_117_cast_fp16 = real_div(x = var_2334_cast_fp16, y = v1_117_cast_fp16)[name = tensor<string, []>("mean_117_cast_fp16")];
            tensor<int32, [1]> var_2336_axes_0 = const()[name = tensor<string, []>("op_2336_axes_0"), val = tensor<int32, [1]>([2])];
            tensor<fp16, [1, 2560, 1]> var_2336_cast_fp16 = expand_dims(axes = var_2336_axes_0, x = mean_117_cast_fp16)[name = tensor<string, []>("op_2336_cast_fp16")];
            tensor<fp16, [1, 2560, 375]> var_2337_cast_fp16 = sub(x = sequences_cast_fp16, y = var_2336_cast_fp16)[name = tensor<string, []>("op_2337_cast_fp16")];
            tensor<fp16, [1, 2560, 375]> dx2_117_cast_fp16 = mul(x = var_2337_cast_fp16, y = var_2337_cast_fp16)[name = tensor<string, []>("dx2_117_cast_fp16")];
            tensor<fp16, [1, 1, 375]> var_2339_cast_fp16 = mul(x = weights_237_cast_fp16, y = weights_237_cast_fp16)[name = tensor<string, []>("op_2339_cast_fp16")];
            tensor<int32, [1]> v2_117_axes_0 = const()[name = tensor<string, []>("v2_117_axes_0"), val = tensor<int32, [1]>([2])];
            tensor<bool, []> v2_117_keep_dims_0 = const()[name = tensor<string, []>("v2_117_keep_dims_0"), val = tensor<bool, []>(false)];
            tensor<fp16, [1, 1]> v2_117_cast_fp16 = reduce_sum(axes = v2_117_axes_0, keep_dims = v2_117_keep_dims_0, x = var_2339_cast_fp16)[name = tensor<string, []>("v2_117_cast_fp16")];
            tensor<fp16, [1, 2560, 375]> var_2342_cast_fp16 = mul(x = dx2_117_cast_fp16, y = weights_237_cast_fp16)[name = tensor<string, []>("op_2342_cast_fp16")];
            tensor<int32, [1]> var_2344_axes_0 = const()[name = tensor<string, []>("op_2344_axes_0"), val = tensor<int32, [1]>([2])];
            tensor<bool, []> var_2344_keep_dims_0 = const()[name = tensor<string, []>("op_2344_keep_dims_0"), val = tensor<bool, []>(false)];
            tensor<fp16, [1, 2560]> var_2344_cast_fp16 = reduce_sum(axes = var_2344_axes_0, keep_dims = var_2344_keep_dims_0, x = var_2342_cast_fp16)[name = tensor<string, []>("op_2344_cast_fp16")];
            tensor<fp16, [1, 1]> var_2345_cast_fp16 = real_div(x = v2_117_cast_fp16, y = v1_117_cast_fp16)[name = tensor<string, []>("op_2345_cast_fp16")];
            tensor<fp16, [1, 1]> var_2346_cast_fp16 = sub(x = v1_117_cast_fp16, y = var_2345_cast_fp16)[name = tensor<string, []>("op_2346_cast_fp16")];
            tensor<fp16, []> var_2347_to_fp16 = const()[name = tensor<string, []>("op_2347_to_fp16"), val = tensor<fp16, []>(0x1p-24)];
            tensor<fp16, [1, 1]> var_2348_cast_fp16 = add(x = var_2346_cast_fp16, y = var_2347_to_fp16)[name = tensor<string, []>("op_2348_cast_fp16")];
            tensor<fp16, [1, 2560]> var_117_cast_fp16 = real_div(x = var_2344_cast_fp16, y = var_2348_cast_fp16)[name = tensor<string, []>("var_117_cast_fp16")];
            tensor<fp16, [1, 2560]> std_117_cast_fp16 = sqrt(x = var_117_cast_fp16)[name = tensor<string, []>("std_117_cast_fp16")];
            tensor<bool, []> var_2352_interleave_0 = const()[name = tensor<string, []>("op_2352_interleave_0"), val = tensor<bool, []>(false)];
            tensor<fp16, [1, 5120]> var_2352_cast_fp16 = concat(axis = var_72, interleave = var_2352_interleave_0, values = (mean_117_cast_fp16, std_117_cast_fp16))[name = tensor<string, []>("op_2352_cast_fp16")];
            tensor<int32, [3]> var_2354_begin_0 = const()[name = tensor<string, []>("op_2354_begin_0"), val = tensor<int32, [3]>([0, 59, 0])];
            tensor<int32, [3]> var_2354_end_0 = const()[name = tensor<string, []>("op_2354_end_0"), val = tensor<int32, [3]>([1, 60, 375])];
            tensor<bool, [3]> var_2354_end_mask_0 = const()[name = tensor<string, []>("op_2354_end_mask_0"), val = tensor<bool, [3]>([true, false, true])];
            tensor<bool, [3]> var_2354_squeeze_mask_0 = const()[name = tensor<string, []>("op_2354_squeeze_mask_0"), val = tensor<bool, [3]>([false, true, false])];
            tensor<fp16, [1, 375]> var_2354_cast_fp16 = slice_by_index(begin = var_2354_begin_0, end = var_2354_end_0, end_mask = var_2354_end_mask_0, squeeze_mask = var_2354_squeeze_mask_0, x = weights_1_cast_fp16)[name = tensor<string, []>("op_2354_cast_fp16")];
            tensor<int32, [1]> weights_241_axes_0 = const()[name = tensor<string, []>("weights_241_axes_0"), val = tensor<int32, [1]>([1])];
            tensor<fp16, [1, 1, 375]> weights_241_cast_fp16 = expand_dims(axes = weights_241_axes_0, x = var_2354_cast_fp16)[name = tensor<string, []>("weights_241_cast_fp16")];
            tensor<int32, [1]> var_2358_axes_0 = const()[name = tensor<string, []>("op_2358_axes_0"), val = tensor<int32, [1]>([2])];
            tensor<bool, []> var_2358_keep_dims_0 = const()[name = tensor<string, []>("op_2358_keep_dims_0"), val = tensor<bool, []>(false)];
            tensor<fp16, [1, 1]> var_2358_cast_fp16 = reduce_sum(axes = var_2358_axes_0, keep_dims = var_2358_keep_dims_0, x = weights_241_cast_fp16)[name = tensor<string, []>("op_2358_cast_fp16")];
            tensor<fp16, []> var_2359_to_fp16 = const()[name = tensor<string, []>("op_2359_to_fp16"), val = tensor<fp16, []>(0x1p-24)];
            tensor<fp16, [1, 1]> v1_119_cast_fp16 = add(x = var_2358_cast_fp16, y = var_2359_to_fp16)[name = tensor<string, []>("v1_119_cast_fp16")];
            tensor<fp16, [1, 2560, 375]> var_2361_cast_fp16 = mul(x = sequences_cast_fp16, y = weights_241_cast_fp16)[name = tensor<string, []>("op_2361_cast_fp16")];
            tensor<int32, [1]> var_2363_axes_0 = const()[name = tensor<string, []>("op_2363_axes_0"), val = tensor<int32, [1]>([2])];
            tensor<bool, []> var_2363_keep_dims_0 = const()[name = tensor<string, []>("op_2363_keep_dims_0"), val = tensor<bool, []>(false)];
            tensor<fp16, [1, 2560]> var_2363_cast_fp16 = reduce_sum(axes = var_2363_axes_0, keep_dims = var_2363_keep_dims_0, x = var_2361_cast_fp16)[name = tensor<string, []>("op_2363_cast_fp16")];
            tensor<fp16, [1, 2560]> mean_119_cast_fp16 = real_div(x = var_2363_cast_fp16, y = v1_119_cast_fp16)[name = tensor<string, []>("mean_119_cast_fp16")];
            tensor<int32, [1]> var_2365_axes_0 = const()[name = tensor<string, []>("op_2365_axes_0"), val = tensor<int32, [1]>([2])];
            tensor<fp16, [1, 2560, 1]> var_2365_cast_fp16 = expand_dims(axes = var_2365_axes_0, x = mean_119_cast_fp16)[name = tensor<string, []>("op_2365_cast_fp16")];
            tensor<fp16, [1, 2560, 375]> var_2366_cast_fp16 = sub(x = sequences_cast_fp16, y = var_2365_cast_fp16)[name = tensor<string, []>("op_2366_cast_fp16")];
            tensor<fp16, [1, 2560, 375]> dx2_119_cast_fp16 = mul(x = var_2366_cast_fp16, y = var_2366_cast_fp16)[name = tensor<string, []>("dx2_119_cast_fp16")];
            tensor<fp16, [1, 1, 375]> var_2368_cast_fp16 = mul(x = weights_241_cast_fp16, y = weights_241_cast_fp16)[name = tensor<string, []>("op_2368_cast_fp16")];
            tensor<int32, [1]> v2_119_axes_0 = const()[name = tensor<string, []>("v2_119_axes_0"), val = tensor<int32, [1]>([2])];
            tensor<bool, []> v2_119_keep_dims_0 = const()[name = tensor<string, []>("v2_119_keep_dims_0"), val = tensor<bool, []>(false)];
            tensor<fp16, [1, 1]> v2_119_cast_fp16 = reduce_sum(axes = v2_119_axes_0, keep_dims = v2_119_keep_dims_0, x = var_2368_cast_fp16)[name = tensor<string, []>("v2_119_cast_fp16")];
            tensor<fp16, [1, 2560, 375]> var_2371_cast_fp16 = mul(x = dx2_119_cast_fp16, y = weights_241_cast_fp16)[name = tensor<string, []>("op_2371_cast_fp16")];
            tensor<int32, [1]> var_2373_axes_0 = const()[name = tensor<string, []>("op_2373_axes_0"), val = tensor<int32, [1]>([2])];
            tensor<bool, []> var_2373_keep_dims_0 = const()[name = tensor<string, []>("op_2373_keep_dims_0"), val = tensor<bool, []>(false)];
            tensor<fp16, [1, 2560]> var_2373_cast_fp16 = reduce_sum(axes = var_2373_axes_0, keep_dims = var_2373_keep_dims_0, x = var_2371_cast_fp16)[name = tensor<string, []>("op_2373_cast_fp16")];
            tensor<fp16, [1, 1]> var_2374_cast_fp16 = real_div(x = v2_119_cast_fp16, y = v1_119_cast_fp16)[name = tensor<string, []>("op_2374_cast_fp16")];
            tensor<fp16, [1, 1]> var_2375_cast_fp16 = sub(x = v1_119_cast_fp16, y = var_2374_cast_fp16)[name = tensor<string, []>("op_2375_cast_fp16")];
            tensor<fp16, []> var_2376_to_fp16 = const()[name = tensor<string, []>("op_2376_to_fp16"), val = tensor<fp16, []>(0x1p-24)];
            tensor<fp16, [1, 1]> var_2377_cast_fp16 = add(x = var_2375_cast_fp16, y = var_2376_to_fp16)[name = tensor<string, []>("op_2377_cast_fp16")];
            tensor<fp16, [1, 2560]> var_119_cast_fp16 = real_div(x = var_2373_cast_fp16, y = var_2377_cast_fp16)[name = tensor<string, []>("var_119_cast_fp16")];
            tensor<fp16, [1, 2560]> std_119_cast_fp16 = sqrt(x = var_119_cast_fp16)[name = tensor<string, []>("std_119_cast_fp16")];
            tensor<bool, []> var_2381_interleave_0 = const()[name = tensor<string, []>("op_2381_interleave_0"), val = tensor<bool, []>(false)];
            tensor<fp16, [1, 5120]> var_2381_cast_fp16 = concat(axis = var_72, interleave = var_2381_interleave_0, values = (mean_119_cast_fp16, std_119_cast_fp16))[name = tensor<string, []>("op_2381_cast_fp16")];
            tensor<int32, [3]> var_2383_begin_0 = const()[name = tensor<string, []>("op_2383_begin_0"), val = tensor<int32, [3]>([0, 60, 0])];
            tensor<int32, [3]> var_2383_end_0 = const()[name = tensor<string, []>("op_2383_end_0"), val = tensor<int32, [3]>([1, 61, 375])];
            tensor<bool, [3]> var_2383_end_mask_0 = const()[name = tensor<string, []>("op_2383_end_mask_0"), val = tensor<bool, [3]>([true, false, true])];
            tensor<bool, [3]> var_2383_squeeze_mask_0 = const()[name = tensor<string, []>("op_2383_squeeze_mask_0"), val = tensor<bool, [3]>([false, true, false])];
            tensor<fp16, [1, 375]> var_2383_cast_fp16 = slice_by_index(begin = var_2383_begin_0, end = var_2383_end_0, end_mask = var_2383_end_mask_0, squeeze_mask = var_2383_squeeze_mask_0, x = weights_1_cast_fp16)[name = tensor<string, []>("op_2383_cast_fp16")];
            tensor<int32, [1]> weights_245_axes_0 = const()[name = tensor<string, []>("weights_245_axes_0"), val = tensor<int32, [1]>([1])];
            tensor<fp16, [1, 1, 375]> weights_245_cast_fp16 = expand_dims(axes = weights_245_axes_0, x = var_2383_cast_fp16)[name = tensor<string, []>("weights_245_cast_fp16")];
            tensor<int32, [1]> var_2387_axes_0 = const()[name = tensor<string, []>("op_2387_axes_0"), val = tensor<int32, [1]>([2])];
            tensor<bool, []> var_2387_keep_dims_0 = const()[name = tensor<string, []>("op_2387_keep_dims_0"), val = tensor<bool, []>(false)];
            tensor<fp16, [1, 1]> var_2387_cast_fp16 = reduce_sum(axes = var_2387_axes_0, keep_dims = var_2387_keep_dims_0, x = weights_245_cast_fp16)[name = tensor<string, []>("op_2387_cast_fp16")];
            tensor<fp16, []> var_2388_to_fp16 = const()[name = tensor<string, []>("op_2388_to_fp16"), val = tensor<fp16, []>(0x1p-24)];
            tensor<fp16, [1, 1]> v1_121_cast_fp16 = add(x = var_2387_cast_fp16, y = var_2388_to_fp16)[name = tensor<string, []>("v1_121_cast_fp16")];
            tensor<fp16, [1, 2560, 375]> var_2390_cast_fp16 = mul(x = sequences_cast_fp16, y = weights_245_cast_fp16)[name = tensor<string, []>("op_2390_cast_fp16")];
            tensor<int32, [1]> var_2392_axes_0 = const()[name = tensor<string, []>("op_2392_axes_0"), val = tensor<int32, [1]>([2])];
            tensor<bool, []> var_2392_keep_dims_0 = const()[name = tensor<string, []>("op_2392_keep_dims_0"), val = tensor<bool, []>(false)];
            tensor<fp16, [1, 2560]> var_2392_cast_fp16 = reduce_sum(axes = var_2392_axes_0, keep_dims = var_2392_keep_dims_0, x = var_2390_cast_fp16)[name = tensor<string, []>("op_2392_cast_fp16")];
            tensor<fp16, [1, 2560]> mean_121_cast_fp16 = real_div(x = var_2392_cast_fp16, y = v1_121_cast_fp16)[name = tensor<string, []>("mean_121_cast_fp16")];
            tensor<int32, [1]> var_2394_axes_0 = const()[name = tensor<string, []>("op_2394_axes_0"), val = tensor<int32, [1]>([2])];
            tensor<fp16, [1, 2560, 1]> var_2394_cast_fp16 = expand_dims(axes = var_2394_axes_0, x = mean_121_cast_fp16)[name = tensor<string, []>("op_2394_cast_fp16")];
            tensor<fp16, [1, 2560, 375]> var_2395_cast_fp16 = sub(x = sequences_cast_fp16, y = var_2394_cast_fp16)[name = tensor<string, []>("op_2395_cast_fp16")];
            tensor<fp16, [1, 2560, 375]> dx2_121_cast_fp16 = mul(x = var_2395_cast_fp16, y = var_2395_cast_fp16)[name = tensor<string, []>("dx2_121_cast_fp16")];
            tensor<fp16, [1, 1, 375]> var_2397_cast_fp16 = mul(x = weights_245_cast_fp16, y = weights_245_cast_fp16)[name = tensor<string, []>("op_2397_cast_fp16")];
            tensor<int32, [1]> v2_121_axes_0 = const()[name = tensor<string, []>("v2_121_axes_0"), val = tensor<int32, [1]>([2])];
            tensor<bool, []> v2_121_keep_dims_0 = const()[name = tensor<string, []>("v2_121_keep_dims_0"), val = tensor<bool, []>(false)];
            tensor<fp16, [1, 1]> v2_121_cast_fp16 = reduce_sum(axes = v2_121_axes_0, keep_dims = v2_121_keep_dims_0, x = var_2397_cast_fp16)[name = tensor<string, []>("v2_121_cast_fp16")];
            tensor<fp16, [1, 2560, 375]> var_2400_cast_fp16 = mul(x = dx2_121_cast_fp16, y = weights_245_cast_fp16)[name = tensor<string, []>("op_2400_cast_fp16")];
            tensor<int32, [1]> var_2402_axes_0 = const()[name = tensor<string, []>("op_2402_axes_0"), val = tensor<int32, [1]>([2])];
            tensor<bool, []> var_2402_keep_dims_0 = const()[name = tensor<string, []>("op_2402_keep_dims_0"), val = tensor<bool, []>(false)];
            tensor<fp16, [1, 2560]> var_2402_cast_fp16 = reduce_sum(axes = var_2402_axes_0, keep_dims = var_2402_keep_dims_0, x = var_2400_cast_fp16)[name = tensor<string, []>("op_2402_cast_fp16")];
            tensor<fp16, [1, 1]> var_2403_cast_fp16 = real_div(x = v2_121_cast_fp16, y = v1_121_cast_fp16)[name = tensor<string, []>("op_2403_cast_fp16")];
            tensor<fp16, [1, 1]> var_2404_cast_fp16 = sub(x = v1_121_cast_fp16, y = var_2403_cast_fp16)[name = tensor<string, []>("op_2404_cast_fp16")];
            tensor<fp16, []> var_2405_to_fp16 = const()[name = tensor<string, []>("op_2405_to_fp16"), val = tensor<fp16, []>(0x1p-24)];
            tensor<fp16, [1, 1]> var_2406_cast_fp16 = add(x = var_2404_cast_fp16, y = var_2405_to_fp16)[name = tensor<string, []>("op_2406_cast_fp16")];
            tensor<fp16, [1, 2560]> var_121_cast_fp16 = real_div(x = var_2402_cast_fp16, y = var_2406_cast_fp16)[name = tensor<string, []>("var_121_cast_fp16")];
            tensor<fp16, [1, 2560]> std_121_cast_fp16 = sqrt(x = var_121_cast_fp16)[name = tensor<string, []>("std_121_cast_fp16")];
            tensor<bool, []> var_2410_interleave_0 = const()[name = tensor<string, []>("op_2410_interleave_0"), val = tensor<bool, []>(false)];
            tensor<fp16, [1, 5120]> var_2410_cast_fp16 = concat(axis = var_72, interleave = var_2410_interleave_0, values = (mean_121_cast_fp16, std_121_cast_fp16))[name = tensor<string, []>("op_2410_cast_fp16")];
            tensor<int32, [3]> var_2412_begin_0 = const()[name = tensor<string, []>("op_2412_begin_0"), val = tensor<int32, [3]>([0, 61, 0])];
            tensor<int32, [3]> var_2412_end_0 = const()[name = tensor<string, []>("op_2412_end_0"), val = tensor<int32, [3]>([1, 62, 375])];
            tensor<bool, [3]> var_2412_end_mask_0 = const()[name = tensor<string, []>("op_2412_end_mask_0"), val = tensor<bool, [3]>([true, false, true])];
            tensor<bool, [3]> var_2412_squeeze_mask_0 = const()[name = tensor<string, []>("op_2412_squeeze_mask_0"), val = tensor<bool, [3]>([false, true, false])];
            tensor<fp16, [1, 375]> var_2412_cast_fp16 = slice_by_index(begin = var_2412_begin_0, end = var_2412_end_0, end_mask = var_2412_end_mask_0, squeeze_mask = var_2412_squeeze_mask_0, x = weights_1_cast_fp16)[name = tensor<string, []>("op_2412_cast_fp16")];
            tensor<int32, [1]> weights_249_axes_0 = const()[name = tensor<string, []>("weights_249_axes_0"), val = tensor<int32, [1]>([1])];
            tensor<fp16, [1, 1, 375]> weights_249_cast_fp16 = expand_dims(axes = weights_249_axes_0, x = var_2412_cast_fp16)[name = tensor<string, []>("weights_249_cast_fp16")];
            tensor<int32, [1]> var_2416_axes_0 = const()[name = tensor<string, []>("op_2416_axes_0"), val = tensor<int32, [1]>([2])];
            tensor<bool, []> var_2416_keep_dims_0 = const()[name = tensor<string, []>("op_2416_keep_dims_0"), val = tensor<bool, []>(false)];
            tensor<fp16, [1, 1]> var_2416_cast_fp16 = reduce_sum(axes = var_2416_axes_0, keep_dims = var_2416_keep_dims_0, x = weights_249_cast_fp16)[name = tensor<string, []>("op_2416_cast_fp16")];
            tensor<fp16, []> var_2417_to_fp16 = const()[name = tensor<string, []>("op_2417_to_fp16"), val = tensor<fp16, []>(0x1p-24)];
            tensor<fp16, [1, 1]> v1_123_cast_fp16 = add(x = var_2416_cast_fp16, y = var_2417_to_fp16)[name = tensor<string, []>("v1_123_cast_fp16")];
            tensor<fp16, [1, 2560, 375]> var_2419_cast_fp16 = mul(x = sequences_cast_fp16, y = weights_249_cast_fp16)[name = tensor<string, []>("op_2419_cast_fp16")];
            tensor<int32, [1]> var_2421_axes_0 = const()[name = tensor<string, []>("op_2421_axes_0"), val = tensor<int32, [1]>([2])];
            tensor<bool, []> var_2421_keep_dims_0 = const()[name = tensor<string, []>("op_2421_keep_dims_0"), val = tensor<bool, []>(false)];
            tensor<fp16, [1, 2560]> var_2421_cast_fp16 = reduce_sum(axes = var_2421_axes_0, keep_dims = var_2421_keep_dims_0, x = var_2419_cast_fp16)[name = tensor<string, []>("op_2421_cast_fp16")];
            tensor<fp16, [1, 2560]> mean_123_cast_fp16 = real_div(x = var_2421_cast_fp16, y = v1_123_cast_fp16)[name = tensor<string, []>("mean_123_cast_fp16")];
            tensor<int32, [1]> var_2423_axes_0 = const()[name = tensor<string, []>("op_2423_axes_0"), val = tensor<int32, [1]>([2])];
            tensor<fp16, [1, 2560, 1]> var_2423_cast_fp16 = expand_dims(axes = var_2423_axes_0, x = mean_123_cast_fp16)[name = tensor<string, []>("op_2423_cast_fp16")];
            tensor<fp16, [1, 2560, 375]> var_2424_cast_fp16 = sub(x = sequences_cast_fp16, y = var_2423_cast_fp16)[name = tensor<string, []>("op_2424_cast_fp16")];
            tensor<fp16, [1, 2560, 375]> dx2_123_cast_fp16 = mul(x = var_2424_cast_fp16, y = var_2424_cast_fp16)[name = tensor<string, []>("dx2_123_cast_fp16")];
            tensor<fp16, [1, 1, 375]> var_2426_cast_fp16 = mul(x = weights_249_cast_fp16, y = weights_249_cast_fp16)[name = tensor<string, []>("op_2426_cast_fp16")];
            tensor<int32, [1]> v2_123_axes_0 = const()[name = tensor<string, []>("v2_123_axes_0"), val = tensor<int32, [1]>([2])];
            tensor<bool, []> v2_123_keep_dims_0 = const()[name = tensor<string, []>("v2_123_keep_dims_0"), val = tensor<bool, []>(false)];
            tensor<fp16, [1, 1]> v2_123_cast_fp16 = reduce_sum(axes = v2_123_axes_0, keep_dims = v2_123_keep_dims_0, x = var_2426_cast_fp16)[name = tensor<string, []>("v2_123_cast_fp16")];
            tensor<fp16, [1, 2560, 375]> var_2429_cast_fp16 = mul(x = dx2_123_cast_fp16, y = weights_249_cast_fp16)[name = tensor<string, []>("op_2429_cast_fp16")];
            tensor<int32, [1]> var_2431_axes_0 = const()[name = tensor<string, []>("op_2431_axes_0"), val = tensor<int32, [1]>([2])];
            tensor<bool, []> var_2431_keep_dims_0 = const()[name = tensor<string, []>("op_2431_keep_dims_0"), val = tensor<bool, []>(false)];
            tensor<fp16, [1, 2560]> var_2431_cast_fp16 = reduce_sum(axes = var_2431_axes_0, keep_dims = var_2431_keep_dims_0, x = var_2429_cast_fp16)[name = tensor<string, []>("op_2431_cast_fp16")];
            tensor<fp16, [1, 1]> var_2432_cast_fp16 = real_div(x = v2_123_cast_fp16, y = v1_123_cast_fp16)[name = tensor<string, []>("op_2432_cast_fp16")];
            tensor<fp16, [1, 1]> var_2433_cast_fp16 = sub(x = v1_123_cast_fp16, y = var_2432_cast_fp16)[name = tensor<string, []>("op_2433_cast_fp16")];
            tensor<fp16, []> var_2434_to_fp16 = const()[name = tensor<string, []>("op_2434_to_fp16"), val = tensor<fp16, []>(0x1p-24)];
            tensor<fp16, [1, 1]> var_2435_cast_fp16 = add(x = var_2433_cast_fp16, y = var_2434_to_fp16)[name = tensor<string, []>("op_2435_cast_fp16")];
            tensor<fp16, [1, 2560]> var_123_cast_fp16 = real_div(x = var_2431_cast_fp16, y = var_2435_cast_fp16)[name = tensor<string, []>("var_123_cast_fp16")];
            tensor<fp16, [1, 2560]> std_123_cast_fp16 = sqrt(x = var_123_cast_fp16)[name = tensor<string, []>("std_123_cast_fp16")];
            tensor<bool, []> var_2439_interleave_0 = const()[name = tensor<string, []>("op_2439_interleave_0"), val = tensor<bool, []>(false)];
            tensor<fp16, [1, 5120]> var_2439_cast_fp16 = concat(axis = var_72, interleave = var_2439_interleave_0, values = (mean_123_cast_fp16, std_123_cast_fp16))[name = tensor<string, []>("op_2439_cast_fp16")];
            tensor<int32, [3]> var_2441_begin_0 = const()[name = tensor<string, []>("op_2441_begin_0"), val = tensor<int32, [3]>([0, 62, 0])];
            tensor<int32, [3]> var_2441_end_0 = const()[name = tensor<string, []>("op_2441_end_0"), val = tensor<int32, [3]>([1, 63, 375])];
            tensor<bool, [3]> var_2441_end_mask_0 = const()[name = tensor<string, []>("op_2441_end_mask_0"), val = tensor<bool, [3]>([true, false, true])];
            tensor<bool, [3]> var_2441_squeeze_mask_0 = const()[name = tensor<string, []>("op_2441_squeeze_mask_0"), val = tensor<bool, [3]>([false, true, false])];
            tensor<fp16, [1, 375]> var_2441_cast_fp16 = slice_by_index(begin = var_2441_begin_0, end = var_2441_end_0, end_mask = var_2441_end_mask_0, squeeze_mask = var_2441_squeeze_mask_0, x = weights_1_cast_fp16)[name = tensor<string, []>("op_2441_cast_fp16")];
            tensor<int32, [1]> weights_253_axes_0 = const()[name = tensor<string, []>("weights_253_axes_0"), val = tensor<int32, [1]>([1])];
            tensor<fp16, [1, 1, 375]> weights_253_cast_fp16 = expand_dims(axes = weights_253_axes_0, x = var_2441_cast_fp16)[name = tensor<string, []>("weights_253_cast_fp16")];
            tensor<int32, [1]> var_2445_axes_0 = const()[name = tensor<string, []>("op_2445_axes_0"), val = tensor<int32, [1]>([2])];
            tensor<bool, []> var_2445_keep_dims_0 = const()[name = tensor<string, []>("op_2445_keep_dims_0"), val = tensor<bool, []>(false)];
            tensor<fp16, [1, 1]> var_2445_cast_fp16 = reduce_sum(axes = var_2445_axes_0, keep_dims = var_2445_keep_dims_0, x = weights_253_cast_fp16)[name = tensor<string, []>("op_2445_cast_fp16")];
            tensor<fp16, []> var_2446_to_fp16 = const()[name = tensor<string, []>("op_2446_to_fp16"), val = tensor<fp16, []>(0x1p-24)];
            tensor<fp16, [1, 1]> v1_125_cast_fp16 = add(x = var_2445_cast_fp16, y = var_2446_to_fp16)[name = tensor<string, []>("v1_125_cast_fp16")];
            tensor<fp16, [1, 2560, 375]> var_2448_cast_fp16 = mul(x = sequences_cast_fp16, y = weights_253_cast_fp16)[name = tensor<string, []>("op_2448_cast_fp16")];
            tensor<int32, [1]> var_2450_axes_0 = const()[name = tensor<string, []>("op_2450_axes_0"), val = tensor<int32, [1]>([2])];
            tensor<bool, []> var_2450_keep_dims_0 = const()[name = tensor<string, []>("op_2450_keep_dims_0"), val = tensor<bool, []>(false)];
            tensor<fp16, [1, 2560]> var_2450_cast_fp16 = reduce_sum(axes = var_2450_axes_0, keep_dims = var_2450_keep_dims_0, x = var_2448_cast_fp16)[name = tensor<string, []>("op_2450_cast_fp16")];
            tensor<fp16, [1, 2560]> mean_125_cast_fp16 = real_div(x = var_2450_cast_fp16, y = v1_125_cast_fp16)[name = tensor<string, []>("mean_125_cast_fp16")];
            tensor<int32, [1]> var_2452_axes_0 = const()[name = tensor<string, []>("op_2452_axes_0"), val = tensor<int32, [1]>([2])];
            tensor<fp16, [1, 2560, 1]> var_2452_cast_fp16 = expand_dims(axes = var_2452_axes_0, x = mean_125_cast_fp16)[name = tensor<string, []>("op_2452_cast_fp16")];
            tensor<fp16, [1, 2560, 375]> var_2453_cast_fp16 = sub(x = sequences_cast_fp16, y = var_2452_cast_fp16)[name = tensor<string, []>("op_2453_cast_fp16")];
            tensor<fp16, [1, 2560, 375]> dx2_125_cast_fp16 = mul(x = var_2453_cast_fp16, y = var_2453_cast_fp16)[name = tensor<string, []>("dx2_125_cast_fp16")];
            tensor<fp16, [1, 1, 375]> var_2455_cast_fp16 = mul(x = weights_253_cast_fp16, y = weights_253_cast_fp16)[name = tensor<string, []>("op_2455_cast_fp16")];
            tensor<int32, [1]> v2_125_axes_0 = const()[name = tensor<string, []>("v2_125_axes_0"), val = tensor<int32, [1]>([2])];
            tensor<bool, []> v2_125_keep_dims_0 = const()[name = tensor<string, []>("v2_125_keep_dims_0"), val = tensor<bool, []>(false)];
            tensor<fp16, [1, 1]> v2_125_cast_fp16 = reduce_sum(axes = v2_125_axes_0, keep_dims = v2_125_keep_dims_0, x = var_2455_cast_fp16)[name = tensor<string, []>("v2_125_cast_fp16")];
            tensor<fp16, [1, 2560, 375]> var_2458_cast_fp16 = mul(x = dx2_125_cast_fp16, y = weights_253_cast_fp16)[name = tensor<string, []>("op_2458_cast_fp16")];
            tensor<int32, [1]> var_2460_axes_0 = const()[name = tensor<string, []>("op_2460_axes_0"), val = tensor<int32, [1]>([2])];
            tensor<bool, []> var_2460_keep_dims_0 = const()[name = tensor<string, []>("op_2460_keep_dims_0"), val = tensor<bool, []>(false)];
            tensor<fp16, [1, 2560]> var_2460_cast_fp16 = reduce_sum(axes = var_2460_axes_0, keep_dims = var_2460_keep_dims_0, x = var_2458_cast_fp16)[name = tensor<string, []>("op_2460_cast_fp16")];
            tensor<fp16, [1, 1]> var_2461_cast_fp16 = real_div(x = v2_125_cast_fp16, y = v1_125_cast_fp16)[name = tensor<string, []>("op_2461_cast_fp16")];
            tensor<fp16, [1, 1]> var_2462_cast_fp16 = sub(x = v1_125_cast_fp16, y = var_2461_cast_fp16)[name = tensor<string, []>("op_2462_cast_fp16")];
            tensor<fp16, []> var_2463_to_fp16 = const()[name = tensor<string, []>("op_2463_to_fp16"), val = tensor<fp16, []>(0x1p-24)];
            tensor<fp16, [1, 1]> var_2464_cast_fp16 = add(x = var_2462_cast_fp16, y = var_2463_to_fp16)[name = tensor<string, []>("op_2464_cast_fp16")];
            tensor<fp16, [1, 2560]> var_125_cast_fp16 = real_div(x = var_2460_cast_fp16, y = var_2464_cast_fp16)[name = tensor<string, []>("var_125_cast_fp16")];
            tensor<fp16, [1, 2560]> std_125_cast_fp16 = sqrt(x = var_125_cast_fp16)[name = tensor<string, []>("std_125_cast_fp16")];
            tensor<bool, []> var_2468_interleave_0 = const()[name = tensor<string, []>("op_2468_interleave_0"), val = tensor<bool, []>(false)];
            tensor<fp16, [1, 5120]> var_2468_cast_fp16 = concat(axis = var_72, interleave = var_2468_interleave_0, values = (mean_125_cast_fp16, std_125_cast_fp16))[name = tensor<string, []>("op_2468_cast_fp16")];
            tensor<int32, [3]> var_2470_begin_0 = const()[name = tensor<string, []>("op_2470_begin_0"), val = tensor<int32, [3]>([0, 63, 0])];
            tensor<int32, [3]> var_2470_end_0 = const()[name = tensor<string, []>("op_2470_end_0"), val = tensor<int32, [3]>([1, 64, 375])];
            tensor<bool, [3]> var_2470_end_mask_0 = const()[name = tensor<string, []>("op_2470_end_mask_0"), val = tensor<bool, [3]>([true, false, true])];
            tensor<bool, [3]> var_2470_squeeze_mask_0 = const()[name = tensor<string, []>("op_2470_squeeze_mask_0"), val = tensor<bool, [3]>([false, true, false])];
            tensor<fp16, [1, 375]> var_2470_cast_fp16 = slice_by_index(begin = var_2470_begin_0, end = var_2470_end_0, end_mask = var_2470_end_mask_0, squeeze_mask = var_2470_squeeze_mask_0, x = weights_1_cast_fp16)[name = tensor<string, []>("op_2470_cast_fp16")];
            tensor<int32, [1]> weights_axes_0 = const()[name = tensor<string, []>("weights_axes_0"), val = tensor<int32, [1]>([1])];
            tensor<fp16, [1, 1, 375]> weights_cast_fp16 = expand_dims(axes = weights_axes_0, x = var_2470_cast_fp16)[name = tensor<string, []>("weights_cast_fp16")];
            tensor<int32, [1]> var_2474_axes_0 = const()[name = tensor<string, []>("op_2474_axes_0"), val = tensor<int32, [1]>([2])];
            tensor<bool, []> var_2474_keep_dims_0 = const()[name = tensor<string, []>("op_2474_keep_dims_0"), val = tensor<bool, []>(false)];
            tensor<fp16, [1, 1]> var_2474_cast_fp16 = reduce_sum(axes = var_2474_axes_0, keep_dims = var_2474_keep_dims_0, x = weights_cast_fp16)[name = tensor<string, []>("op_2474_cast_fp16")];
            tensor<fp16, []> var_2475_to_fp16 = const()[name = tensor<string, []>("op_2475_to_fp16"), val = tensor<fp16, []>(0x1p-24)];
            tensor<fp16, [1, 1]> v1_cast_fp16 = add(x = var_2474_cast_fp16, y = var_2475_to_fp16)[name = tensor<string, []>("v1_cast_fp16")];
            tensor<fp16, [1, 2560, 375]> var_2477_cast_fp16 = mul(x = sequences_cast_fp16, y = weights_cast_fp16)[name = tensor<string, []>("op_2477_cast_fp16")];
            tensor<int32, [1]> var_2479_axes_0 = const()[name = tensor<string, []>("op_2479_axes_0"), val = tensor<int32, [1]>([2])];
            tensor<bool, []> var_2479_keep_dims_0 = const()[name = tensor<string, []>("op_2479_keep_dims_0"), val = tensor<bool, []>(false)];
            tensor<fp16, [1, 2560]> var_2479_cast_fp16 = reduce_sum(axes = var_2479_axes_0, keep_dims = var_2479_keep_dims_0, x = var_2477_cast_fp16)[name = tensor<string, []>("op_2479_cast_fp16")];
            tensor<fp16, [1, 2560]> mean_cast_fp16 = real_div(x = var_2479_cast_fp16, y = v1_cast_fp16)[name = tensor<string, []>("mean_cast_fp16")];
            tensor<int32, [1]> var_2481_axes_0 = const()[name = tensor<string, []>("op_2481_axes_0"), val = tensor<int32, [1]>([2])];
            tensor<fp16, [1, 2560, 1]> var_2481_cast_fp16 = expand_dims(axes = var_2481_axes_0, x = mean_cast_fp16)[name = tensor<string, []>("op_2481_cast_fp16")];
            tensor<fp16, [1, 2560, 375]> var_2482_cast_fp16 = sub(x = sequences_cast_fp16, y = var_2481_cast_fp16)[name = tensor<string, []>("op_2482_cast_fp16")];
            tensor<fp16, [1, 2560, 375]> dx2_cast_fp16 = mul(x = var_2482_cast_fp16, y = var_2482_cast_fp16)[name = tensor<string, []>("dx2_cast_fp16")];
            tensor<fp16, [1, 1, 375]> var_2484_cast_fp16 = mul(x = weights_cast_fp16, y = weights_cast_fp16)[name = tensor<string, []>("op_2484_cast_fp16")];
            tensor<int32, [1]> v2_axes_0 = const()[name = tensor<string, []>("v2_axes_0"), val = tensor<int32, [1]>([2])];
            tensor<bool, []> v2_keep_dims_0 = const()[name = tensor<string, []>("v2_keep_dims_0"), val = tensor<bool, []>(false)];
            tensor<fp16, [1, 1]> v2_cast_fp16 = reduce_sum(axes = v2_axes_0, keep_dims = v2_keep_dims_0, x = var_2484_cast_fp16)[name = tensor<string, []>("v2_cast_fp16")];
            tensor<fp16, [1, 2560, 375]> var_2487_cast_fp16 = mul(x = dx2_cast_fp16, y = weights_cast_fp16)[name = tensor<string, []>("op_2487_cast_fp16")];
            tensor<int32, [1]> var_2489_axes_0 = const()[name = tensor<string, []>("op_2489_axes_0"), val = tensor<int32, [1]>([2])];
            tensor<bool, []> var_2489_keep_dims_0 = const()[name = tensor<string, []>("op_2489_keep_dims_0"), val = tensor<bool, []>(false)];
            tensor<fp16, [1, 2560]> var_2489_cast_fp16 = reduce_sum(axes = var_2489_axes_0, keep_dims = var_2489_keep_dims_0, x = var_2487_cast_fp16)[name = tensor<string, []>("op_2489_cast_fp16")];
            tensor<fp16, [1, 1]> var_2490_cast_fp16 = real_div(x = v2_cast_fp16, y = v1_cast_fp16)[name = tensor<string, []>("op_2490_cast_fp16")];
            tensor<fp16, [1, 1]> var_2491_cast_fp16 = sub(x = v1_cast_fp16, y = var_2490_cast_fp16)[name = tensor<string, []>("op_2491_cast_fp16")];
            tensor<fp16, []> var_2492_to_fp16 = const()[name = tensor<string, []>("op_2492_to_fp16"), val = tensor<fp16, []>(0x1p-24)];
            tensor<fp16, [1, 1]> var_2493_cast_fp16 = add(x = var_2491_cast_fp16, y = var_2492_to_fp16)[name = tensor<string, []>("op_2493_cast_fp16")];
            tensor<fp16, [1, 2560]> var_cast_fp16 = real_div(x = var_2489_cast_fp16, y = var_2493_cast_fp16)[name = tensor<string, []>("var_cast_fp16")];
            tensor<fp16, [1, 2560]> std_cast_fp16 = sqrt(x = var_cast_fp16)[name = tensor<string, []>("std_cast_fp16")];
            tensor<bool, []> var_2497_interleave_0 = const()[name = tensor<string, []>("op_2497_interleave_0"), val = tensor<bool, []>(false)];
            tensor<fp16, [1, 5120]> var_2497_cast_fp16 = concat(axis = var_72, interleave = var_2497_interleave_0, values = (mean_cast_fp16, std_cast_fp16))[name = tensor<string, []>("op_2497_cast_fp16")];
            tensor<int32, []> input_axis_0 = const()[name = tensor<string, []>("input_axis_0"), val = tensor<int32, []>(1)];
            tensor<fp16, [1, 64, 5120]> input_cast_fp16 = stack(axis = input_axis_0, values = (var_670_cast_fp16, var_699_cast_fp16, var_728_cast_fp16, var_757_cast_fp16, var_786_cast_fp16, var_815_cast_fp16, var_844_cast_fp16, var_873_cast_fp16, var_902_cast_fp16, var_931_cast_fp16, var_960_cast_fp16, var_989_cast_fp16, var_1018_cast_fp16, var_1047_cast_fp16, var_1076_cast_fp16, var_1105_cast_fp16, var_1134_cast_fp16, var_1163_cast_fp16, var_1192_cast_fp16, var_1221_cast_fp16, var_1250_cast_fp16, var_1279_cast_fp16, var_1308_cast_fp16, var_1337_cast_fp16, var_1366_cast_fp16, var_1395_cast_fp16, var_1424_cast_fp16, var_1453_cast_fp16, var_1482_cast_fp16, var_1511_cast_fp16, var_1540_cast_fp16, var_1569_cast_fp16, var_1598_cast_fp16, var_1627_cast_fp16, var_1656_cast_fp16, var_1685_cast_fp16, var_1714_cast_fp16, var_1743_cast_fp16, var_1772_cast_fp16, var_1801_cast_fp16, var_1830_cast_fp16, var_1859_cast_fp16, var_1888_cast_fp16, var_1917_cast_fp16, var_1946_cast_fp16, var_1975_cast_fp16, var_2004_cast_fp16, var_2033_cast_fp16, var_2062_cast_fp16, var_2091_cast_fp16, var_2120_cast_fp16, var_2149_cast_fp16, var_2178_cast_fp16, var_2207_cast_fp16, var_2236_cast_fp16, var_2265_cast_fp16, var_2294_cast_fp16, var_2323_cast_fp16, var_2352_cast_fp16, var_2381_cast_fp16, var_2410_cast_fp16, var_2439_cast_fp16, var_2468_cast_fp16, var_2497_cast_fp16))[name = tensor<string, []>("input_cast_fp16")];
            tensor<fp16, [256, 5120]> model_resnet_seg_1_weight_to_fp16_palettized = constexpr_lut_to_dense()[indices = tensor<uint8, [1310720]>(BLOBFILE(path = tensor<string, []>("@model_path/weights/weight.bin"), offset = tensor<uint64, []>(5349952))), lut = tensor<fp16, [256]>(BLOBFILE(path = tensor<string, []>("@model_path/weights/weight.bin"), offset = tensor<uint64, []>(6660736))), name = tensor<string, []>("model_resnet_seg_1_weight_to_fp16_palettized"), shape = tensor<uint32, [2]>([256, 5120])];
            tensor<fp16, [256]> model_resnet_seg_1_bias_to_fp16 = const()[name = tensor<string, []>("model_resnet_seg_1_bias_to_fp16"), val = tensor<fp16, [256]>(BLOBFILE(path = tensor<string, []>("@model_path/weights/weight.bin"), offset = tensor<uint64, []>(6661312)))];
            tensor<fp16, [1, 64, 256]> speaker_embeddings = linear(bias = model_resnet_seg_1_bias_to_fp16, weight = model_resnet_seg_1_weight_to_fp16_palettized, x = input_cast_fp16)[name = tensor<string, []>("linear_0_cast_fp16")];
        } -> (speaker_embeddings);
}