program(1.0)
[buildInfo = dict<tensor<string, []>, tensor<string, []>>({{"coremlc-component-MIL", "3401.3.1"}, {"coremlc-version", "3401.4.1"}})]
{
    func main<ios17>(tensor<fp16, [480000]> waveform) {
            tensor<int32, []> var_3 = const()[name = tensor<string, []>("op_3"), val = tensor<int32, []>(0)];
            tensor<int32, []> sliding_windows_0_size_0 = const()[name = tensor<string, []>("sliding_windows_0_size_0"), val = tensor<int32, []>(160000)];
            tensor<int32, []> sliding_windows_0_stride_0 = const()[name = tensor<string, []>("sliding_windows_0_stride_0"), val = tensor<int32, []>(16000)];
            tensor<fp16, [21, 160000]> sliding_windows_0_cast_fp16 = sliding_windows(axis = var_3, size = sliding_windows_0_size_0, stride = sliding_windows_0_stride_0, x = waveform)[name = tensor<string, []>("sliding_windows_0_cast_fp16")];
            tensor<int32, [1]> input_1_axes_0 = const()[name = tensor<string, []>("input_1_axes_0"), val = tensor<int32, [1]>([1])];
            tensor<fp16, [21, 1, 160000]> sliding_window_waveform = expand_dims(axes = input_1_axes_0, x = sliding_windows_0_cast_fp16)[name = tensor<string, []>("input_1_cast_fp16")];
            tensor<int32, []> var_9 = const()[name = tensor<string, []>("op_9"), val = tensor<int32, []>(-1)];
            tensor<fp32, []> var_26 = const()[name = tensor<string, []>("op_26"), val = tensor<fp32, []>(0x1.47ae14p-7)];
            tensor<fp16, [1]> model_sincnet_wav_norm1d_weight_to_fp16 = const()[name = tensor<string, []>("model_sincnet_wav_norm1d_weight_to_fp16"), val = tensor<fp16, [1]>([0x1.44p-7])];
            tensor<fp16, [1]> model_sincnet_wav_norm1d_bias_to_fp16 = const()[name = tensor<string, []>("model_sincnet_wav_norm1d_bias_to_fp16"), val = tensor<fp16, [1]>([0x1.734p-5])];
            tensor<fp16, []> var_17_to_fp16 = const()[name = tensor<string, []>("op_17_to_fp16"), val = tensor<fp16, []>(0x1.5p-17)];
            tensor<fp16, [21, 1, 160000]> input_3_cast_fp16 = instance_norm(beta = model_sincnet_wav_norm1d_bias_to_fp16, epsilon = var_17_to_fp16, gamma = model_sincnet_wav_norm1d_weight_to_fp16, x = sliding_window_waveform)[name = tensor<string, []>("input_3_cast_fp16")];
            tensor<string, []> outputs_pad_type_0 = const()[name = tensor<string, []>("outputs_pad_type_0"), val = tensor<string, []>("valid")];
            tensor<int32, [1]> outputs_strides_0 = const()[name = tensor<string, []>("outputs_strides_0"), val = tensor<int32, [1]>([10])];
            tensor<int32, [2]> outputs_pad_0 = const()[name = tensor<string, []>("outputs_pad_0"), val = tensor<int32, [2]>([0, 0])];
            tensor<int32, [1]> outputs_dilations_0 = const()[name = tensor<string, []>("outputs_dilations_0"), val = tensor<int32, [1]>([1])];
            tensor<int32, []> outputs_groups_0 = const()[name = tensor<string, []>("outputs_groups_0"), val = tensor<int32, []>(1)];
            tensor<fp16, [80, 1, 251]> model_sincnet_conv1d_0_weight_to_fp16_palettized = constexpr_lut_to_dense()[indices = tensor<uint8, [20080]>(BLOBFILE(path = tensor<string, []>("@model_path/weights/weight.bin"), offset = tensor<uint64, []>(64))), lut = tensor<fp16, [256]>(BLOBFILE(path = tensor<string, []>("@model_path/weights/weight.bin"), offset = tensor<uint64, []>(20224))), name = tensor<string, []>("model_sincnet_conv1d_0_weight_to_fp16_palettized"), shape = tensor<uint32, [3]>([80, 1, 251])];
            tensor<fp16, [21, 80, 15975]> outputs_cast_fp16 = conv(dilations = outputs_dilations_0, groups = outputs_groups_0, pad = outputs_pad_0, pad_type = outputs_pad_type_0, strides = outputs_strides_0, weight = model_sincnet_conv1d_0_weight_to_fp16_palettized, x = input_3_cast_fp16)[name = tensor<string, []>("outputs_cast_fp16")];
            tensor<fp16, [21, 80, 15975]> input_5_cast_fp16 = abs(x = outputs_cast_fp16)[name = tensor<string, []>("input_5_cast_fp16")];
            tensor<int32, [1]> var_57 = const()[name = tensor<string, []>("op_57"), val = tensor<int32, [1]>([3])];
            tensor<int32, [1]> var_58 = const()[name = tensor<string, []>("op_58"), val = tensor<int32, [1]>([3])];
            tensor<string, []> input_7_pad_type_0 = const()[name = tensor<string, []>("input_7_pad_type_0"), val = tensor<string, []>("custom")];
            tensor<int32, [2]> input_7_pad_0 = const()[name = tensor<string, []>("input_7_pad_0"), val = tensor<int32, [2]>([0, 0])];
            tensor<bool, []> input_7_ceil_mode_0 = const()[name = tensor<string, []>("input_7_ceil_mode_0"), val = tensor<bool, []>(false)];
            tensor<fp16, [21, 80, 5325]> input_7_cast_fp16 = max_pool(ceil_mode = input_7_ceil_mode_0, kernel_sizes = var_57, pad = input_7_pad_0, pad_type = input_7_pad_type_0, strides = var_58, x = input_5_cast_fp16)[name = tensor<string, []>("input_7_cast_fp16")];
            tensor<fp16, [80]> model_sincnet_norm1d_0_weight_to_fp16 = const()[name = tensor<string, []>("model_sincnet_norm1d_0_weight_to_fp16"), val = tensor<fp16, [80]>(BLOBFILE(path = tensor<string, []>("@model_path/weights/weight.bin"), offset = tensor<uint64, []>(20800)))];
            tensor<fp16, [80]> model_sincnet_norm1d_0_bias_to_fp16 = const()[name = tensor<string, []>("model_sincnet_norm1d_0_bias_to_fp16"), val = tensor<fp16, [80]>(BLOBFILE(path = tensor<string, []>("@model_path/weights/weight.bin"), offset = tensor<uint64, []>(21056)))];
            tensor<fp16, [21, 80, 5325]> input_9_cast_fp16 = instance_norm(beta = model_sincnet_norm1d_0_bias_to_fp16, epsilon = var_17_to_fp16, gamma = model_sincnet_norm1d_0_weight_to_fp16, x = input_7_cast_fp16)[name = tensor<string, []>("input_9_cast_fp16")];
            tensor<fp16, [21, 80, 5325]> input_11_cast_fp16 = leaky_relu(alpha = var_26, x = input_9_cast_fp16)[name = tensor<string, []>("input_11_cast_fp16")];
            tensor<string, []> input_13_pad_type_0 = const()[name = tensor<string, []>("input_13_pad_type_0"), val = tensor<string, []>("valid")];
            tensor<int32, [1]> input_13_strides_0 = const()[name = tensor<string, []>("input_13_strides_0"), val = tensor<int32, [1]>([1])];
            tensor<int32, [2]> input_13_pad_0 = const()[name = tensor<string, []>("input_13_pad_0"), val = tensor<int32, [2]>([0, 0])];
            tensor<int32, [1]> input_13_dilations_0 = const()[name = tensor<string, []>("input_13_dilations_0"), val = tensor<int32, [1]>([1])];
            tensor<int32, []> input_13_groups_0 = const()[name = tensor<string, []>("input_13_groups_0"), val = tensor<int32, []>(1)];
            tensor<fp16, [60, 80, 5]> model_sincnet_conv1d_1_weight_to_fp16_palettized = constexpr_lut_to_dense()[indices = tensor<uint8, [24000]>(BLOBFILE(path = tensor<string, []>("@model_path/weights/weight.bin"), offset = tensor<uint64, []>(21312))), lut = tensor<fp16, [256]>(BLOBFILE(path = tensor<string, []>("@model_path/weights/weight.bin"), offset = tensor<uint64, []>(45376))), name = tensor<string, []>("model_sincnet_conv1d_1_weight_to_fp16_palettized"), shape = tensor<uint32, [3]>([60, 80, 5])];
            tensor<fp16, [60]> model_sincnet_conv1d_1_bias_to_fp16 = const()[name = tensor<string, []>("model_sincnet_conv1d_1_bias_to_fp16"), val = tensor<fp16, [60]>(BLOBFILE(path = tensor<string, []>("@model_path/weights/weight.bin"), offset = tensor<uint64, []>(45952)))];
            tensor<fp16, [21, 60, 5321]> input_13_cast_fp16 = conv(bias = model_sincnet_conv1d_1_bias_to_fp16, dilations = input_13_dilations_0, groups = input_13_groups_0, pad = input_13_pad_0, pad_type = input_13_pad_type_0, strides = input_13_strides_0, weight = model_sincnet_conv1d_1_weight_to_fp16_palettized, x = input_11_cast_fp16)[name = tensor<string, []>("input_13_cast_fp16")];
            tensor<int32, [1]> var_73 = const()[name = tensor<string, []>("op_73"), val = tensor<int32, [1]>([3])];
            tensor<int32, [1]> var_74 = const()[name = tensor<string, []>("op_74"), val = tensor<int32, [1]>([3])];
            tensor<string, []> input_15_pad_type_0 = const()[name = tensor<string, []>("input_15_pad_type_0"), val = tensor<string, []>("custom")];
            tensor<int32, [2]> input_15_pad_0 = const()[name = tensor<string, []>("input_15_pad_0"), val = tensor<int32, [2]>([0, 0])];
            tensor<bool, []> input_15_ceil_mode_0 = const()[name = tensor<string, []>("input_15_ceil_mode_0"), val = tensor<bool, []>(false)];
            tensor<fp16, [21, 60, 1773]> input_15_cast_fp16 = max_pool(ceil_mode = input_15_ceil_mode_0, kernel_sizes = var_73, pad = input_15_pad_0, pad_type = input_15_pad_type_0, strides = var_74, x = input_13_cast_fp16)[name = tensor<string, []>("input_15_cast_fp16")];
            tensor<fp16, [60]> model_sincnet_norm1d_1_weight_to_fp16 = const()[name = tensor<string, []>("model_sincnet_norm1d_1_weight_to_fp16"), val = tensor<fp16, [60]>(BLOBFILE(path = tensor<string, []>("@model_path/weights/weight.bin"), offset = tensor<uint64, []>(46144)))];
            tensor<fp16, [60]> model_sincnet_norm1d_1_bias_to_fp16 = const()[name = tensor<string, []>("model_sincnet_norm1d_1_bias_to_fp16"), val = tensor<fp16, [60]>(BLOBFILE(path = tensor<string, []>("@model_path/weights/weight.bin"), offset = tensor<uint64, []>(46336)))];
            tensor<fp16, [21, 60, 1773]> input_17_cast_fp16 = instance_norm(beta = model_sincnet_norm1d_1_bias_to_fp16, epsilon = var_17_to_fp16, gamma = model_sincnet_norm1d_1_weight_to_fp16, x = input_15_cast_fp16)[name = tensor<string, []>("input_17_cast_fp16")];
            tensor<fp16, [21, 60, 1773]> input_19_cast_fp16 = leaky_relu(alpha = var_26, x = input_17_cast_fp16)[name = tensor<string, []>("input_19_cast_fp16")];
            tensor<string, []> input_21_pad_type_0 = const()[name = tensor<string, []>("input_21_pad_type_0"), val = tensor<string, []>("valid")];
            tensor<int32, [1]> input_21_strides_0 = const()[name = tensor<string, []>("input_21_strides_0"), val = tensor<int32, [1]>([1])];
            tensor<int32, [2]> input_21_pad_0 = const()[name = tensor<string, []>("input_21_pad_0"), val = tensor<int32, [2]>([0, 0])];
            tensor<int32, [1]> input_21_dilations_0 = const()[name = tensor<string, []>("input_21_dilations_0"), val = tensor<int32, [1]>([1])];
            tensor<int32, []> input_21_groups_0 = const()[name = tensor<string, []>("input_21_groups_0"), val = tensor<int32, []>(1)];
            tensor<fp16, [60, 60, 5]> model_sincnet_conv1d_2_weight_to_fp16_palettized = constexpr_lut_to_dense()[indices = tensor<uint8, [18000]>(BLOBFILE(path = tensor<string, []>("@model_path/weights/weight.bin"), offset = tensor<uint64, []>(46528))), lut = tensor<fp16, [256]>(BLOBFILE(path = tensor<string, []>("@model_path/weights/weight.bin"), offset = tensor<uint64, []>(64640))), name = tensor<string, []>("model_sincnet_conv1d_2_weight_to_fp16_palettized"), shape = tensor<uint32, [3]>([60, 60, 5])];
            tensor<fp16, [60]> model_sincnet_conv1d_2_bias_to_fp16 = const()[name = tensor<string, []>("model_sincnet_conv1d_2_bias_to_fp16"), val = tensor<fp16, [60]>(BLOBFILE(path = tensor<string, []>("@model_path/weights/weight.bin"), offset = tensor<uint64, []>(65216)))];
            tensor<fp16, [21, 60, 1769]> input_21_cast_fp16 = conv(bias = model_sincnet_conv1d_2_bias_to_fp16, dilations = input_21_dilations_0, groups = input_21_groups_0, pad = input_21_pad_0, pad_type = input_21_pad_type_0, strides = input_21_strides_0, weight = model_sincnet_conv1d_2_weight_to_fp16_palettized, x = input_19_cast_fp16)[name = tensor<string, []>("input_21_cast_fp16")];
            tensor<int32, [1]> var_89 = const()[name = tensor<string, []>("op_89"), val = tensor<int32, [1]>([3])];
            tensor<int32, [1]> var_90 = const()[name = tensor<string, []>("op_90"), val = tensor<int32, [1]>([3])];
            tensor<string, []> input_23_pad_type_0 = const()[name = tensor<string, []>("input_23_pad_type_0"), val = tensor<string, []>("custom")];
            tensor<int32, [2]> input_23_pad_0 = const()[name = tensor<string, []>("input_23_pad_0"), val = tensor<int32, [2]>([0, 0])];
            tensor<bool, []> input_23_ceil_mode_0 = const()[name = tensor<string, []>("input_23_ceil_mode_0"), val = tensor<bool, []>(false)];
            tensor<fp16, [21, 60, 589]> input_23_cast_fp16 = max_pool(ceil_mode = input_23_ceil_mode_0, kernel_sizes = var_89, pad = input_23_pad_0, pad_type = input_23_pad_type_0, strides = var_90, x = input_21_cast_fp16)[name = tensor<string, []>("input_23_cast_fp16")];
            tensor<fp16, [60]> model_sincnet_norm1d_2_weight_to_fp16 = const()[name = tensor<string, []>("model_sincnet_norm1d_2_weight_to_fp16"), val = tensor<fp16, [60]>(BLOBFILE(path = tensor<string, []>("@model_path/weights/weight.bin"), offset = tensor<uint64, []>(65408)))];
            tensor<fp16, [60]> model_sincnet_norm1d_2_bias_to_fp16 = const()[name = tensor<string, []>("model_sincnet_norm1d_2_bias_to_fp16"), val = tensor<fp16, [60]>(BLOBFILE(path = tensor<string, []>("@model_path/weights/weight.bin"), offset = tensor<uint64, []>(65600)))];
            tensor<fp16, [21, 60, 589]> input_25_cast_fp16 = instance_norm(beta = model_sincnet_norm1d_2_bias_to_fp16, epsilon = var_17_to_fp16, gamma = model_sincnet_norm1d_2_weight_to_fp16, x = input_23_cast_fp16)[name = tensor<string, []>("input_25_cast_fp16")];
            tensor<fp16, [21, 60, 589]> x_cast_fp16 = leaky_relu(alpha = var_26, x = input_25_cast_fp16)[name = tensor<string, []>("x_cast_fp16")];
            tensor<int32, [3]> transpose_2_perm_0 = const()[name = tensor<string, []>("transpose_2_perm_0"), val = tensor<int32, [3]>([2, 0, 1])];
            tensor<string, []> input_29_lstm_layer_0_direction_0 = const()[name = tensor<string, []>("input_29_lstm_layer_0_direction_0"), val = tensor<string, []>("bidirectional")];
            tensor<bool, []> input_29_lstm_layer_0_output_sequence_0 = const()[name = tensor<string, []>("input_29_lstm_layer_0_output_sequence_0"), val = tensor<bool, []>(true)];
            tensor<string, []> input_29_lstm_layer_0_recurrent_activation_0 = const()[name = tensor<string, []>("input_29_lstm_layer_0_recurrent_activation_0"), val = tensor<string, []>("sigmoid")];
            tensor<string, []> input_29_lstm_layer_0_cell_activation_0 = const()[name = tensor<string, []>("input_29_lstm_layer_0_cell_activation_0"), val = tensor<string, []>("tanh")];
            tensor<string, []> input_29_lstm_layer_0_activation_0 = const()[name = tensor<string, []>("input_29_lstm_layer_0_activation_0"), val = tensor<string, []>("tanh")];
            tensor<fp16, [21, 256]> input_29_lstm_layer_0_lstm_h0_reshaped_to_fp16_palettized = constexpr_lut_to_dense()[indices = tensor<uint8, [5376]>(BLOBFILE(path = tensor<string, []>("@model_path/weights/weight.bin"), offset = tensor<uint64, []>(65792))), lut = tensor<fp16, [256]>(BLOBFILE(path = tensor<string, []>("@model_path/weights/weight.bin"), offset = tensor<uint64, []>(71232))), name = tensor<string, []>("input_29_lstm_layer_0_lstm_h0_reshaped_to_fp16_palettized"), shape = tensor<uint32, [2]>([21, 256])];
            tensor<fp16, [512, 60]> concat_4_to_fp16_palettized = constexpr_lut_to_dense()[indices = tensor<uint8, [30720]>(BLOBFILE(path = tensor<string, []>("@model_path/weights/weight.bin"), offset = tensor<uint64, []>(71808))), lut = tensor<fp16, [256]>(BLOBFILE(path = tensor<string, []>("@model_path/weights/weight.bin"), offset = tensor<uint64, []>(102592))), name = tensor<string, []>("concat_4_to_fp16_palettized"), shape = tensor<uint32, [2]>([512, 60])];
            tensor<fp16, [512, 128]> concat_5_to_fp16_palettized = constexpr_lut_to_dense()[indices = tensor<uint8, [65536]>(BLOBFILE(path = tensor<string, []>("@model_path/weights/weight.bin"), offset = tensor<uint64, []>(103168))), lut = tensor<fp16, [256]>(BLOBFILE(path = tensor<string, []>("@model_path/weights/weight.bin"), offset = tensor<uint64, []>(168768))), name = tensor<string, []>("concat_5_to_fp16_palettized"), shape = tensor<uint32, [2]>([512, 128])];
            tensor<fp16, [512]> add_0_to_fp16 = const()[name = tensor<string, []>("add_0_to_fp16"), val = tensor<fp16, [512]>(BLOBFILE(path = tensor<string, []>("@model_path/weights/weight.bin"), offset = tensor<uint64, []>(169344)))];
            tensor<fp16, [512, 60]> concat_6_to_fp16_palettized = constexpr_lut_to_dense()[indices = tensor<uint8, [30720]>(BLOBFILE(path = tensor<string, []>("@model_path/weights/weight.bin"), offset = tensor<uint64, []>(170432))), lut = tensor<fp16, [256]>(BLOBFILE(path = tensor<string, []>("@model_path/weights/weight.bin"), offset = tensor<uint64, []>(201216))), name = tensor<string, []>("concat_6_to_fp16_palettized"), shape = tensor<uint32, [2]>([512, 60])];
            tensor<fp16, [512, 128]> concat_7_to_fp16_palettized = constexpr_lut_to_dense()[indices = tensor<uint8, [65536]>(BLOBFILE(path = tensor<string, []>("@model_path/weights/weight.bin"), offset = tensor<uint64, []>(201792))), lut = tensor<fp16, [256]>(BLOBFILE(path = tensor<string, []>("@model_path/weights/weight.bin"), offset = tensor<uint64, []>(267392))), name = tensor<string, []>("concat_7_to_fp16_palettized"), shape = tensor<uint32, [2]>([512, 128])];
            tensor<fp16, [512]> add_1_to_fp16 = const()[name = tensor<string, []>("add_1_to_fp16"), val = tensor<fp16, [512]>(BLOBFILE(path = tensor<string, []>("@model_path/weights/weight.bin"), offset = tensor<uint64, []>(267968)))];
            tensor<fp16, [589, 21, 60]> transpose_2_cast_fp16 = transpose(perm = transpose_2_perm_0, x = x_cast_fp16)[name = tensor<string, []>("transpose_1")];
            tensor<fp16, [589, 21, 256]> input_29_lstm_layer_0_cast_fp16_0, tensor<fp16, [21, 256]> input_29_lstm_layer_0_cast_fp16_1, tensor<fp16, [21, 256]> input_29_lstm_layer_0_cast_fp16_2 = lstm(activation = input_29_lstm_layer_0_activation_0, bias = add_0_to_fp16, bias_back = add_1_to_fp16, cell_activation = input_29_lstm_layer_0_cell_activation_0, direction = input_29_lstm_layer_0_direction_0, initial_c = input_29_lstm_layer_0_lstm_h0_reshaped_to_fp16_palettized, initial_h = input_29_lstm_layer_0_lstm_h0_reshaped_to_fp16_palettized, output_sequence = input_29_lstm_layer_0_output_sequence_0, recurrent_activation = input_29_lstm_layer_0_recurrent_activation_0, weight_hh = concat_5_to_fp16_palettized, weight_hh_back = concat_7_to_fp16_palettized, weight_ih = concat_4_to_fp16_palettized, weight_ih_back = concat_6_to_fp16_palettized, x = transpose_2_cast_fp16)[name = tensor<string, []>("input_29_lstm_layer_0_cast_fp16")];
            tensor<string, []> input_29_lstm_layer_1_direction_0 = const()[name = tensor<string, []>("input_29_lstm_layer_1_direction_0"), val = tensor<string, []>("bidirectional")];
            tensor<bool, []> input_29_lstm_layer_1_output_sequence_0 = const()[name = tensor<string, []>("input_29_lstm_layer_1_output_sequence_0"), val = tensor<bool, []>(true)];
            tensor<string, []> input_29_lstm_layer_1_recurrent_activation_0 = const()[name = tensor<string, []>("input_29_lstm_layer_1_recurrent_activation_0"), val = tensor<string, []>("sigmoid")];
            tensor<string, []> input_29_lstm_layer_1_cell_activation_0 = const()[name = tensor<string, []>("input_29_lstm_layer_1_cell_activation_0"), val = tensor<string, []>("tanh")];
            tensor<string, []> input_29_lstm_layer_1_activation_0 = const()[name = tensor<string, []>("input_29_lstm_layer_1_activation_0"), val = tensor<string, []>("tanh")];
            tensor<fp16, [512, 256]> concat_14_to_fp16_palettized = constexpr_lut_to_dense()[indices = tensor<uint8, [131072]>(BLOBFILE(path = tensor<string, []>("@model_path/weights/weight.bin"), offset = tensor<uint64, []>(269056))), lut = tensor<fp16, [256]>(BLOBFILE(path = tensor<string, []>("@model_path/weights/weight.bin"), offset = tensor<uint64, []>(400192))), name = tensor<string, []>("concat_14_to_fp16_palettized"), shape = tensor<uint32, [2]>([512, 256])];
            tensor<fp16, [512, 128]> concat_15_to_fp16_palettized = constexpr_lut_to_dense()[indices = tensor<uint8, [65536]>(BLOBFILE(path = tensor<string, []>("@model_path/weights/weight.bin"), offset = tensor<uint64, []>(400768))), lut = tensor<fp16, [256]>(BLOBFILE(path = tensor<string, []>("@model_path/weights/weight.bin"), offset = tensor<uint64, []>(466368))), name = tensor<string, []>("concat_15_to_fp16_palettized"), shape = tensor<uint32, [2]>([512, 128])];
            tensor<fp16, [512]> add_2_to_fp16 = const()[name = tensor<string, []>("add_2_to_fp16"), val = tensor<fp16, [512]>(BLOBFILE(path = tensor<string, []>("@model_path/weights/weight.bin"), offset = tensor<uint64, []>(466944)))];
            tensor<fp16, [512, 256]> concat_16_to_fp16_palettized = constexpr_lut_to_dense()[indices = tensor<uint8, [131072]>(BLOBFILE(path = tensor<string, []>("@model_path/weights/weight.bin"), offset = tensor<uint64, []>(468032))), lut = tensor<fp16, [256]>(BLOBFILE(path = tensor<string, []>("@model_path/weights/weight.bin"), offset = tensor<uint64, []>(599168))), name = tensor<string, []>("concat_16_to_fp16_palettized"), shape = tensor<uint32, [2]>([512, 256])];
            tensor<fp16, [512, 128]> concat_17_to_fp16_palettized = constexpr_lut_to_dense()[indices = tensor<uint8, [65536]>(BLOBFILE(path = tensor<string, []>("@model_path/weights/weight.bin"), offset = tensor<uint64, []>(599744))), lut = tensor<fp16, [256]>(BLOBFILE(path = tensor<string, []>("@model_path/weights/weight.bin"), offset = tensor<uint64, []>(665344))), name = tensor<string, []>("concat_17_to_fp16_palettized"), shape = tensor<uint32, [2]>([512, 128])];
            tensor<fp16, [512]> add_3_to_fp16 = const()[name = tensor<string, []>("add_3_to_fp16"), val = tensor<fp16, [512]>(BLOBFILE(path = tensor<string, []>("@model_path/weights/weight.bin"), offset = tensor<uint64, []>(665920)))];
            tensor<fp16, [589, 21, 256]> input_29_lstm_layer_1_cast_fp16_0, tensor<fp16, [21, 256]> input_29_lstm_layer_1_cast_fp16_1, tensor<fp16, [21, 256]> input_29_lstm_layer_1_cast_fp16_2 = lstm(activation = input_29_lstm_layer_1_activation_0, bias = add_2_to_fp16, bias_back = add_3_to_fp16, cell_activation = input_29_lstm_layer_1_cell_activation_0, direction = input_29_lstm_layer_1_direction_0, initial_c = input_29_lstm_layer_0_lstm_h0_reshaped_to_fp16_palettized, initial_h = input_29_lstm_layer_0_lstm_h0_reshaped_to_fp16_palettized, output_sequence = input_29_lstm_layer_1_output_sequence_0, recurrent_activation = input_29_lstm_layer_1_recurrent_activation_0, weight_hh = concat_15_to_fp16_palettized, weight_hh_back = concat_17_to_fp16_palettized, weight_ih = concat_14_to_fp16_palettized, weight_ih_back = concat_16_to_fp16_palettized, x = input_29_lstm_layer_0_cast_fp16_0)[name = tensor<string, []>("input_29_lstm_layer_1_cast_fp16")];
            tensor<string, []> input_29_lstm_layer_2_direction_0 = const()[name = tensor<string, []>("input_29_lstm_layer_2_direction_0"), val = tensor<string, []>("bidirectional")];
            tensor<bool, []> input_29_lstm_layer_2_output_sequence_0 = const()[name = tensor<string, []>("input_29_lstm_layer_2_output_sequence_0"), val = tensor<bool, []>(true)];
            tensor<string, []> input_29_lstm_layer_2_recurrent_activation_0 = const()[name = tensor<string, []>("input_29_lstm_layer_2_recurrent_activation_0"), val = tensor<string, []>("sigmoid")];
            tensor<string, []> input_29_lstm_layer_2_cell_activation_0 = const()[name = tensor<string, []>("input_29_lstm_layer_2_cell_activation_0"), val = tensor<string, []>("tanh")];
            tensor<string, []> input_29_lstm_layer_2_activation_0 = const()[name = tensor<string, []>("input_29_lstm_layer_2_activation_0"), val = tensor<string, []>("tanh")];
            tensor<fp16, [512, 256]> concat_24_to_fp16_palettized = constexpr_lut_to_dense()[indices = tensor<uint8, [131072]>(BLOBFILE(path = tensor<string, []>("@model_path/weights/weight.bin"), offset = tensor<uint64, []>(667008))), lut = tensor<fp16, [256]>(BLOBFILE(path = tensor<string, []>("@model_path/weights/weight.bin"), offset = tensor<uint64, []>(798144))), name = tensor<string, []>("concat_24_to_fp16_palettized"), shape = tensor<uint32, [2]>([512, 256])];
            tensor<fp16, [512, 128]> concat_25_to_fp16_palettized = constexpr_lut_to_dense()[indices = tensor<uint8, [65536]>(BLOBFILE(path = tensor<string, []>("@model_path/weights/weight.bin"), offset = tensor<uint64, []>(798720))), lut = tensor<fp16, [256]>(BLOBFILE(path = tensor<string, []>("@model_path/weights/weight.bin"), offset = tensor<uint64, []>(864320))), name = tensor<string, []>("concat_25_to_fp16_palettized"), shape = tensor<uint32, [2]>([512, 128])];
            tensor<fp16, [512]> add_4_to_fp16 = const()[name = tensor<string, []>("add_4_to_fp16"), val = tensor<fp16, [512]>(BLOBFILE(path = tensor<string, []>("@model_path/weights/weight.bin"), offset = tensor<uint64, []>(864896)))];
            tensor<fp16, [512, 256]> concat_26_to_fp16_palettized = constexpr_lut_to_dense()[indices = tensor<uint8, [131072]>(BLOBFILE(path = tensor<string, []>("@model_path/weights/weight.bin"), offset = tensor<uint64, []>(865984))), lut = tensor<fp16, [256]>(BLOBFILE(path = tensor<string, []>("@model_path/weights/weight.bin"), offset = tensor<uint64, []>(997120))), name = tensor<string, []>("concat_26_to_fp16_palettized"), shape = tensor<uint32, [2]>([512, 256])];
            tensor<fp16, [512, 128]> concat_27_to_fp16_palettized = constexpr_lut_to_dense()[indices = tensor<uint8, [65536]>(BLOBFILE(path = tensor<string, []>("@model_path/weights/weight.bin"), offset = tensor<uint64, []>(997696))), lut = tensor<fp16, [256]>(BLOBFILE(path = tensor<string, []>("@model_path/weights/weight.bin"), offset = tensor<uint64, []>(1063296))), name = tensor<string, []>("concat_27_to_fp16_palettized"), shape = tensor<uint32, [2]>([512, 128])];
            tensor<fp16, [512]> add_5_to_fp16 = const()[name = tensor<string, []>("add_5_to_fp16"), val = tensor<fp16, [512]>(BLOBFILE(path = tensor<string, []>("@model_path/weights/weight.bin"), offset = tensor<uint64, []>(1063872)))];
            tensor<fp16, [589, 21, 256]> input_29_lstm_layer_2_cast_fp16_0, tensor<fp16, [21, 256]> input_29_lstm_layer_2_cast_fp16_1, tensor<fp16, [21, 256]> input_29_lstm_layer_2_cast_fp16_2 = lstm(activation = input_29_lstm_layer_2_activation_0, bias = add_4_to_fp16, bias_back = add_5_to_fp16, cell_activation = input_29_lstm_layer_2_cell_activation_0, direction = input_29_lstm_layer_2_direction_0, initial_c = input_29_lstm_layer_0_lstm_h0_reshaped_to_fp16_palettized, initial_h = input_29_lstm_layer_0_lstm_h0_reshaped_to_fp16_palettized, output_sequence = input_29_lstm_layer_2_output_sequence_0, recurrent_activation = input_29_lstm_layer_2_recurrent_activation_0, weight_hh = concat_25_to_fp16_palettized, weight_hh_back = concat_27_to_fp16_palettized, weight_ih = concat_24_to_fp16_palettized, weight_ih_back = concat_26_to_fp16_palettized, x = input_29_lstm_layer_1_cast_fp16_0)[name = tensor<string, []>("input_29_lstm_layer_2_cast_fp16")];
            tensor<string, []> input_29_batch_first_direction_0 = const()[name = tensor<string, []>("input_29_batch_first_direction_0"), val = tensor<string, []>("bidirectional")];
            tensor<bool, []> input_29_batch_first_output_sequence_0 = const()[name = tensor<string, []>("input_29_batch_first_output_sequence_0"), val = tensor<bool, []>(true)];
            tensor<string, []> input_29_batch_first_recurrent_activation_0 = const()[name = tensor<string, []>("input_29_batch_first_recurrent_activation_0"), val = tensor<string, []>("sigmoid")];
            tensor<string, []> input_29_batch_first_cell_activation_0 = const()[name = tensor<string, []>("input_29_batch_first_cell_activation_0"), val = tensor<string, []>("tanh")];
            tensor<string, []> input_29_batch_first_activation_0 = const()[name = tensor<string, []>("input_29_batch_first_activation_0"), val = tensor<string, []>("tanh")];
            tensor<fp16, [512, 256]> concat_34_to_fp16_palettized = constexpr_lut_to_dense()[indices = tensor<uint8, [131072]>(BLOBFILE(path = tensor<string, []>("@model_path/weights/weight.bin"), offset = tensor<uint64, []>(1064960))), lut = tensor<fp16, [256]>(BLOBFILE(path = tensor<string, []>("@model_path/weights/weight.bin"), offset = tensor<uint64, []>(1196096))), name = tensor<string, []>("concat_34_to_fp16_palettized"), shape = tensor<uint32, [2]>([512, 256])];
            tensor<fp16, [512, 128]> concat_35_to_fp16_palettized = constexpr_lut_to_dense()[indices = tensor<uint8, [65536]>(BLOBFILE(path = tensor<string, []>("@model_path/weights/weight.bin"), offset = tensor<uint64, []>(1196672))), lut = tensor<fp16, [256]>(BLOBFILE(path = tensor<string, []>("@model_path/weights/weight.bin"), offset = tensor<uint64, []>(1262272))), name = tensor<string, []>("concat_35_to_fp16_palettized"), shape = tensor<uint32, [2]>([512, 128])];
            tensor<fp16, [512]> add_6_to_fp16 = const()[name = tensor<string, []>("add_6_to_fp16"), val = tensor<fp16, [512]>(BLOBFILE(path = tensor<string, []>("@model_path/weights/weight.bin"), offset = tensor<uint64, []>(1262848)))];
            tensor<fp16, [512, 256]> concat_36_to_fp16_palettized = constexpr_lut_to_dense()[indices = tensor<uint8, [131072]>(BLOBFILE(path = tensor<string, []>("@model_path/weights/weight.bin"), offset = tensor<uint64, []>(1263936))), lut = tensor<fp16, [256]>(BLOBFILE(path = tensor<string, []>("@model_path/weights/weight.bin"), offset = tensor<uint64, []>(1395072))), name = tensor<string, []>("concat_36_to_fp16_palettized"), shape = tensor<uint32, [2]>([512, 256])];
            tensor<fp16, [512, 128]> concat_37_to_fp16_palettized = constexpr_lut_to_dense()[indices = tensor<uint8, [65536]>(BLOBFILE(path = tensor<string, []>("@model_path/weights/weight.bin"), offset = tensor<uint64, []>(1395648))), lut = tensor<fp16, [256]>(BLOBFILE(path = tensor<string, []>("@model_path/weights/weight.bin"), offset = tensor<uint64, []>(1461248))), name = tensor<string, []>("concat_37_to_fp16_palettized"), shape = tensor<uint32, [2]>([512, 128])];
            tensor<fp16, [512]> add_7_to_fp16 = const()[name = tensor<string, []>("add_7_to_fp16"), val = tensor<fp16, [512]>(BLOBFILE(path = tensor<string, []>("@model_path/weights/weight.bin"), offset = tensor<uint64, []>(1461824)))];
            tensor<fp16, [589, 21, 256]> input_29_batch_first_cast_fp16_0, tensor<fp16, [21, 256]> input_29_batch_first_cast_fp16_1, tensor<fp16, [21, 256]> input_29_batch_first_cast_fp16_2 = lstm(activation = input_29_batch_first_activation_0, bias = add_6_to_fp16, bias_back = add_7_to_fp16, cell_activation = input_29_batch_first_cell_activation_0, direction = input_29_batch_first_direction_0, initial_c = input_29_lstm_layer_0_lstm_h0_reshaped_to_fp16_palettized, initial_h = input_29_lstm_layer_0_lstm_h0_reshaped_to_fp16_palettized, output_sequence = input_29_batch_first_output_sequence_0, recurrent_activation = input_29_batch_first_recurrent_activation_0, weight_hh = concat_35_to_fp16_palettized, weight_hh_back = concat_37_to_fp16_palettized, weight_ih = concat_34_to_fp16_palettized, weight_ih_back = concat_36_to_fp16_palettized, x = input_29_lstm_layer_2_cast_fp16_0)[name = tensor<string, []>("input_29_batch_first_cast_fp16")];
            tensor<int32, [3]> input_29_perm_0 = const()[name = tensor<string, []>("input_29_perm_0"), val = tensor<int32, [3]>([1, 0, 2])];
            tensor<fp16, [128, 256]> model_linear_0_weight_to_fp16_palettized = constexpr_lut_to_dense()[indices = tensor<uint8, [32768]>(BLOBFILE(path = tensor<string, []>("@model_path/weights/weight.bin"), offset = tensor<uint64, []>(1462912))), lut = tensor<fp16, [256]>(BLOBFILE(path = tensor<string, []>("@model_path/weights/weight.bin"), offset = tensor<uint64, []>(1495744))), name = tensor<string, []>("model_linear_0_weight_to_fp16_palettized"), shape = tensor<uint32, [2]>([128, 256])];
            tensor<fp16, [128]> model_linear_0_bias_to_fp16 = const()[name = tensor<string, []>("model_linear_0_bias_to_fp16"), val = tensor<fp16, [128]>(BLOBFILE(path = tensor<string, []>("@model_path/weights/weight.bin"), offset = tensor<uint64, []>(1496320)))];
            tensor<fp16, [21, 589, 256]> input_29_cast_fp16 = transpose(perm = input_29_perm_0, x = input_29_batch_first_cast_fp16_0)[name = tensor<string, []>("transpose_0")];
            tensor<fp16, [21, 589, 128]> linear_0_cast_fp16 = linear(bias = model_linear_0_bias_to_fp16, weight = model_linear_0_weight_to_fp16_palettized, x = input_29_cast_fp16)[name = tensor<string, []>("linear_0_cast_fp16")];
            tensor<fp16, [21, 589, 128]> input_33_cast_fp16 = leaky_relu(alpha = var_26, x = linear_0_cast_fp16)[name = tensor<string, []>("input_33_cast_fp16")];
            tensor<fp16, [128, 128]> model_linear_1_weight_to_fp16_palettized = constexpr_lut_to_dense()[indices = tensor<uint8, [16384]>(BLOBFILE(path = tensor<string, []>("@model_path/weights/weight.bin"), offset = tensor<uint64, []>(1496640))), lut = tensor<fp16, [256]>(BLOBFILE(path = tensor<string, []>("@model_path/weights/weight.bin"), offset = tensor<uint64, []>(1513088))), name = tensor<string, []>("model_linear_1_weight_to_fp16_palettized"), shape = tensor<uint32, [2]>([128, 128])];
            tensor<fp16, [128]> model_linear_1_bias_to_fp16 = const()[name = tensor<string, []>("model_linear_1_bias_to_fp16"), val = tensor<fp16, [128]>(BLOBFILE(path = tensor<string, []>("@model_path/weights/weight.bin"), offset = tensor<uint64, []>(1513664)))];
            tensor<fp16, [21, 589, 128]> linear_1_cast_fp16 = linear(bias = model_linear_1_bias_to_fp16, weight = model_linear_1_weight_to_fp16_palettized, x = input_33_cast_fp16)[name = tensor<string, []>("linear_1_cast_fp16")];
            tensor<fp16, [21, 589, 128]> input_37_cast_fp16 = leaky_relu(alpha = var_26, x = linear_1_cast_fp16)[name = tensor<string, []>("input_37_cast_fp16")];
            tensor<fp16, [7, 128]> model_classifier_weight_to_fp16 = const()[name = tensor<string, []>("model_classifier_weight_to_fp16"), val = tensor<fp16, [7, 128]>(BLOBFILE(path = tensor<string, []>("@model_path/weights/weight.bin"), offset = tensor<uint64, []>(1513984)))];
            tensor<fp16, [7]> model_classifier_bias_to_fp16 = const()[name = tensor<string, []>("model_classifier_bias_to_fp16"), val = tensor<fp16, [7]>([-0x1.01p+0, 0x1.67cp-2, 0x1.3d8p-1, 0x1.c8cp-2, -0x1.444p-2, -0x1.59p-1, -0x1.8fcp-2])];
            tensor<fp16, [21, 589, 7]> linear_2_cast_fp16 = linear(bias = model_classifier_bias_to_fp16, weight = model_classifier_weight_to_fp16, x = input_37_cast_fp16)[name = tensor<string, []>("linear_2_cast_fp16")];
            tensor<fp16, [21, 589, 7]> powerset_softmax_cast_fp16 = softmax(axis = var_9, x = linear_2_cast_fp16)[name = tensor<string, []>("powerset_softmax_cast_fp16")];
            tensor<fp32, []> powerset_epsilon_0 = const()[name = tensor<string, []>("powerset_epsilon_0"), val = tensor<fp32, []>(0x1p-149)];
            tensor<fp16, [21, 589, 7]> powerset_cast_fp16 = log(epsilon = powerset_epsilon_0, x = powerset_softmax_cast_fp16)[name = tensor<string, []>("powerset_cast_fp16")];
            tensor<fp16, [21, 589, 7]> powerset_probs_1_cast_fp16 = exp(x = powerset_cast_fp16)[name = tensor<string, []>("powerset_probs_1_cast_fp16")];
            tensor<fp16, [3, 7]> transpose_0_to_fp16 = const()[name = tensor<string, []>("transpose_0_to_fp16"), val = tensor<fp16, [3, 7]>(BLOBFILE(path = tensor<string, []>("@model_path/weights/weight.bin"), offset = tensor<uint64, []>(1515840)))];
            tensor<fp16, [3]> speaker_probs_bias_0_to_fp16 = const()[name = tensor<string, []>("speaker_probs_bias_0_to_fp16"), val = tensor<fp16, [3]>([0x0p+0, 0x0p+0, 0x0p+0])];
            tensor<fp16, [21, 589, 3]> speaker_probs = linear(bias = speaker_probs_bias_0_to_fp16, weight = transpose_0_to_fp16, x = powerset_probs_1_cast_fp16)[name = tensor<string, []>("speaker_probs_cast_fp16")];
            tensor<int32, []> var_157 = const()[name = tensor<string, []>("op_157"), val = tensor<int32, []>(-1)];
            tensor<bool, []> var_158 = const()[name = tensor<string, []>("op_158"), val = tensor<bool, []>(false)];
            tensor<string, []> var_159_output_dtype_0 = const()[name = tensor<string, []>("op_159_output_dtype_0"), val = tensor<string, []>("int32")];
            tensor<int32, [21, 589]> var_159_cast_fp16 = reduce_argmax(axis = var_157, keep_dims = var_158, output_dtype = var_159_output_dtype_0, x = powerset_cast_fp16)[name = tensor<string, []>("op_159_cast_fp16")];
            tensor<int32, []> var_161_one_hot_vector_size_0 = const()[name = tensor<string, []>("op_161_one_hot_vector_size_0"), val = tensor<int32, []>(7)];
            tensor<int32, []> var_161_axis_0 = const()[name = tensor<string, []>("op_161_axis_0"), val = tensor<int32, []>(-1)];
            tensor<int32, []> var_161_on_value_0 = const()[name = tensor<string, []>("op_161_on_value_0"), val = tensor<int32, []>(1)];
            tensor<int32, []> var_161_off_value_0 = const()[name = tensor<string, []>("op_161_off_value_0"), val = tensor<int32, []>(0)];
            tensor<int32, [21, 589, 7]> var_161 = one_hot(axis = var_161_axis_0, indices = var_159_cast_fp16, off_value = var_161_off_value_0, on_value = var_161_on_value_0, one_hot_vector_size = var_161_one_hot_vector_size_0)[name = tensor<string, []>("op_161")];
            tensor<string, []> cast_1_to_fp16_dtype_0 = const()[name = tensor<string, []>("cast_1_to_fp16_dtype_0"), val = tensor<string, []>("fp16")];
            tensor<fp16, [3, 7]> transpose_1_to_fp16 = const()[name = tensor<string, []>("transpose_1_to_fp16"), val = tensor<fp16, [3, 7]>(BLOBFILE(path = tensor<string, []>("@model_path/weights/weight.bin"), offset = tensor<uint64, []>(1515968)))];
            tensor<fp16, [3]> speaker_ids_bias_0_to_fp16 = const()[name = tensor<string, []>("speaker_ids_bias_0_to_fp16"), val = tensor<fp16, [3]>([0x0p+0, 0x0p+0, 0x0p+0])];
            tensor<fp16, [21, 589, 7]> var_161_to_fp16 = cast(dtype = cast_1_to_fp16_dtype_0, x = var_161)[name = tensor<string, []>("cast_1")];
            tensor<fp16, [21, 589, 3]> speaker_ids = linear(bias = speaker_ids_bias_0_to_fp16, weight = transpose_1_to_fp16, x = var_161_to_fp16)[name = tensor<string, []>("speaker_ids_cast_fp16")];
            tensor<int32, [1]> reduce_max_0_axes_0 = const()[name = tensor<string, []>("reduce_max_0_axes_0"), val = tensor<int32, [1]>([-1])];
            tensor<bool, []> reduce_max_0_keep_dims_0 = const()[name = tensor<string, []>("reduce_max_0_keep_dims_0"), val = tensor<bool, []>(false)];
            tensor<fp16, [21, 589]> reduce_max_0_cast_fp16 = reduce_max(axes = reduce_max_0_axes_0, keep_dims = reduce_max_0_keep_dims_0, x = speaker_probs)[name = tensor<string, []>("reduce_max_0_cast_fp16")];
            tensor<int32, [2]> var_202_begin_0 = const()[name = tensor<string, []>("op_202_begin_0"), val = tensor<int32, [2]>([0, 0])];
            tensor<int32, [2]> var_202_end_0 = const()[name = tensor<string, []>("op_202_end_0"), val = tensor<int32, [2]>([1, 589])];
            tensor<bool, [2]> var_202_end_mask_0 = const()[name = tensor<string, []>("op_202_end_mask_0"), val = tensor<bool, [2]>([false, true])];
            tensor<bool, [2]> var_202_squeeze_mask_0 = const()[name = tensor<string, []>("op_202_squeeze_mask_0"), val = tensor<bool, [2]>([true, false])];
            tensor<fp16, [589]> var_202_cast_fp16 = slice_by_index(begin = var_202_begin_0, end = var_202_end_0, end_mask = var_202_end_mask_0, squeeze_mask = var_202_squeeze_mask_0, x = reduce_max_0_cast_fp16)[name = tensor<string, []>("op_202_cast_fp16")];
            tensor<int32, [589]> slice_by_index_0 = const()[name = tensor<string, []>("slice_by_index_0"), val = tensor<int32, [589]>([0, 1, 2, 3, 4, 5, 6, 7, 8, 9, 10, 11, 12, 13, 14, 15, 16, 17, 18, 19, 20, 21, 22, 23, 24, 25, 26, 27, 28, 29, 30, 31, 32, 33, 34, 35, 36, 37, 38, 39, 40, 41, 42, 43, 44, 45, 46, 47, 48, 49, 50, 51, 52, 53, 54, 55, 56, 57, 58, 59, 60, 61, 62, 63, 64, 65, 66, 67, 68, 69, 70, 71, 72, 73, 74, 75, 76, 77, 78, 79, 80, 81, 82, 83, 84, 85, 86, 87, 88, 89, 90, 91, 92, 93, 94, 95, 96, 97, 98, 99, 100, 101, 102, 103, 104, 105, 106, 107, 108, 109, 110, 111, 112, 113, 114, 115, 116, 117, 118, 119, 120, 121, 122, 123, 124, 125, 126, 127, 128, 129, 130, 131, 132, 133, 134, 135, 136, 137, 138, 139, 140, 141, 142, 143, 144, 145, 146, 147, 148, 149, 150, 151, 152, 153, 154, 155, 156, 157, 158, 159, 160, 161, 162, 163, 164, 165, 166, 167, 168, 169, 170, 171, 172, 173, 174, 175, 176, 177, 178, 179, 180, 181, 182, 183, 184, 185, 186, 187, 188, 189, 190, 191, 192, 193, 194, 195, 196, 197, 198, 199, 200, 201, 202, 203, 204, 205, 206, 207, 208, 209, 210, 211, 212, 213, 214, 215, 216, 217, 218, 219, 220, 221, 222, 223, 224, 225, 226, 227, 228, 229, 230, 231, 232, 233, 234, 235, 236, 237, 238, 239, 240, 241, 242, 243, 244, 245, 246, 247, 248, 249, 250, 251, 252, 253, 254, 255, 256, 257, 258, 259, 260, 261, 262, 263, 264, 265, 266, 267, 268, 269, 270, 271, 272, 273, 274, 275, 276, 277, 278, 279, 280, 281, 282, 283, 284, 285, 286, 287, 288, 289, 290, 291, 292, 293, 294, 295, 296, 297, 298, 299, 300, 301, 302, 303, 304, 305, 306, 307, 308, 309, 310, 311, 312, 313, 314, 315, 316, 317, 318, 319, 320, 321, 322, 323, 324, 325, 326, 327, 328, 329, 330, 331, 332, 333, 334, 335, 336, 337, 338, 339, 340, 341, 342, 343, 344, 345, 346, 347, 348, 349, 350, 351, 352, 353, 354, 355, 356, 357, 358, 359, 360, 361, 362, 363, 364, 365, 366, 367, 368, 369, 370, 371, 372, 373, 374, 375, 376, 377, 378, 379, 380, 381, 382, 383, 384, 385, 386, 387, 388, 389, 390, 391, 392, 393, 394, 395, 396, 397, 398, 399, 400, 401, 402, 403, 404, 405, 406, 407, 408, 409, 410, 411, 412, 413, 414, 415, 416, 417, 418, 419, 420, 421, 422, 423, 424, 425, 426, 427, 428, 429, 430, 431, 432, 433, 434, 435, 436, 437, 438, 439, 440, 441, 442, 443, 444, 445, 446, 447, 448, 449, 450, 451, 452, 453, 454, 455, 456, 457, 458, 459, 460, 461, 462, 463, 464, 465, 466, 467, 468, 469, 470, 471, 472, 473, 474, 475, 476, 477, 478, 479, 480, 481, 482, 483, 484, 485, 486, 487, 488, 489, 490, 491, 492, 493, 494, 495, 496, 497, 498, 499, 500, 501, 502, 503, 504, 505, 506, 507, 508, 509, 510, 511, 512, 513, 514, 515, 516, 517, 518, 519, 520, 521, 522, 523, 524, 525, 526, 527, 528, 529, 530, 531, 532, 533, 534, 535, 536, 537, 538, 539, 540, 541, 542, 543, 544, 545, 546, 547, 548, 549, 550, 551, 552, 553, 554, 555, 556, 557, 558, 559, 560, 561, 562, 563, 564, 565, 566, 567, 568, 569, 570, 571, 572, 573, 574, 575, 576, 577, 578, 579, 580, 581, 582, 583, 584, 585, 586, 587, 588])];
            tensor<string, []> scatter_0_mode_0 = const()[name = tensor<string, []>("scatter_0_mode_0"), val = tensor<string, []>("update")];
            tensor<int32, []> scatter_0_axis_0 = const()[name = tensor<string, []>("scatter_0_axis_0"), val = tensor<int32, []>(0)];
            tensor<bool, []> scatter_0_validate_indices_0 = const()[name = tensor<string, []>("scatter_0_validate_indices_0"), val = tensor<bool, []>(false)];
            tensor<fp16, [1767]> _aggregated_voice_activity_to_fp16 = const()[name = tensor<string, []>("_aggregated_voice_activity_to_fp16"), val = tensor<fp16, [1767]>(BLOBFILE(path = tensor<string, []>("@model_path/weights/weight.bin"), offset = tensor<uint64, []>(1516096)))];
            tensor<fp16, [1767]> scatter_0_cast_fp16 = scatter(axis = scatter_0_axis_0, data = _aggregated_voice_activity_to_fp16, indices = slice_by_index_0, mode = scatter_0_mode_0, updates = var_202_cast_fp16, validate_indices = scatter_0_validate_indices_0)[name = tensor<string, []>("scatter_0_cast_fp16")];
            tensor<string, []> scatter_1_mode_0 = const()[name = tensor<string, []>("scatter_1_mode_0"), val = tensor<string, []>("update")];
            tensor<int32, []> scatter_1_axis_0 = const()[name = tensor<string, []>("scatter_1_axis_0"), val = tensor<int32, []>(0)];
            tensor<bool, []> scatter_1_validate_indices_0 = const()[name = tensor<string, []>("scatter_1_validate_indices_0"), val = tensor<bool, []>(false)];
            tensor<fp16, [589]> var_217_to_fp16 = const()[name = tensor<string, []>("op_217_to_fp16"), val = tensor<fp16, [589]>(BLOBFILE(path = tensor<string, []>("@model_path/weights/weight.bin"), offset = tensor<uint64, []>(1519744)))];
            tensor<fp16, [1767]> scatter_1_cast_fp16 = scatter(axis = scatter_1_axis_0, data = _aggregated_voice_activity_to_fp16, indices = slice_by_index_0, mode = scatter_1_mode_0, updates = var_217_to_fp16, validate_indices = scatter_1_validate_indices_0)[name = tensor<string, []>("scatter_1_cast_fp16")];
            tensor<int32, [1]> var_234_begin_0 = const()[name = tensor<string, []>("op_234_begin_0"), val = tensor<int32, [1]>([58])];
            tensor<int32, [1]> var_234_end_0 = const()[name = tensor<string, []>("op_234_end_0"), val = tensor<int32, [1]>([647])];
            tensor<bool, [1]> var_234_end_mask_0 = const()[name = tensor<string, []>("op_234_end_mask_0"), val = tensor<bool, [1]>([false])];
            tensor<fp16, [589]> var_234_cast_fp16 = slice_by_index(begin = var_234_begin_0, end = var_234_end_0, end_mask = var_234_end_mask_0, x = scatter_0_cast_fp16)[name = tensor<string, []>("op_234_cast_fp16")];
            tensor<int32, [2]> var_237_begin_0 = const()[name = tensor<string, []>("op_237_begin_0"), val = tensor<int32, [2]>([1, 0])];
            tensor<int32, [2]> var_237_end_0 = const()[name = tensor<string, []>("op_237_end_0"), val = tensor<int32, [2]>([2, 589])];
            tensor<bool, [2]> var_237_end_mask_0 = const()[name = tensor<string, []>("op_237_end_mask_0"), val = tensor<bool, [2]>([false, true])];
            tensor<bool, [2]> var_237_squeeze_mask_0 = const()[name = tensor<string, []>("op_237_squeeze_mask_0"), val = tensor<bool, [2]>([true, false])];
            tensor<fp16, [589]> var_237_cast_fp16 = slice_by_index(begin = var_237_begin_0, end = var_237_end_0, end_mask = var_237_end_mask_0, squeeze_mask = var_237_squeeze_mask_0, x = reduce_max_0_cast_fp16)[name = tensor<string, []>("op_237_cast_fp16")];
            tensor<fp16, [589]> var_239_cast_fp16 = add(x = var_234_cast_fp16, y = var_237_cast_fp16)[name = tensor<string, []>("op_239_cast_fp16")];
            tensor<int32, [589]> slice_by_index_2 = const()[name = tensor<string, []>("slice_by_index_2"), val = tensor<int32, [589]>([58, 59, 60, 61, 62, 63, 64, 65, 66, 67, 68, 69, 70, 71, 72, 73, 74, 75, 76, 77, 78, 79, 80, 81, 82, 83, 84, 85, 86, 87, 88, 89, 90, 91, 92, 93, 94, 95, 96, 97, 98, 99, 100, 101, 102, 103, 104, 105, 106, 107, 108, 109, 110, 111, 112, 113, 114, 115, 116, 117, 118, 119, 120, 121, 122, 123, 124, 125, 126, 127, 128, 129, 130, 131, 132, 133, 134, 135, 136, 137, 138, 139, 140, 141, 142, 143, 144, 145, 146, 147, 148, 149, 150, 151, 152, 153, 154, 155, 156, 157, 158, 159, 160, 161, 162, 163, 164, 165, 166, 167, 168, 169, 170, 171, 172, 173, 174, 175, 176, 177, 178, 179, 180, 181, 182, 183, 184, 185, 186, 187, 188, 189, 190, 191, 192, 193, 194, 195, 196, 197, 198, 199, 200, 201, 202, 203, 204, 205, 206, 207, 208, 209, 210, 211, 212, 213, 214, 215, 216, 217, 218, 219, 220, 221, 222, 223, 224, 225, 226, 227, 228, 229, 230, 231, 232, 233, 234, 235, 236, 237, 238, 239, 240, 241, 242, 243, 244, 245, 246, 247, 248, 249, 250, 251, 252, 253, 254, 255, 256, 257, 258, 259, 260, 261, 262, 263, 264, 265, 266, 267, 268, 269, 270, 271, 272, 273, 274, 275, 276, 277, 278, 279, 280, 281, 282, 283, 284, 285, 286, 287, 288, 289, 290, 291, 292, 293, 294, 295, 296, 297, 298, 299, 300, 301, 302, 303, 304, 305, 306, 307, 308, 309, 310, 311, 312, 313, 314, 315, 316, 317, 318, 319, 320, 321, 322, 323, 324, 325, 326, 327, 328, 329, 330, 331, 332, 333, 334, 335, 336, 337, 338, 339, 340, 341, 342, 343, 344, 345, 346, 347, 348, 349, 350, 351, 352, 353, 354, 355, 356, 357, 358, 359, 360, 361, 362, 363, 364, 365, 366, 367, 368, 369, 370, 371, 372, 373, 374, 375, 376, 377, 378, 379, 380, 381, 382, 383, 384, 385, 386, 387, 388, 389, 390, 391, 392, 393, 394, 395, 396, 397, 398, 399, 400, 401, 402, 403, 404, 405, 406, 407, 408, 409, 410, 411, 412, 413, 414, 415, 416, 417, 418, 419, 420, 421, 422, 423, 424, 425, 426, 427, 428, 429, 430, 431, 432, 433, 434, 435, 436, 437, 438, 439, 440, 441, 442, 443, 444, 445, 446, 447, 448, 449, 450, 451, 452, 453, 454, 455, 456, 457, 458, 459, 460, 461, 462, 463, 464, 465, 466, 467, 468, 469, 470, 471, 472, 473, 474, 475, 476, 477, 478, 479, 480, 481, 482, 483, 484, 485, 486, 487, 488, 489, 490, 491, 492, 493, 494, 495, 496, 497, 498, 499, 500, 501, 502, 503, 504, 505, 506, 507, 508, 509, 510, 511, 512, 513, 514, 515, 516, 517, 518, 519, 520, 521, 522, 523, 524, 525, 526, 527, 528, 529, 530, 531, 532, 533, 534, 535, 536, 537, 538, 539, 540, 541, 542, 543, 544, 545, 546, 547, 548, 549, 550, 551, 552, 553, 554, 555, 556, 557, 558, 559, 560, 561, 562, 563, 564, 565, 566, 567, 568, 569, 570, 571, 572, 573, 574, 575, 576, 577, 578, 579, 580, 581, 582, 583, 584, 585, 586, 587, 588, 589, 590, 591, 592, 593, 594, 595, 596, 597, 598, 599, 600, 601, 602, 603, 604, 605, 606, 607, 608, 609, 610, 611, 612, 613, 614, 615, 616, 617, 618, 619, 620, 621, 622, 623, 624, 625, 626, 627, 628, 629, 630, 631, 632, 633, 634, 635, 636, 637, 638, 639, 640, 641, 642, 643, 644, 645, 646])];
            tensor<string, []> scatter_2_mode_0 = const()[name = tensor<string, []>("scatter_2_mode_0"), val = tensor<string, []>("update")];
            tensor<int32, []> scatter_2_axis_0 = const()[name = tensor<string, []>("scatter_2_axis_0"), val = tensor<int32, []>(0)];
            tensor<bool, []> scatter_2_validate_indices_0 = const()[name = tensor<string, []>("scatter_2_validate_indices_0"), val = tensor<bool, []>(false)];
            tensor<fp16, [1767]> scatter_2_cast_fp16 = scatter(axis = scatter_2_axis_0, data = scatter_0_cast_fp16, indices = slice_by_index_2, mode = scatter_2_mode_0, updates = var_239_cast_fp16, validate_indices = scatter_2_validate_indices_0)[name = tensor<string, []>("scatter_2_cast_fp16")];
            tensor<int32, [1]> var_249_begin_0 = const()[name = tensor<string, []>("op_249_begin_0"), val = tensor<int32, [1]>([58])];
            tensor<int32, [1]> var_249_end_0 = const()[name = tensor<string, []>("op_249_end_0"), val = tensor<int32, [1]>([647])];
            tensor<bool, [1]> var_249_end_mask_0 = const()[name = tensor<string, []>("op_249_end_mask_0"), val = tensor<bool, [1]>([false])];
            tensor<fp16, [589]> var_249_cast_fp16 = slice_by_index(begin = var_249_begin_0, end = var_249_end_0, end_mask = var_249_end_mask_0, x = scatter_1_cast_fp16)[name = tensor<string, []>("op_249_cast_fp16")];
            tensor<fp16, []> var_250_to_fp16 = const()[name = tensor<string, []>("op_250_to_fp16"), val = tensor<fp16, []>(0x1p+0)];
            tensor<fp16, [589]> var_252_cast_fp16 = add(x = var_249_cast_fp16, y = var_250_to_fp16)[name = tensor<string, []>("op_252_cast_fp16")];
            tensor<string, []> scatter_3_mode_0 = const()[name = tensor<string, []>("scatter_3_mode_0"), val = tensor<string, []>("update")];
            tensor<int32, []> scatter_3_axis_0 = const()[name = tensor<string, []>("scatter_3_axis_0"), val = tensor<int32, []>(0)];
            tensor<bool, []> scatter_3_validate_indices_0 = const()[name = tensor<string, []>("scatter_3_validate_indices_0"), val = tensor<bool, []>(false)];
            tensor<fp16, [1767]> scatter_3_cast_fp16 = scatter(axis = scatter_3_axis_0, data = scatter_1_cast_fp16, indices = slice_by_index_2, mode = scatter_3_mode_0, updates = var_252_cast_fp16, validate_indices = scatter_3_validate_indices_0)[name = tensor<string, []>("scatter_3_cast_fp16")];
            tensor<int32, [1]> var_269_begin_0 = const()[name = tensor<string, []>("op_269_begin_0"), val = tensor<int32, [1]>([117])];
            tensor<int32, [1]> var_269_end_0 = const()[name = tensor<string, []>("op_269_end_0"), val = tensor<int32, [1]>([706])];
            tensor<bool, [1]> var_269_end_mask_0 = const()[name = tensor<string, []>("op_269_end_mask_0"), val = tensor<bool, [1]>([false])];
            tensor<fp16, [589]> var_269_cast_fp16 = slice_by_index(begin = var_269_begin_0, end = var_269_end_0, end_mask = var_269_end_mask_0, x = scatter_2_cast_fp16)[name = tensor<string, []>("op_269_cast_fp16")];
            tensor<int32, [2]> var_272_begin_0 = const()[name = tensor<string, []>("op_272_begin_0"), val = tensor<int32, [2]>([2, 0])];
            tensor<int32, [2]> var_272_end_0 = const()[name = tensor<string, []>("op_272_end_0"), val = tensor<int32, [2]>([3, 589])];
            tensor<bool, [2]> var_272_end_mask_0 = const()[name = tensor<string, []>("op_272_end_mask_0"), val = tensor<bool, [2]>([false, true])];
            tensor<bool, [2]> var_272_squeeze_mask_0 = const()[name = tensor<string, []>("op_272_squeeze_mask_0"), val = tensor<bool, [2]>([true, false])];
            tensor<fp16, [589]> var_272_cast_fp16 = slice_by_index(begin = var_272_begin_0, end = var_272_end_0, end_mask = var_272_end_mask_0, squeeze_mask = var_272_squeeze_mask_0, x = reduce_max_0_cast_fp16)[name = tensor<string, []>("op_272_cast_fp16")];
            tensor<fp16, [589]> var_274_cast_fp16 = add(x = var_269_cast_fp16, y = var_272_cast_fp16)[name = tensor<string, []>("op_274_cast_fp16")];
            tensor<int32, [589]> slice_by_index_4 = const()[name = tensor<string, []>("slice_by_index_4"), val = tensor<int32, [589]>([117, 118, 119, 120, 121, 122, 123, 124, 125, 126, 127, 128, 129, 130, 131, 132, 133, 134, 135, 136, 137, 138, 139, 140, 141, 142, 143, 144, 145, 146, 147, 148, 149, 150, 151, 152, 153, 154, 155, 156, 157, 158, 159, 160, 161, 162, 163, 164, 165, 166, 167, 168, 169, 170, 171, 172, 173, 174, 175, 176, 177, 178, 179, 180, 181, 182, 183, 184, 185, 186, 187, 188, 189, 190, 191, 192, 193, 194, 195, 196, 197, 198, 199, 200, 201, 202, 203, 204, 205, 206, 207, 208, 209, 210, 211, 212, 213, 214, 215, 216, 217, 218, 219, 220, 221, 222, 223, 224, 225, 226, 227, 228, 229, 230, 231, 232, 233, 234, 235, 236, 237, 238, 239, 240, 241, 242, 243, 244, 245, 246, 247, 248, 249, 250, 251, 252, 253, 254, 255, 256, 257, 258, 259, 260, 261, 262, 263, 264, 265, 266, 267, 268, 269, 270, 271, 272, 273, 274, 275, 276, 277, 278, 279, 280, 281, 282, 283, 284, 285, 286, 287, 288, 289, 290, 291, 292, 293, 294, 295, 296, 297, 298, 299, 300, 301, 302, 303, 304, 305, 306, 307, 308, 309, 310, 311, 312, 313, 314, 315, 316, 317, 318, 319, 320, 321, 322, 323, 324, 325, 326, 327, 328, 329, 330, 331, 332, 333, 334, 335, 336, 337, 338, 339, 340, 341, 342, 343, 344, 345, 346, 347, 348, 349, 350, 351, 352, 353, 354, 355, 356, 357, 358, 359, 360, 361, 362, 363, 364, 365, 366, 367, 368, 369, 370, 371, 372, 373, 374, 375, 376, 377, 378, 379, 380, 381, 382, 383, 384, 385, 386, 387, 388, 389, 390, 391, 392, 393, 394, 395, 396, 397, 398, 399, 400, 401, 402, 403, 404, 405, 406, 407, 408, 409, 410, 411, 412, 413, 414, 415, 416, 417, 418, 419, 420, 421, 422, 423, 424, 425, 426, 427, 428, 429, 430, 431, 432, 433, 434, 435, 436, 437, 438, 439, 440, 441, 442, 443, 444, 445, 446, 447, 448, 449, 450, 451, 452, 453, 454, 455, 456, 457, 458, 459, 460, 461, 462, 463, 464, 465, 466, 467, 468, 469, 470, 471, 472, 473, 474, 475, 476, 477, 478, 479, 480, 481, 482, 483, 484, 485, 486, 487, 488, 489, 490, 491, 492, 493, 494, 495, 496, 497, 498, 499, 500, 501, 502, 503, 504, 505, 506, 507, 508, 509, 510, 511, 512, 513, 514, 515, 516, 517, 518, 519, 520, 521, 522, 523, 524, 525, 526, 527, 528, 529, 530, 531, 532, 533, 534, 535, 536, 537, 538, 539, 540, 541, 542, 543, 544, 545, 546, 547, 548, 549, 550, 551, 552, 553, 554, 555, 556, 557, 558, 559, 560, 561, 562, 563, 564, 565, 566, 567, 568, 569, 570, 571, 572, 573, 574, 575, 576, 577, 578, 579, 580, 581, 582, 583, 584, 585, 586, 587, 588, 589, 590, 591, 592, 593, 594, 595, 596, 597, 598, 599, 600, 601, 602, 603, 604, 605, 606, 607, 608, 609, 610, 611, 612, 613, 614, 615, 616, 617, 618, 619, 620, 621, 622, 623, 624, 625, 626, 627, 628, 629, 630, 631, 632, 633, 634, 635, 636, 637, 638, 639, 640, 641, 642, 643, 644, 645, 646, 647, 648, 649, 650, 651, 652, 653, 654, 655, 656, 657, 658, 659, 660, 661, 662, 663, 664, 665, 666, 667, 668, 669, 670, 671, 672, 673, 674, 675, 676, 677, 678, 679, 680, 681, 682, 683, 684, 685, 686, 687, 688, 689, 690, 691, 692, 693, 694, 695, 696, 697, 698, 699, 700, 701, 702, 703, 704, 705])];
            tensor<string, []> scatter_4_mode_0 = const()[name = tensor<string, []>("scatter_4_mode_0"), val = tensor<string, []>("update")];
            tensor<int32, []> scatter_4_axis_0 = const()[name = tensor<string, []>("scatter_4_axis_0"), val = tensor<int32, []>(0)];
            tensor<bool, []> scatter_4_validate_indices_0 = const()[name = tensor<string, []>("scatter_4_validate_indices_0"), val = tensor<bool, []>(false)];
            tensor<fp16, [1767]> scatter_4_cast_fp16 = scatter(axis = scatter_4_axis_0, data = scatter_2_cast_fp16, indices = slice_by_index_4, mode = scatter_4_mode_0, updates = var_274_cast_fp16, validate_indices = scatter_4_validate_indices_0)[name = tensor<string, []>("scatter_4_cast_fp16")];
            tensor<int32, [1]> var_284_begin_0 = const()[name = tensor<string, []>("op_284_begin_0"), val = tensor<int32, [1]>([117])];
            tensor<int32, [1]> var_284_end_0 = const()[name = tensor<string, []>("op_284_end_0"), val = tensor<int32, [1]>([706])];
            tensor<bool, [1]> var_284_end_mask_0 = const()[name = tensor<string, []>("op_284_end_mask_0"), val = tensor<bool, [1]>([false])];
            tensor<fp16, [589]> var_284_cast_fp16 = slice_by_index(begin = var_284_begin_0, end = var_284_end_0, end_mask = var_284_end_mask_0, x = scatter_3_cast_fp16)[name = tensor<string, []>("op_284_cast_fp16")];
            tensor<fp16, []> var_285_to_fp16 = const()[name = tensor<string, []>("op_285_to_fp16"), val = tensor<fp16, []>(0x1p+0)];
            tensor<fp16, [589]> var_287_cast_fp16 = add(x = var_284_cast_fp16, y = var_285_to_fp16)[name = tensor<string, []>("op_287_cast_fp16")];
            tensor<string, []> scatter_5_mode_0 = const()[name = tensor<string, []>("scatter_5_mode_0"), val = tensor<string, []>("update")];
            tensor<int32, []> scatter_5_axis_0 = const()[name = tensor<string, []>("scatter_5_axis_0"), val = tensor<int32, []>(0)];
            tensor<bool, []> scatter_5_validate_indices_0 = const()[name = tensor<string, []>("scatter_5_validate_indices_0"), val = tensor<bool, []>(false)];
            tensor<fp16, [1767]> scatter_5_cast_fp16 = scatter(axis = scatter_5_axis_0, data = scatter_3_cast_fp16, indices = slice_by_index_4, mode = scatter_5_mode_0, updates = var_287_cast_fp16, validate_indices = scatter_5_validate_indices_0)[name = tensor<string, []>("scatter_5_cast_fp16")];
            tensor<int32, [1]> var_304_begin_0 = const()[name = tensor<string, []>("op_304_begin_0"), val = tensor<int32, [1]>([176])];
            tensor<int32, [1]> var_304_end_0 = const()[name = tensor<string, []>("op_304_end_0"), val = tensor<int32, [1]>([765])];
            tensor<bool, [1]> var_304_end_mask_0 = const()[name = tensor<string, []>("op_304_end_mask_0"), val = tensor<bool, [1]>([false])];
            tensor<fp16, [589]> var_304_cast_fp16 = slice_by_index(begin = var_304_begin_0, end = var_304_end_0, end_mask = var_304_end_mask_0, x = scatter_4_cast_fp16)[name = tensor<string, []>("op_304_cast_fp16")];
            tensor<int32, [2]> var_307_begin_0 = const()[name = tensor<string, []>("op_307_begin_0"), val = tensor<int32, [2]>([3, 0])];
            tensor<int32, [2]> var_307_end_0 = const()[name = tensor<string, []>("op_307_end_0"), val = tensor<int32, [2]>([4, 589])];
            tensor<bool, [2]> var_307_end_mask_0 = const()[name = tensor<string, []>("op_307_end_mask_0"), val = tensor<bool, [2]>([false, true])];
            tensor<bool, [2]> var_307_squeeze_mask_0 = const()[name = tensor<string, []>("op_307_squeeze_mask_0"), val = tensor<bool, [2]>([true, false])];
            tensor<fp16, [589]> var_307_cast_fp16 = slice_by_index(begin = var_307_begin_0, end = var_307_end_0, end_mask = var_307_end_mask_0, squeeze_mask = var_307_squeeze_mask_0, x = reduce_max_0_cast_fp16)[name = tensor<string, []>("op_307_cast_fp16")];
            tensor<fp16, [589]> var_309_cast_fp16 = add(x = var_304_cast_fp16, y = var_307_cast_fp16)[name = tensor<string, []>("op_309_cast_fp16")];
            tensor<int32, [589]> slice_by_index_6 = const()[name = tensor<string, []>("slice_by_index_6"), val = tensor<int32, [589]>([176, 177, 178, 179, 180, 181, 182, 183, 184, 185, 186, 187, 188, 189, 190, 191, 192, 193, 194, 195, 196, 197, 198, 199, 200, 201, 202, 203, 204, 205, 206, 207, 208, 209, 210, 211, 212, 213, 214, 215, 216, 217, 218, 219, 220, 221, 222, 223, 224, 225, 226, 227, 228, 229, 230, 231, 232, 233, 234, 235, 236, 237, 238, 239, 240, 241, 242, 243, 244, 245, 246, 247, 248, 249, 250, 251, 252, 253, 254, 255, 256, 257, 258, 259, 260, 261, 262, 263, 264, 265, 266, 267, 268, 269, 270, 271, 272, 273, 274, 275, 276, 277, 278, 279, 280, 281, 282, 283, 284, 285, 286, 287, 288, 289, 290, 291, 292, 293, 294, 295, 296, 297, 298, 299, 300, 301, 302, 303, 304, 305, 306, 307, 308, 309, 310, 311, 312, 313, 314, 315, 316, 317, 318, 319, 320, 321, 322, 323, 324, 325, 326, 327, 328, 329, 330, 331, 332, 333, 334, 335, 336, 337, 338, 339, 340, 341, 342, 343, 344, 345, 346, 347, 348, 349, 350, 351, 352, 353, 354, 355, 356, 357, 358, 359, 360, 361, 362, 363, 364, 365, 366, 367, 368, 369, 370, 371, 372, 373, 374, 375, 376, 377, 378, 379, 380, 381, 382, 383, 384, 385, 386, 387, 388, 389, 390, 391, 392, 393, 394, 395, 396, 397, 398, 399, 400, 401, 402, 403, 404, 405, 406, 407, 408, 409, 410, 411, 412, 413, 414, 415, 416, 417, 418, 419, 420, 421, 422, 423, 424, 425, 426, 427, 428, 429, 430, 431, 432, 433, 434, 435, 436, 437, 438, 439, 440, 441, 442, 443, 444, 445, 446, 447, 448, 449, 450, 451, 452, 453, 454, 455, 456, 457, 458, 459, 460, 461, 462, 463, 464, 465, 466, 467, 468, 469, 470, 471, 472, 473, 474, 475, 476, 477, 478, 479, 480, 481, 482, 483, 484, 485, 486, 487, 488, 489, 490, 491, 492, 493, 494, 495, 496, 497, 498, 499, 500, 501, 502, 503, 504, 505, 506, 507, 508, 509, 510, 511, 512, 513, 514, 515, 516, 517, 518, 519, 520, 521, 522, 523, 524, 525, 526, 527, 528, 529, 530, 531, 532, 533, 534, 535, 536, 537, 538, 539, 540, 541, 542, 543, 544, 545, 546, 547, 548, 549, 550, 551, 552, 553, 554, 555, 556, 557, 558, 559, 560, 561, 562, 563, 564, 565, 566, 567, 568, 569, 570, 571, 572, 573, 574, 575, 576, 577, 578, 579, 580, 581, 582, 583, 584, 585, 586, 587, 588, 589, 590, 591, 592, 593, 594, 595, 596, 597, 598, 599, 600, 601, 602, 603, 604, 605, 606, 607, 608, 609, 610, 611, 612, 613, 614, 615, 616, 617, 618, 619, 620, 621, 622, 623, 624, 625, 626, 627, 628, 629, 630, 631, 632, 633, 634, 635, 636, 637, 638, 639, 640, 641, 642, 643, 644, 645, 646, 647, 648, 649, 650, 651, 652, 653, 654, 655, 656, 657, 658, 659, 660, 661, 662, 663, 664, 665, 666, 667, 668, 669, 670, 671, 672, 673, 674, 675, 676, 677, 678, 679, 680, 681, 682, 683, 684, 685, 686, 687, 688, 689, 690, 691, 692, 693, 694, 695, 696, 697, 698, 699, 700, 701, 702, 703, 704, 705, 706, 707, 708, 709, 710, 711, 712, 713, 714, 715, 716, 717, 718, 719, 720, 721, 722, 723, 724, 725, 726, 727, 728, 729, 730, 731, 732, 733, 734, 735, 736, 737, 738, 739, 740, 741, 742, 743, 744, 745, 746, 747, 748, 749, 750, 751, 752, 753, 754, 755, 756, 757, 758, 759, 760, 761, 762, 763, 764])];
            tensor<string, []> scatter_6_mode_0 = const()[name = tensor<string, []>("scatter_6_mode_0"), val = tensor<string, []>("update")];
            tensor<int32, []> scatter_6_axis_0 = const()[name = tensor<string, []>("scatter_6_axis_0"), val = tensor<int32, []>(0)];
            tensor<bool, []> scatter_6_validate_indices_0 = const()[name = tensor<string, []>("scatter_6_validate_indices_0"), val = tensor<bool, []>(false)];
            tensor<fp16, [1767]> scatter_6_cast_fp16 = scatter(axis = scatter_6_axis_0, data = scatter_4_cast_fp16, indices = slice_by_index_6, mode = scatter_6_mode_0, updates = var_309_cast_fp16, validate_indices = scatter_6_validate_indices_0)[name = tensor<string, []>("scatter_6_cast_fp16")];
            tensor<int32, [1]> var_319_begin_0 = const()[name = tensor<string, []>("op_319_begin_0"), val = tensor<int32, [1]>([176])];
            tensor<int32, [1]> var_319_end_0 = const()[name = tensor<string, []>("op_319_end_0"), val = tensor<int32, [1]>([765])];
            tensor<bool, [1]> var_319_end_mask_0 = const()[name = tensor<string, []>("op_319_end_mask_0"), val = tensor<bool, [1]>([false])];
            tensor<fp16, [589]> var_319_cast_fp16 = slice_by_index(begin = var_319_begin_0, end = var_319_end_0, end_mask = var_319_end_mask_0, x = scatter_5_cast_fp16)[name = tensor<string, []>("op_319_cast_fp16")];
            tensor<fp16, []> var_320_to_fp16 = const()[name = tensor<string, []>("op_320_to_fp16"), val = tensor<fp16, []>(0x1p+0)];
            tensor<fp16, [589]> var_322_cast_fp16 = add(x = var_319_cast_fp16, y = var_320_to_fp16)[name = tensor<string, []>("op_322_cast_fp16")];
            tensor<string, []> scatter_7_mode_0 = const()[name = tensor<string, []>("scatter_7_mode_0"), val = tensor<string, []>("update")];
            tensor<int32, []> scatter_7_axis_0 = const()[name = tensor<string, []>("scatter_7_axis_0"), val = tensor<int32, []>(0)];
            tensor<bool, []> scatter_7_validate_indices_0 = const()[name = tensor<string, []>("scatter_7_validate_indices_0"), val = tensor<bool, []>(false)];
            tensor<fp16, [1767]> scatter_7_cast_fp16 = scatter(axis = scatter_7_axis_0, data = scatter_5_cast_fp16, indices = slice_by_index_6, mode = scatter_7_mode_0, updates = var_322_cast_fp16, validate_indices = scatter_7_validate_indices_0)[name = tensor<string, []>("scatter_7_cast_fp16")];
            tensor<int32, [1]> var_339_begin_0 = const()[name = tensor<string, []>("op_339_begin_0"), val = tensor<int32, [1]>([235])];
            tensor<int32, [1]> var_339_end_0 = const()[name = tensor<string, []>("op_339_end_0"), val = tensor<int32, [1]>([824])];
            tensor<bool, [1]> var_339_end_mask_0 = const()[name = tensor<string, []>("op_339_end_mask_0"), val = tensor<bool, [1]>([false])];
            tensor<fp16, [589]> var_339_cast_fp16 = slice_by_index(begin = var_339_begin_0, end = var_339_end_0, end_mask = var_339_end_mask_0, x = scatter_6_cast_fp16)[name = tensor<string, []>("op_339_cast_fp16")];
            tensor<int32, [2]> var_342_begin_0 = const()[name = tensor<string, []>("op_342_begin_0"), val = tensor<int32, [2]>([4, 0])];
            tensor<int32, [2]> var_342_end_0 = const()[name = tensor<string, []>("op_342_end_0"), val = tensor<int32, [2]>([5, 589])];
            tensor<bool, [2]> var_342_end_mask_0 = const()[name = tensor<string, []>("op_342_end_mask_0"), val = tensor<bool, [2]>([false, true])];
            tensor<bool, [2]> var_342_squeeze_mask_0 = const()[name = tensor<string, []>("op_342_squeeze_mask_0"), val = tensor<bool, [2]>([true, false])];
            tensor<fp16, [589]> var_342_cast_fp16 = slice_by_index(begin = var_342_begin_0, end = var_342_end_0, end_mask = var_342_end_mask_0, squeeze_mask = var_342_squeeze_mask_0, x = reduce_max_0_cast_fp16)[name = tensor<string, []>("op_342_cast_fp16")];
            tensor<fp16, [589]> var_344_cast_fp16 = add(x = var_339_cast_fp16, y = var_342_cast_fp16)[name = tensor<string, []>("op_344_cast_fp16")];
            tensor<int32, [589]> slice_by_index_8 = const()[name = tensor<string, []>("slice_by_index_8"), val = tensor<int32, [589]>([235, 236, 237, 238, 239, 240, 241, 242, 243, 244, 245, 246, 247, 248, 249, 250, 251, 252, 253, 254, 255, 256, 257, 258, 259, 260, 261, 262, 263, 264, 265, 266, 267, 268, 269, 270, 271, 272, 273, 274, 275, 276, 277, 278, 279, 280, 281, 282, 283, 284, 285, 286, 287, 288, 289, 290, 291, 292, 293, 294, 295, 296, 297, 298, 299, 300, 301, 302, 303, 304, 305, 306, 307, 308, 309, 310, 311, 312, 313, 314, 315, 316, 317, 318, 319, 320, 321, 322, 323, 324, 325, 326, 327, 328, 329, 330, 331, 332, 333, 334, 335, 336, 337, 338, 339, 340, 341, 342, 343, 344, 345, 346, 347, 348, 349, 350, 351, 352, 353, 354, 355, 356, 357, 358, 359, 360, 361, 362, 363, 364, 365, 366, 367, 368, 369, 370, 371, 372, 373, 374, 375, 376, 377, 378, 379, 380, 381, 382, 383, 384, 385, 386, 387, 388, 389, 390, 391, 392, 393, 394, 395, 396, 397, 398, 399, 400, 401, 402, 403, 404, 405, 406, 407, 408, 409, 410, 411, 412, 413, 414, 415, 416, 417, 418, 419, 420, 421, 422, 423, 424, 425, 426, 427, 428, 429, 430, 431, 432, 433, 434, 435, 436, 437, 438, 439, 440, 441, 442, 443, 444, 445, 446, 447, 448, 449, 450, 451, 452, 453, 454, 455, 456, 457, 458, 459, 460, 461, 462, 463, 464, 465, 466, 467, 468, 469, 470, 471, 472, 473, 474, 475, 476, 477, 478, 479, 480, 481, 482, 483, 484, 485, 486, 487, 488, 489, 490, 491, 492, 493, 494, 495, 496, 497, 498, 499, 500, 501, 502, 503, 504, 505, 506, 507, 508, 509, 510, 511, 512, 513, 514, 515, 516, 517, 518, 519, 520, 521, 522, 523, 524, 525, 526, 527, 528, 529, 530, 531, 532, 533, 534, 535, 536, 537, 538, 539, 540, 541, 542, 543, 544, 545, 546, 547, 548, 549, 550, 551, 552, 553, 554, 555, 556, 557, 558, 559, 560, 561, 562, 563, 564, 565, 566, 567, 568, 569, 570, 571, 572, 573, 574, 575, 576, 577, 578, 579, 580, 581, 582, 583, 584, 585, 586, 587, 588, 589, 590, 591, 592, 593, 594, 595, 596, 597, 598, 599, 600, 601, 602, 603, 604, 605, 606, 607, 608, 609, 610, 611, 612, 613, 614, 615, 616, 617, 618, 619, 620, 621, 622, 623, 624, 625, 626, 627, 628, 629, 630, 631, 632, 633, 634, 635, 636, 637, 638, 639, 640, 641, 642, 643, 644, 645, 646, 647, 648, 649, 650, 651, 652, 653, 654, 655, 656, 657, 658, 659, 660, 661, 662, 663, 664, 665, 666, 667, 668, 669, 670, 671, 672, 673, 674, 675, 676, 677, 678, 679, 680, 681, 682, 683, 684, 685, 686, 687, 688, 689, 690, 691, 692, 693, 694, 695, 696, 697, 698, 699, 700, 701, 702, 703, 704, 705, 706, 707, 708, 709, 710, 711, 712, 713, 714, 715, 716, 717, 718, 719, 720, 721, 722, 723, 724, 725, 726, 727, 728, 729, 730, 731, 732, 733, 734, 735, 736, 737, 738, 739, 740, 741, 742, 743, 744, 745, 746, 747, 748, 749, 750, 751, 752, 753, 754, 755, 756, 757, 758, 759, 760, 761, 762, 763, 764, 765, 766, 767, 768, 769, 770, 771, 772, 773, 774, 775, 776, 777, 778, 779, 780, 781, 782, 783, 784, 785, 786, 787, 788, 789, 790, 791, 792, 793, 794, 795, 796, 797, 798, 799, 800, 801, 802, 803, 804, 805, 806, 807, 808, 809, 810, 811, 812, 813, 814, 815, 816, 817, 818, 819, 820, 821, 822, 823])];
            tensor<string, []> scatter_8_mode_0 = const()[name = tensor<string, []>("scatter_8_mode_0"), val = tensor<string, []>("update")];
            tensor<int32, []> scatter_8_axis_0 = const()[name = tensor<string, []>("scatter_8_axis_0"), val = tensor<int32, []>(0)];
            tensor<bool, []> scatter_8_validate_indices_0 = const()[name = tensor<string, []>("scatter_8_validate_indices_0"), val = tensor<bool, []>(false)];
            tensor<fp16, [1767]> scatter_8_cast_fp16 = scatter(axis = scatter_8_axis_0, data = scatter_6_cast_fp16, indices = slice_by_index_8, mode = scatter_8_mode_0, updates = var_344_cast_fp16, validate_indices = scatter_8_validate_indices_0)[name = tensor<string, []>("scatter_8_cast_fp16")];
            tensor<int32, [1]> var_354_begin_0 = const()[name = tensor<string, []>("op_354_begin_0"), val = tensor<int32, [1]>([235])];
            tensor<int32, [1]> var_354_end_0 = const()[name = tensor<string, []>("op_354_end_0"), val = tensor<int32, [1]>([824])];
            tensor<bool, [1]> var_354_end_mask_0 = const()[name = tensor<string, []>("op_354_end_mask_0"), val = tensor<bool, [1]>([false])];
            tensor<fp16, [589]> var_354_cast_fp16 = slice_by_index(begin = var_354_begin_0, end = var_354_end_0, end_mask = var_354_end_mask_0, x = scatter_7_cast_fp16)[name = tensor<string, []>("op_354_cast_fp16")];
            tensor<fp16, []> var_355_to_fp16 = const()[name = tensor<string, []>("op_355_to_fp16"), val = tensor<fp16, []>(0x1p+0)];
            tensor<fp16, [589]> var_357_cast_fp16 = add(x = var_354_cast_fp16, y = var_355_to_fp16)[name = tensor<string, []>("op_357_cast_fp16")];
            tensor<string, []> scatter_9_mode_0 = const()[name = tensor<string, []>("scatter_9_mode_0"), val = tensor<string, []>("update")];
            tensor<int32, []> scatter_9_axis_0 = const()[name = tensor<string, []>("scatter_9_axis_0"), val = tensor<int32, []>(0)];
            tensor<bool, []> scatter_9_validate_indices_0 = const()[name = tensor<string, []>("scatter_9_validate_indices_0"), val = tensor<bool, []>(false)];
            tensor<fp16, [1767]> scatter_9_cast_fp16 = scatter(axis = scatter_9_axis_0, data = scatter_7_cast_fp16, indices = slice_by_index_8, mode = scatter_9_mode_0, updates = var_357_cast_fp16, validate_indices = scatter_9_validate_indices_0)[name = tensor<string, []>("scatter_9_cast_fp16")];
            tensor<int32, [1]> var_374_begin_0 = const()[name = tensor<string, []>("op_374_begin_0"), val = tensor<int32, [1]>([294])];
            tensor<int32, [1]> var_374_end_0 = const()[name = tensor<string, []>("op_374_end_0"), val = tensor<int32, [1]>([883])];
            tensor<bool, [1]> var_374_end_mask_0 = const()[name = tensor<string, []>("op_374_end_mask_0"), val = tensor<bool, [1]>([false])];
            tensor<fp16, [589]> var_374_cast_fp16 = slice_by_index(begin = var_374_begin_0, end = var_374_end_0, end_mask = var_374_end_mask_0, x = scatter_8_cast_fp16)[name = tensor<string, []>("op_374_cast_fp16")];
            tensor<int32, [2]> var_377_begin_0 = const()[name = tensor<string, []>("op_377_begin_0"), val = tensor<int32, [2]>([5, 0])];
            tensor<int32, [2]> var_377_end_0 = const()[name = tensor<string, []>("op_377_end_0"), val = tensor<int32, [2]>([6, 589])];
            tensor<bool, [2]> var_377_end_mask_0 = const()[name = tensor<string, []>("op_377_end_mask_0"), val = tensor<bool, [2]>([false, true])];
            tensor<bool, [2]> var_377_squeeze_mask_0 = const()[name = tensor<string, []>("op_377_squeeze_mask_0"), val = tensor<bool, [2]>([true, false])];
            tensor<fp16, [589]> var_377_cast_fp16 = slice_by_index(begin = var_377_begin_0, end = var_377_end_0, end_mask = var_377_end_mask_0, squeeze_mask = var_377_squeeze_mask_0, x = reduce_max_0_cast_fp16)[name = tensor<string, []>("op_377_cast_fp16")];
            tensor<fp16, [589]> var_379_cast_fp16 = add(x = var_374_cast_fp16, y = var_377_cast_fp16)[name = tensor<string, []>("op_379_cast_fp16")];
            tensor<int32, [589]> slice_by_index_10 = const()[name = tensor<string, []>("slice_by_index_10"), val = tensor<int32, [589]>([294, 295, 296, 297, 298, 299, 300, 301, 302, 303, 304, 305, 306, 307, 308, 309, 310, 311, 312, 313, 314, 315, 316, 317, 318, 319, 320, 321, 322, 323, 324, 325, 326, 327, 328, 329, 330, 331, 332, 333, 334, 335, 336, 337, 338, 339, 340, 341, 342, 343, 344, 345, 346, 347, 348, 349, 350, 351, 352, 353, 354, 355, 356, 357, 358, 359, 360, 361, 362, 363, 364, 365, 366, 367, 368, 369, 370, 371, 372, 373, 374, 375, 376, 377, 378, 379, 380, 381, 382, 383, 384, 385, 386, 387, 388, 389, 390, 391, 392, 393, 394, 395, 396, 397, 398, 399, 400, 401, 402, 403, 404, 405, 406, 407, 408, 409, 410, 411, 412, 413, 414, 415, 416, 417, 418, 419, 420, 421, 422, 423, 424, 425, 426, 427, 428, 429, 430, 431, 432, 433, 434, 435, 436, 437, 438, 439, 440, 441, 442, 443, 444, 445, 446, 447, 448, 449, 450, 451, 452, 453, 454, 455, 456, 457, 458, 459, 460, 461, 462, 463, 464, 465, 466, 467, 468, 469, 470, 471, 472, 473, 474, 475, 476, 477, 478, 479, 480, 481, 482, 483, 484, 485, 486, 487, 488, 489, 490, 491, 492, 493, 494, 495, 496, 497, 498, 499, 500, 501, 502, 503, 504, 505, 506, 507, 508, 509, 510, 511, 512, 513, 514, 515, 516, 517, 518, 519, 520, 521, 522, 523, 524, 525, 526, 527, 528, 529, 530, 531, 532, 533, 534, 535, 536, 537, 538, 539, 540, 541, 542, 543, 544, 545, 546, 547, 548, 549, 550, 551, 552, 553, 554, 555, 556, 557, 558, 559, 560, 561, 562, 563, 564, 565, 566, 567, 568, 569, 570, 571, 572, 573, 574, 575, 576, 577, 578, 579, 580, 581, 582, 583, 584, 585, 586, 587, 588, 589, 590, 591, 592, 593, 594, 595, 596, 597, 598, 599, 600, 601, 602, 603, 604, 605, 606, 607, 608, 609, 610, 611, 612, 613, 614, 615, 616, 617, 618, 619, 620, 621, 622, 623, 624, 625, 626, 627, 628, 629, 630, 631, 632, 633, 634, 635, 636, 637, 638, 639, 640, 641, 642, 643, 644, 645, 646, 647, 648, 649, 650, 651, 652, 653, 654, 655, 656, 657, 658, 659, 660, 661, 662, 663, 664, 665, 666, 667, 668, 669, 670, 671, 672, 673, 674, 675, 676, 677, 678, 679, 680, 681, 682, 683, 684, 685, 686, 687, 688, 689, 690, 691, 692, 693, 694, 695, 696, 697, 698, 699, 700, 701, 702, 703, 704, 705, 706, 707, 708, 709, 710, 711, 712, 713, 714, 715, 716, 717, 718, 719, 720, 721, 722, 723, 724, 725, 726, 727, 728, 729, 730, 731, 732, 733, 734, 735, 736, 737, 738, 739, 740, 741, 742, 743, 744, 745, 746, 747, 748, 749, 750, 751, 752, 753, 754, 755, 756, 757, 758, 759, 760, 761, 762, 763, 764, 765, 766, 767, 768, 769, 770, 771, 772, 773, 774, 775, 776, 777, 778, 779, 780, 781, 782, 783, 784, 785, 786, 787, 788, 789, 790, 791, 792, 793, 794, 795, 796, 797, 798, 799, 800, 801, 802, 803, 804, 805, 806, 807, 808, 809, 810, 811, 812, 813, 814, 815, 816, 817, 818, 819, 820, 821, 822, 823, 824, 825, 826, 827, 828, 829, 830, 831, 832, 833, 834, 835, 836, 837, 838, 839, 840, 841, 842, 843, 844, 845, 846, 847, 848, 849, 850, 851, 852, 853, 854, 855, 856, 857, 858, 859, 860, 861, 862, 863, 864, 865, 866, 867, 868, 869, 870, 871, 872, 873, 874, 875, 876, 877, 878, 879, 880, 881, 882])];
            tensor<string, []> scatter_10_mode_0 = const()[name = tensor<string, []>("scatter_10_mode_0"), val = tensor<string, []>("update")];
            tensor<int32, []> scatter_10_axis_0 = const()[name = tensor<string, []>("scatter_10_axis_0"), val = tensor<int32, []>(0)];
            tensor<bool, []> scatter_10_validate_indices_0 = const()[name = tensor<string, []>("scatter_10_validate_indices_0"), val = tensor<bool, []>(false)];
            tensor<fp16, [1767]> scatter_10_cast_fp16 = scatter(axis = scatter_10_axis_0, data = scatter_8_cast_fp16, indices = slice_by_index_10, mode = scatter_10_mode_0, updates = var_379_cast_fp16, validate_indices = scatter_10_validate_indices_0)[name = tensor<string, []>("scatter_10_cast_fp16")];
            tensor<int32, [1]> var_389_begin_0 = const()[name = tensor<string, []>("op_389_begin_0"), val = tensor<int32, [1]>([294])];
            tensor<int32, [1]> var_389_end_0 = const()[name = tensor<string, []>("op_389_end_0"), val = tensor<int32, [1]>([883])];
            tensor<bool, [1]> var_389_end_mask_0 = const()[name = tensor<string, []>("op_389_end_mask_0"), val = tensor<bool, [1]>([false])];
            tensor<fp16, [589]> var_389_cast_fp16 = slice_by_index(begin = var_389_begin_0, end = var_389_end_0, end_mask = var_389_end_mask_0, x = scatter_9_cast_fp16)[name = tensor<string, []>("op_389_cast_fp16")];
            tensor<fp16, []> var_390_to_fp16 = const()[name = tensor<string, []>("op_390_to_fp16"), val = tensor<fp16, []>(0x1p+0)];
            tensor<fp16, [589]> var_392_cast_fp16 = add(x = var_389_cast_fp16, y = var_390_to_fp16)[name = tensor<string, []>("op_392_cast_fp16")];
            tensor<string, []> scatter_11_mode_0 = const()[name = tensor<string, []>("scatter_11_mode_0"), val = tensor<string, []>("update")];
            tensor<int32, []> scatter_11_axis_0 = const()[name = tensor<string, []>("scatter_11_axis_0"), val = tensor<int32, []>(0)];
            tensor<bool, []> scatter_11_validate_indices_0 = const()[name = tensor<string, []>("scatter_11_validate_indices_0"), val = tensor<bool, []>(false)];
            tensor<fp16, [1767]> scatter_11_cast_fp16 = scatter(axis = scatter_11_axis_0, data = scatter_9_cast_fp16, indices = slice_by_index_10, mode = scatter_11_mode_0, updates = var_392_cast_fp16, validate_indices = scatter_11_validate_indices_0)[name = tensor<string, []>("scatter_11_cast_fp16")];
            tensor<int32, [1]> var_409_begin_0 = const()[name = tensor<string, []>("op_409_begin_0"), val = tensor<int32, [1]>([353])];
            tensor<int32, [1]> var_409_end_0 = const()[name = tensor<string, []>("op_409_end_0"), val = tensor<int32, [1]>([942])];
            tensor<bool, [1]> var_409_end_mask_0 = const()[name = tensor<string, []>("op_409_end_mask_0"), val = tensor<bool, [1]>([false])];
            tensor<fp16, [589]> var_409_cast_fp16 = slice_by_index(begin = var_409_begin_0, end = var_409_end_0, end_mask = var_409_end_mask_0, x = scatter_10_cast_fp16)[name = tensor<string, []>("op_409_cast_fp16")];
            tensor<int32, [2]> var_412_begin_0 = const()[name = tensor<string, []>("op_412_begin_0"), val = tensor<int32, [2]>([6, 0])];
            tensor<int32, [2]> var_412_end_0 = const()[name = tensor<string, []>("op_412_end_0"), val = tensor<int32, [2]>([7, 589])];
            tensor<bool, [2]> var_412_end_mask_0 = const()[name = tensor<string, []>("op_412_end_mask_0"), val = tensor<bool, [2]>([false, true])];
            tensor<bool, [2]> var_412_squeeze_mask_0 = const()[name = tensor<string, []>("op_412_squeeze_mask_0"), val = tensor<bool, [2]>([true, false])];
            tensor<fp16, [589]> var_412_cast_fp16 = slice_by_index(begin = var_412_begin_0, end = var_412_end_0, end_mask = var_412_end_mask_0, squeeze_mask = var_412_squeeze_mask_0, x = reduce_max_0_cast_fp16)[name = tensor<string, []>("op_412_cast_fp16")];
            tensor<fp16, [589]> var_414_cast_fp16 = add(x = var_409_cast_fp16, y = var_412_cast_fp16)[name = tensor<string, []>("op_414_cast_fp16")];
            tensor<int32, [589]> slice_by_index_12 = const()[name = tensor<string, []>("slice_by_index_12"), val = tensor<int32, [589]>([353, 354, 355, 356, 357, 358, 359, 360, 361, 362, 363, 364, 365, 366, 367, 368, 369, 370, 371, 372, 373, 374, 375, 376, 377, 378, 379, 380, 381, 382, 383, 384, 385, 386, 387, 388, 389, 390, 391, 392, 393, 394, 395, 396, 397, 398, 399, 400, 401, 402, 403, 404, 405, 406, 407, 408, 409, 410, 411, 412, 413, 414, 415, 416, 417, 418, 419, 420, 421, 422, 423, 424, 425, 426, 427, 428, 429, 430, 431, 432, 433, 434, 435, 436, 437, 438, 439, 440, 441, 442, 443, 444, 445, 446, 447, 448, 449, 450, 451, 452, 453, 454, 455, 456, 457, 458, 459, 460, 461, 462, 463, 464, 465, 466, 467, 468, 469, 470, 471, 472, 473, 474, 475, 476, 477, 478, 479, 480, 481, 482, 483, 484, 485, 486, 487, 488, 489, 490, 491, 492, 493, 494, 495, 496, 497, 498, 499, 500, 501, 502, 503, 504, 505, 506, 507, 508, 509, 510, 511, 512, 513, 514, 515, 516, 517, 518, 519, 520, 521, 522, 523, 524, 525, 526, 527, 528, 529, 530, 531, 532, 533, 534, 535, 536, 537, 538, 539, 540, 541, 542, 543, 544, 545, 546, 547, 548, 549, 550, 551, 552, 553, 554, 555, 556, 557, 558, 559, 560, 561, 562, 563, 564, 565, 566, 567, 568, 569, 570, 571, 572, 573, 574, 575, 576, 577, 578, 579, 580, 581, 582, 583, 584, 585, 586, 587, 588, 589, 590, 591, 592, 593, 594, 595, 596, 597, 598, 599, 600, 601, 602, 603, 604, 605, 606, 607, 608, 609, 610, 611, 612, 613, 614, 615, 616, 617, 618, 619, 620, 621, 622, 623, 624, 625, 626, 627, 628, 629, 630, 631, 632, 633, 634, 635, 636, 637, 638, 639, 640, 641, 642, 643, 644, 645, 646, 647, 648, 649, 650, 651, 652, 653, 654, 655, 656, 657, 658, 659, 660, 661, 662, 663, 664, 665, 666, 667, 668, 669, 670, 671, 672, 673, 674, 675, 676, 677, 678, 679, 680, 681, 682, 683, 684, 685, 686, 687, 688, 689, 690, 691, 692, 693, 694, 695, 696, 697, 698, 699, 700, 701, 702, 703, 704, 705, 706, 707, 708, 709, 710, 711, 712, 713, 714, 715, 716, 717, 718, 719, 720, 721, 722, 723, 724, 725, 726, 727, 728, 729, 730, 731, 732, 733, 734, 735, 736, 737, 738, 739, 740, 741, 742, 743, 744, 745, 746, 747, 748, 749, 750, 751, 752, 753, 754, 755, 756, 757, 758, 759, 760, 761, 762, 763, 764, 765, 766, 767, 768, 769, 770, 771, 772, 773, 774, 775, 776, 777, 778, 779, 780, 781, 782, 783, 784, 785, 786, 787, 788, 789, 790, 791, 792, 793, 794, 795, 796, 797, 798, 799, 800, 801, 802, 803, 804, 805, 806, 807, 808, 809, 810, 811, 812, 813, 814, 815, 816, 817, 818, 819, 820, 821, 822, 823, 824, 825, 826, 827, 828, 829, 830, 831, 832, 833, 834, 835, 836, 837, 838, 839, 840, 841, 842, 843, 844, 845, 846, 847, 848, 849, 850, 851, 852, 853, 854, 855, 856, 857, 858, 859, 860, 861, 862, 863, 864, 865, 866, 867, 868, 869, 870, 871, 872, 873, 874, 875, 876, 877, 878, 879, 880, 881, 882, 883, 884, 885, 886, 887, 888, 889, 890, 891, 892, 893, 894, 895, 896, 897, 898, 899, 900, 901, 902, 903, 904, 905, 906, 907, 908, 909, 910, 911, 912, 913, 914, 915, 916, 917, 918, 919, 920, 921, 922, 923, 924, 925, 926, 927, 928, 929, 930, 931, 932, 933, 934, 935, 936, 937, 938, 939, 940, 941])];
            tensor<string, []> scatter_12_mode_0 = const()[name = tensor<string, []>("scatter_12_mode_0"), val = tensor<string, []>("update")];
            tensor<int32, []> scatter_12_axis_0 = const()[name = tensor<string, []>("scatter_12_axis_0"), val = tensor<int32, []>(0)];
            tensor<bool, []> scatter_12_validate_indices_0 = const()[name = tensor<string, []>("scatter_12_validate_indices_0"), val = tensor<bool, []>(false)];
            tensor<fp16, [1767]> scatter_12_cast_fp16 = scatter(axis = scatter_12_axis_0, data = scatter_10_cast_fp16, indices = slice_by_index_12, mode = scatter_12_mode_0, updates = var_414_cast_fp16, validate_indices = scatter_12_validate_indices_0)[name = tensor<string, []>("scatter_12_cast_fp16")];
            tensor<int32, [1]> var_424_begin_0 = const()[name = tensor<string, []>("op_424_begin_0"), val = tensor<int32, [1]>([353])];
            tensor<int32, [1]> var_424_end_0 = const()[name = tensor<string, []>("op_424_end_0"), val = tensor<int32, [1]>([942])];
            tensor<bool, [1]> var_424_end_mask_0 = const()[name = tensor<string, []>("op_424_end_mask_0"), val = tensor<bool, [1]>([false])];
            tensor<fp16, [589]> var_424_cast_fp16 = slice_by_index(begin = var_424_begin_0, end = var_424_end_0, end_mask = var_424_end_mask_0, x = scatter_11_cast_fp16)[name = tensor<string, []>("op_424_cast_fp16")];
            tensor<fp16, []> var_425_to_fp16 = const()[name = tensor<string, []>("op_425_to_fp16"), val = tensor<fp16, []>(0x1p+0)];
            tensor<fp16, [589]> var_427_cast_fp16 = add(x = var_424_cast_fp16, y = var_425_to_fp16)[name = tensor<string, []>("op_427_cast_fp16")];
            tensor<string, []> scatter_13_mode_0 = const()[name = tensor<string, []>("scatter_13_mode_0"), val = tensor<string, []>("update")];
            tensor<int32, []> scatter_13_axis_0 = const()[name = tensor<string, []>("scatter_13_axis_0"), val = tensor<int32, []>(0)];
            tensor<bool, []> scatter_13_validate_indices_0 = const()[name = tensor<string, []>("scatter_13_validate_indices_0"), val = tensor<bool, []>(false)];
            tensor<fp16, [1767]> scatter_13_cast_fp16 = scatter(axis = scatter_13_axis_0, data = scatter_11_cast_fp16, indices = slice_by_index_12, mode = scatter_13_mode_0, updates = var_427_cast_fp16, validate_indices = scatter_13_validate_indices_0)[name = tensor<string, []>("scatter_13_cast_fp16")];
            tensor<int32, [1]> var_444_begin_0 = const()[name = tensor<string, []>("op_444_begin_0"), val = tensor<int32, [1]>([412])];
            tensor<int32, [1]> var_444_end_0 = const()[name = tensor<string, []>("op_444_end_0"), val = tensor<int32, [1]>([1001])];
            tensor<bool, [1]> var_444_end_mask_0 = const()[name = tensor<string, []>("op_444_end_mask_0"), val = tensor<bool, [1]>([false])];
            tensor<fp16, [589]> var_444_cast_fp16 = slice_by_index(begin = var_444_begin_0, end = var_444_end_0, end_mask = var_444_end_mask_0, x = scatter_12_cast_fp16)[name = tensor<string, []>("op_444_cast_fp16")];
            tensor<int32, [2]> var_447_begin_0 = const()[name = tensor<string, []>("op_447_begin_0"), val = tensor<int32, [2]>([7, 0])];
            tensor<int32, [2]> var_447_end_0 = const()[name = tensor<string, []>("op_447_end_0"), val = tensor<int32, [2]>([8, 589])];
            tensor<bool, [2]> var_447_end_mask_0 = const()[name = tensor<string, []>("op_447_end_mask_0"), val = tensor<bool, [2]>([false, true])];
            tensor<bool, [2]> var_447_squeeze_mask_0 = const()[name = tensor<string, []>("op_447_squeeze_mask_0"), val = tensor<bool, [2]>([true, false])];
            tensor<fp16, [589]> var_447_cast_fp16 = slice_by_index(begin = var_447_begin_0, end = var_447_end_0, end_mask = var_447_end_mask_0, squeeze_mask = var_447_squeeze_mask_0, x = reduce_max_0_cast_fp16)[name = tensor<string, []>("op_447_cast_fp16")];
            tensor<fp16, [589]> var_449_cast_fp16 = add(x = var_444_cast_fp16, y = var_447_cast_fp16)[name = tensor<string, []>("op_449_cast_fp16")];
            tensor<int32, [589]> slice_by_index_14 = const()[name = tensor<string, []>("slice_by_index_14"), val = tensor<int32, [589]>([412, 413, 414, 415, 416, 417, 418, 419, 420, 421, 422, 423, 424, 425, 426, 427, 428, 429, 430, 431, 432, 433, 434, 435, 436, 437, 438, 439, 440, 441, 442, 443, 444, 445, 446, 447, 448, 449, 450, 451, 452, 453, 454, 455, 456, 457, 458, 459, 460, 461, 462, 463, 464, 465, 466, 467, 468, 469, 470, 471, 472, 473, 474, 475, 476, 477, 478, 479, 480, 481, 482, 483, 484, 485, 486, 487, 488, 489, 490, 491, 492, 493, 494, 495, 496, 497, 498, 499, 500, 501, 502, 503, 504, 505, 506, 507, 508, 509, 510, 511, 512, 513, 514, 515, 516, 517, 518, 519, 520, 521, 522, 523, 524, 525, 526, 527, 528, 529, 530, 531, 532, 533, 534, 535, 536, 537, 538, 539, 540, 541, 542, 543, 544, 545, 546, 547, 548, 549, 550, 551, 552, 553, 554, 555, 556, 557, 558, 559, 560, 561, 562, 563, 564, 565, 566, 567, 568, 569, 570, 571, 572, 573, 574, 575, 576, 577, 578, 579, 580, 581, 582, 583, 584, 585, 586, 587, 588, 589, 590, 591, 592, 593, 594, 595, 596, 597, 598, 599, 600, 601, 602, 603, 604, 605, 606, 607, 608, 609, 610, 611, 612, 613, 614, 615, 616, 617, 618, 619, 620, 621, 622, 623, 624, 625, 626, 627, 628, 629, 630, 631, 632, 633, 634, 635, 636, 637, 638, 639, 640, 641, 642, 643, 644, 645, 646, 647, 648, 649, 650, 651, 652, 653, 654, 655, 656, 657, 658, 659, 660, 661, 662, 663, 664, 665, 666, 667, 668, 669, 670, 671, 672, 673, 674, 675, 676, 677, 678, 679, 680, 681, 682, 683, 684, 685, 686, 687, 688, 689, 690, 691, 692, 693, 694, 695, 696, 697, 698, 699, 700, 701, 702, 703, 704, 705, 706, 707, 708, 709, 710, 711, 712, 713, 714, 715, 716, 717, 718, 719, 720, 721, 722, 723, 724, 725, 726, 727, 728, 729, 730, 731, 732, 733, 734, 735, 736, 737, 738, 739, 740, 741, 742, 743, 744, 745, 746, 747, 748, 749, 750, 751, 752, 753, 754, 755, 756, 757, 758, 759, 760, 761, 762, 763, 764, 765, 766, 767, 768, 769, 770, 771, 772, 773, 774, 775, 776, 777, 778, 779, 780, 781, 782, 783, 784, 785, 786, 787, 788, 789, 790, 791, 792, 793, 794, 795, 796, 797, 798, 799, 800, 801, 802, 803, 804, 805, 806, 807, 808, 809, 810, 811, 812, 813, 814, 815, 816, 817, 818, 819, 820, 821, 822, 823, 824, 825, 826, 827, 828, 829, 830, 831, 832, 833, 834, 835, 836, 837, 838, 839, 840, 841, 842, 843, 844, 845, 846, 847, 848, 849, 850, 851, 852, 853, 854, 855, 856, 857, 858, 859, 860, 861, 862, 863, 864, 865, 866, 867, 868, 869, 870, 871, 872, 873, 874, 875, 876, 877, 878, 879, 880, 881, 882, 883, 884, 885, 886, 887, 888, 889, 890, 891, 892, 893, 894, 895, 896, 897, 898, 899, 900, 901, 902, 903, 904, 905, 906, 907, 908, 909, 910, 911, 912, 913, 914, 915, 916, 917, 918, 919, 920, 921, 922, 923, 924, 925, 926, 927, 928, 929, 930, 931, 932, 933, 934, 935, 936, 937, 938, 939, 940, 941, 942, 943, 944, 945, 946, 947, 948, 949, 950, 951, 952, 953, 954, 955, 956, 957, 958, 959, 960, 961, 962, 963, 964, 965, 966, 967, 968, 969, 970, 971, 972, 973, 974, 975, 976, 977, 978, 979, 980, 981, 982, 983, 984, 985, 986, 987, 988, 989, 990, 991, 992, 993, 994, 995, 996, 997, 998, 999, 1000])];
            tensor<string, []> scatter_14_mode_0 = const()[name = tensor<string, []>("scatter_14_mode_0"), val = tensor<string, []>("update")];
            tensor<int32, []> scatter_14_axis_0 = const()[name = tensor<string, []>("scatter_14_axis_0"), val = tensor<int32, []>(0)];
            tensor<bool, []> scatter_14_validate_indices_0 = const()[name = tensor<string, []>("scatter_14_validate_indices_0"), val = tensor<bool, []>(false)];
            tensor<fp16, [1767]> scatter_14_cast_fp16 = scatter(axis = scatter_14_axis_0, data = scatter_12_cast_fp16, indices = slice_by_index_14, mode = scatter_14_mode_0, updates = var_449_cast_fp16, validate_indices = scatter_14_validate_indices_0)[name = tensor<string, []>("scatter_14_cast_fp16")];
            tensor<int32, [1]> var_459_begin_0 = const()[name = tensor<string, []>("op_459_begin_0"), val = tensor<int32, [1]>([412])];
            tensor<int32, [1]> var_459_end_0 = const()[name = tensor<string, []>("op_459_end_0"), val = tensor<int32, [1]>([1001])];
            tensor<bool, [1]> var_459_end_mask_0 = const()[name = tensor<string, []>("op_459_end_mask_0"), val = tensor<bool, [1]>([false])];
            tensor<fp16, [589]> var_459_cast_fp16 = slice_by_index(begin = var_459_begin_0, end = var_459_end_0, end_mask = var_459_end_mask_0, x = scatter_13_cast_fp16)[name = tensor<string, []>("op_459_cast_fp16")];
            tensor<fp16, []> var_460_to_fp16 = const()[name = tensor<string, []>("op_460_to_fp16"), val = tensor<fp16, []>(0x1p+0)];
            tensor<fp16, [589]> var_462_cast_fp16 = add(x = var_459_cast_fp16, y = var_460_to_fp16)[name = tensor<string, []>("op_462_cast_fp16")];
            tensor<string, []> scatter_15_mode_0 = const()[name = tensor<string, []>("scatter_15_mode_0"), val = tensor<string, []>("update")];
            tensor<int32, []> scatter_15_axis_0 = const()[name = tensor<string, []>("scatter_15_axis_0"), val = tensor<int32, []>(0)];
            tensor<bool, []> scatter_15_validate_indices_0 = const()[name = tensor<string, []>("scatter_15_validate_indices_0"), val = tensor<bool, []>(false)];
            tensor<fp16, [1767]> scatter_15_cast_fp16 = scatter(axis = scatter_15_axis_0, data = scatter_13_cast_fp16, indices = slice_by_index_14, mode = scatter_15_mode_0, updates = var_462_cast_fp16, validate_indices = scatter_15_validate_indices_0)[name = tensor<string, []>("scatter_15_cast_fp16")];
            tensor<int32, [1]> var_479_begin_0 = const()[name = tensor<string, []>("op_479_begin_0"), val = tensor<int32, [1]>([471])];
            tensor<int32, [1]> var_479_end_0 = const()[name = tensor<string, []>("op_479_end_0"), val = tensor<int32, [1]>([1060])];
            tensor<bool, [1]> var_479_end_mask_0 = const()[name = tensor<string, []>("op_479_end_mask_0"), val = tensor<bool, [1]>([false])];
            tensor<fp16, [589]> var_479_cast_fp16 = slice_by_index(begin = var_479_begin_0, end = var_479_end_0, end_mask = var_479_end_mask_0, x = scatter_14_cast_fp16)[name = tensor<string, []>("op_479_cast_fp16")];
            tensor<int32, [2]> var_482_begin_0 = const()[name = tensor<string, []>("op_482_begin_0"), val = tensor<int32, [2]>([8, 0])];
            tensor<int32, [2]> var_482_end_0 = const()[name = tensor<string, []>("op_482_end_0"), val = tensor<int32, [2]>([9, 589])];
            tensor<bool, [2]> var_482_end_mask_0 = const()[name = tensor<string, []>("op_482_end_mask_0"), val = tensor<bool, [2]>([false, true])];
            tensor<bool, [2]> var_482_squeeze_mask_0 = const()[name = tensor<string, []>("op_482_squeeze_mask_0"), val = tensor<bool, [2]>([true, false])];
            tensor<fp16, [589]> var_482_cast_fp16 = slice_by_index(begin = var_482_begin_0, end = var_482_end_0, end_mask = var_482_end_mask_0, squeeze_mask = var_482_squeeze_mask_0, x = reduce_max_0_cast_fp16)[name = tensor<string, []>("op_482_cast_fp16")];
            tensor<fp16, [589]> var_484_cast_fp16 = add(x = var_479_cast_fp16, y = var_482_cast_fp16)[name = tensor<string, []>("op_484_cast_fp16")];
            tensor<int32, [589]> slice_by_index_16 = const()[name = tensor<string, []>("slice_by_index_16"), val = tensor<int32, [589]>([471, 472, 473, 474, 475, 476, 477, 478, 479, 480, 481, 482, 483, 484, 485, 486, 487, 488, 489, 490, 491, 492, 493, 494, 495, 496, 497, 498, 499, 500, 501, 502, 503, 504, 505, 506, 507, 508, 509, 510, 511, 512, 513, 514, 515, 516, 517, 518, 519, 520, 521, 522, 523, 524, 525, 526, 527, 528, 529, 530, 531, 532, 533, 534, 535, 536, 537, 538, 539, 540, 541, 542, 543, 544, 545, 546, 547, 548, 549, 550, 551, 552, 553, 554, 555, 556, 557, 558, 559, 560, 561, 562, 563, 564, 565, 566, 567, 568, 569, 570, 571, 572, 573, 574, 575, 576, 577, 578, 579, 580, 581, 582, 583, 584, 585, 586, 587, 588, 589, 590, 591, 592, 593, 594, 595, 596, 597, 598, 599, 600, 601, 602, 603, 604, 605, 606, 607, 608, 609, 610, 611, 612, 613, 614, 615, 616, 617, 618, 619, 620, 621, 622, 623, 624, 625, 626, 627, 628, 629, 630, 631, 632, 633, 634, 635, 636, 637, 638, 639, 640, 641, 642, 643, 644, 645, 646, 647, 648, 649, 650, 651, 652, 653, 654, 655, 656, 657, 658, 659, 660, 661, 662, 663, 664, 665, 666, 667, 668, 669, 670, 671, 672, 673, 674, 675, 676, 677, 678, 679, 680, 681, 682, 683, 684, 685, 686, 687, 688, 689, 690, 691, 692, 693, 694, 695, 696, 697, 698, 699, 700, 701, 702, 703, 704, 705, 706, 707, 708, 709, 710, 711, 712, 713, 714, 715, 716, 717, 718, 719, 720, 721, 722, 723, 724, 725, 726, 727, 728, 729, 730, 731, 732, 733, 734, 735, 736, 737, 738, 739, 740, 741, 742, 743, 744, 745, 746, 747, 748, 749, 750, 751, 752, 753, 754, 755, 756, 757, 758, 759, 760, 761, 762, 763, 764, 765, 766, 767, 768, 769, 770, 771, 772, 773, 774, 775, 776, 777, 778, 779, 780, 781, 782, 783, 784, 785, 786, 787, 788, 789, 790, 791, 792, 793, 794, 795, 796, 797, 798, 799, 800, 801, 802, 803, 804, 805, 806, 807, 808, 809, 810, 811, 812, 813, 814, 815, 816, 817, 818, 819, 820, 821, 822, 823, 824, 825, 826, 827, 828, 829, 830, 831, 832, 833, 834, 835, 836, 837, 838, 839, 840, 841, 842, 843, 844, 845, 846, 847, 848, 849, 850, 851, 852, 853, 854, 855, 856, 857, 858, 859, 860, 861, 862, 863, 864, 865, 866, 867, 868, 869, 870, 871, 872, 873, 874, 875, 876, 877, 878, 879, 880, 881, 882, 883, 884, 885, 886, 887, 888, 889, 890, 891, 892, 893, 894, 895, 896, 897, 898, 899, 900, 901, 902, 903, 904, 905, 906, 907, 908, 909, 910, 911, 912, 913, 914, 915, 916, 917, 918, 919, 920, 921, 922, 923, 924, 925, 926, 927, 928, 929, 930, 931, 932, 933, 934, 935, 936, 937, 938, 939, 940, 941, 942, 943, 944, 945, 946, 947, 948, 949, 950, 951, 952, 953, 954, 955, 956, 957, 958, 959, 960, 961, 962, 963, 964, 965, 966, 967, 968, 969, 970, 971, 972, 973, 974, 975, 976, 977, 978, 979, 980, 981, 982, 983, 984, 985, 986, 987, 988, 989, 990, 991, 992, 993, 994, 995, 996, 997, 998, 999, 1000, 1001, 1002, 1003, 1004, 1005, 1006, 1007, 1008, 1009, 1010, 1011, 1012, 1013, 1014, 1015, 1016, 1017, 1018, 1019, 1020, 1021, 1022, 1023, 1024, 1025, 1026, 1027, 1028, 1029, 1030, 1031, 1032, 1033, 1034, 1035, 1036, 1037, 1038, 1039, 1040, 1041, 1042, 1043, 1044, 1045, 1046, 1047, 1048, 1049, 1050, 1051, 1052, 1053, 1054, 1055, 1056, 1057, 1058, 1059])];
            tensor<string, []> scatter_16_mode_0 = const()[name = tensor<string, []>("scatter_16_mode_0"), val = tensor<string, []>("update")];
            tensor<int32, []> scatter_16_axis_0 = const()[name = tensor<string, []>("scatter_16_axis_0"), val = tensor<int32, []>(0)];
            tensor<bool, []> scatter_16_validate_indices_0 = const()[name = tensor<string, []>("scatter_16_validate_indices_0"), val = tensor<bool, []>(false)];
            tensor<fp16, [1767]> scatter_16_cast_fp16 = scatter(axis = scatter_16_axis_0, data = scatter_14_cast_fp16, indices = slice_by_index_16, mode = scatter_16_mode_0, updates = var_484_cast_fp16, validate_indices = scatter_16_validate_indices_0)[name = tensor<string, []>("scatter_16_cast_fp16")];
            tensor<int32, [1]> var_494_begin_0 = const()[name = tensor<string, []>("op_494_begin_0"), val = tensor<int32, [1]>([471])];
            tensor<int32, [1]> var_494_end_0 = const()[name = tensor<string, []>("op_494_end_0"), val = tensor<int32, [1]>([1060])];
            tensor<bool, [1]> var_494_end_mask_0 = const()[name = tensor<string, []>("op_494_end_mask_0"), val = tensor<bool, [1]>([false])];
            tensor<fp16, [589]> var_494_cast_fp16 = slice_by_index(begin = var_494_begin_0, end = var_494_end_0, end_mask = var_494_end_mask_0, x = scatter_15_cast_fp16)[name = tensor<string, []>("op_494_cast_fp16")];
            tensor<fp16, []> var_495_to_fp16 = const()[name = tensor<string, []>("op_495_to_fp16"), val = tensor<fp16, []>(0x1p+0)];
            tensor<fp16, [589]> var_497_cast_fp16 = add(x = var_494_cast_fp16, y = var_495_to_fp16)[name = tensor<string, []>("op_497_cast_fp16")];
            tensor<string, []> scatter_17_mode_0 = const()[name = tensor<string, []>("scatter_17_mode_0"), val = tensor<string, []>("update")];
            tensor<int32, []> scatter_17_axis_0 = const()[name = tensor<string, []>("scatter_17_axis_0"), val = tensor<int32, []>(0)];
            tensor<bool, []> scatter_17_validate_indices_0 = const()[name = tensor<string, []>("scatter_17_validate_indices_0"), val = tensor<bool, []>(false)];
            tensor<fp16, [1767]> scatter_17_cast_fp16 = scatter(axis = scatter_17_axis_0, data = scatter_15_cast_fp16, indices = slice_by_index_16, mode = scatter_17_mode_0, updates = var_497_cast_fp16, validate_indices = scatter_17_validate_indices_0)[name = tensor<string, []>("scatter_17_cast_fp16")];
            tensor<int32, [1]> var_514_begin_0 = const()[name = tensor<string, []>("op_514_begin_0"), val = tensor<int32, [1]>([530])];
            tensor<int32, [1]> var_514_end_0 = const()[name = tensor<string, []>("op_514_end_0"), val = tensor<int32, [1]>([1119])];
            tensor<bool, [1]> var_514_end_mask_0 = const()[name = tensor<string, []>("op_514_end_mask_0"), val = tensor<bool, [1]>([false])];
            tensor<fp16, [589]> var_514_cast_fp16 = slice_by_index(begin = var_514_begin_0, end = var_514_end_0, end_mask = var_514_end_mask_0, x = scatter_16_cast_fp16)[name = tensor<string, []>("op_514_cast_fp16")];
            tensor<int32, [2]> var_517_begin_0 = const()[name = tensor<string, []>("op_517_begin_0"), val = tensor<int32, [2]>([9, 0])];
            tensor<int32, [2]> var_517_end_0 = const()[name = tensor<string, []>("op_517_end_0"), val = tensor<int32, [2]>([10, 589])];
            tensor<bool, [2]> var_517_end_mask_0 = const()[name = tensor<string, []>("op_517_end_mask_0"), val = tensor<bool, [2]>([false, true])];
            tensor<bool, [2]> var_517_squeeze_mask_0 = const()[name = tensor<string, []>("op_517_squeeze_mask_0"), val = tensor<bool, [2]>([true, false])];
            tensor<fp16, [589]> var_517_cast_fp16 = slice_by_index(begin = var_517_begin_0, end = var_517_end_0, end_mask = var_517_end_mask_0, squeeze_mask = var_517_squeeze_mask_0, x = reduce_max_0_cast_fp16)[name = tensor<string, []>("op_517_cast_fp16")];
            tensor<fp16, [589]> var_519_cast_fp16 = add(x = var_514_cast_fp16, y = var_517_cast_fp16)[name = tensor<string, []>("op_519_cast_fp16")];
            tensor<int32, [589]> slice_by_index_18 = const()[name = tensor<string, []>("slice_by_index_18"), val = tensor<int32, [589]>([530, 531, 532, 533, 534, 535, 536, 537, 538, 539, 540, 541, 542, 543, 544, 545, 546, 547, 548, 549, 550, 551, 552, 553, 554, 555, 556, 557, 558, 559, 560, 561, 562, 563, 564, 565, 566, 567, 568, 569, 570, 571, 572, 573, 574, 575, 576, 577, 578, 579, 580, 581, 582, 583, 584, 585, 586, 587, 588, 589, 590, 591, 592, 593, 594, 595, 596, 597, 598, 599, 600, 601, 602, 603, 604, 605, 606, 607, 608, 609, 610, 611, 612, 613, 614, 615, 616, 617, 618, 619, 620, 621, 622, 623, 624, 625, 626, 627, 628, 629, 630, 631, 632, 633, 634, 635, 636, 637, 638, 639, 640, 641, 642, 643, 644, 645, 646, 647, 648, 649, 650, 651, 652, 653, 654, 655, 656, 657, 658, 659, 660, 661, 662, 663, 664, 665, 666, 667, 668, 669, 670, 671, 672, 673, 674, 675, 676, 677, 678, 679, 680, 681, 682, 683, 684, 685, 686, 687, 688, 689, 690, 691, 692, 693, 694, 695, 696, 697, 698, 699, 700, 701, 702, 703, 704, 705, 706, 707, 708, 709, 710, 711, 712, 713, 714, 715, 716, 717, 718, 719, 720, 721, 722, 723, 724, 725, 726, 727, 728, 729, 730, 731, 732, 733, 734, 735, 736, 737, 738, 739, 740, 741, 742, 743, 744, 745, 746, 747, 748, 749, 750, 751, 752, 753, 754, 755, 756, 757, 758, 759, 760, 761, 762, 763, 764, 765, 766, 767, 768, 769, 770, 771, 772, 773, 774, 775, 776, 777, 778, 779, 780, 781, 782, 783, 784, 785, 786, 787, 788, 789, 790, 791, 792, 793, 794, 795, 796, 797, 798, 799, 800, 801, 802, 803, 804, 805, 806, 807, 808, 809, 810, 811, 812, 813, 814, 815, 816, 817, 818, 819, 820, 821, 822, 823, 824, 825, 826, 827, 828, 829, 830, 831, 832, 833, 834, 835, 836, 837, 838, 839, 840, 841, 842, 843, 844, 845, 846, 847, 848, 849, 850, 851, 852, 853, 854, 855, 856, 857, 858, 859, 860, 861, 862, 863, 864, 865, 866, 867, 868, 869, 870, 871, 872, 873, 874, 875, 876, 877, 878, 879, 880, 881, 882, 883, 884, 885, 886, 887, 888, 889, 890, 891, 892, 893, 894, 895, 896, 897, 898, 899, 900, 901, 902, 903, 904, 905, 906, 907, 908, 909, 910, 911, 912, 913, 914, 915, 916, 917, 918, 919, 920, 921, 922, 923, 924, 925, 926, 927, 928, 929, 930, 931, 932, 933, 934, 935, 936, 937, 938, 939, 940, 941, 942, 943, 944, 945, 946, 947, 948, 949, 950, 951, 952, 953, 954, 955, 956, 957, 958, 959, 960, 961, 962, 963, 964, 965, 966, 967, 968, 969, 970, 971, 972, 973, 974, 975, 976, 977, 978, 979, 980, 981, 982, 983, 984, 985, 986, 987, 988, 989, 990, 991, 992, 993, 994, 995, 996, 997, 998, 999, 1000, 1001, 1002, 1003, 1004, 1005, 1006, 1007, 1008, 1009, 1010, 1011, 1012, 1013, 1014, 1015, 1016, 1017, 1018, 1019, 1020, 1021, 1022, 1023, 1024, 1025, 1026, 1027, 1028, 1029, 1030, 1031, 1032, 1033, 1034, 1035, 1036, 1037, 1038, 1039, 1040, 1041, 1042, 1043, 1044, 1045, 1046, 1047, 1048, 1049, 1050, 1051, 1052, 1053, 1054, 1055, 1056, 1057, 1058, 1059, 1060, 1061, 1062, 1063, 1064, 1065, 1066, 1067, 1068, 1069, 1070, 1071, 1072, 1073, 1074, 1075, 1076, 1077, 1078, 1079, 1080, 1081, 1082, 1083, 1084, 1085, 1086, 1087, 1088, 1089, 1090, 1091, 1092, 1093, 1094, 1095, 1096, 1097, 1098, 1099, 1100, 1101, 1102, 1103, 1104, 1105, 1106, 1107, 1108, 1109, 1110, 1111, 1112, 1113, 1114, 1115, 1116, 1117, 1118])];
            tensor<string, []> scatter_18_mode_0 = const()[name = tensor<string, []>("scatter_18_mode_0"), val = tensor<string, []>("update")];
            tensor<int32, []> scatter_18_axis_0 = const()[name = tensor<string, []>("scatter_18_axis_0"), val = tensor<int32, []>(0)];
            tensor<bool, []> scatter_18_validate_indices_0 = const()[name = tensor<string, []>("scatter_18_validate_indices_0"), val = tensor<bool, []>(false)];
            tensor<fp16, [1767]> scatter_18_cast_fp16 = scatter(axis = scatter_18_axis_0, data = scatter_16_cast_fp16, indices = slice_by_index_18, mode = scatter_18_mode_0, updates = var_519_cast_fp16, validate_indices = scatter_18_validate_indices_0)[name = tensor<string, []>("scatter_18_cast_fp16")];
            tensor<int32, [1]> var_529_begin_0 = const()[name = tensor<string, []>("op_529_begin_0"), val = tensor<int32, [1]>([530])];
            tensor<int32, [1]> var_529_end_0 = const()[name = tensor<string, []>("op_529_end_0"), val = tensor<int32, [1]>([1119])];
            tensor<bool, [1]> var_529_end_mask_0 = const()[name = tensor<string, []>("op_529_end_mask_0"), val = tensor<bool, [1]>([false])];
            tensor<fp16, [589]> var_529_cast_fp16 = slice_by_index(begin = var_529_begin_0, end = var_529_end_0, end_mask = var_529_end_mask_0, x = scatter_17_cast_fp16)[name = tensor<string, []>("op_529_cast_fp16")];
            tensor<fp16, []> var_530_to_fp16 = const()[name = tensor<string, []>("op_530_to_fp16"), val = tensor<fp16, []>(0x1p+0)];
            tensor<fp16, [589]> var_532_cast_fp16 = add(x = var_529_cast_fp16, y = var_530_to_fp16)[name = tensor<string, []>("op_532_cast_fp16")];
            tensor<string, []> scatter_19_mode_0 = const()[name = tensor<string, []>("scatter_19_mode_0"), val = tensor<string, []>("update")];
            tensor<int32, []> scatter_19_axis_0 = const()[name = tensor<string, []>("scatter_19_axis_0"), val = tensor<int32, []>(0)];
            tensor<bool, []> scatter_19_validate_indices_0 = const()[name = tensor<string, []>("scatter_19_validate_indices_0"), val = tensor<bool, []>(false)];
            tensor<fp16, [1767]> scatter_19_cast_fp16 = scatter(axis = scatter_19_axis_0, data = scatter_17_cast_fp16, indices = slice_by_index_18, mode = scatter_19_mode_0, updates = var_532_cast_fp16, validate_indices = scatter_19_validate_indices_0)[name = tensor<string, []>("scatter_19_cast_fp16")];
            tensor<int32, [1]> var_549_begin_0 = const()[name = tensor<string, []>("op_549_begin_0"), val = tensor<int32, [1]>([589])];
            tensor<int32, [1]> var_549_end_0 = const()[name = tensor<string, []>("op_549_end_0"), val = tensor<int32, [1]>([1178])];
            tensor<bool, [1]> var_549_end_mask_0 = const()[name = tensor<string, []>("op_549_end_mask_0"), val = tensor<bool, [1]>([false])];
            tensor<fp16, [589]> var_549_cast_fp16 = slice_by_index(begin = var_549_begin_0, end = var_549_end_0, end_mask = var_549_end_mask_0, x = scatter_18_cast_fp16)[name = tensor<string, []>("op_549_cast_fp16")];
            tensor<int32, [2]> var_552_begin_0 = const()[name = tensor<string, []>("op_552_begin_0"), val = tensor<int32, [2]>([10, 0])];
            tensor<int32, [2]> var_552_end_0 = const()[name = tensor<string, []>("op_552_end_0"), val = tensor<int32, [2]>([11, 589])];
            tensor<bool, [2]> var_552_end_mask_0 = const()[name = tensor<string, []>("op_552_end_mask_0"), val = tensor<bool, [2]>([false, true])];
            tensor<bool, [2]> var_552_squeeze_mask_0 = const()[name = tensor<string, []>("op_552_squeeze_mask_0"), val = tensor<bool, [2]>([true, false])];
            tensor<fp16, [589]> var_552_cast_fp16 = slice_by_index(begin = var_552_begin_0, end = var_552_end_0, end_mask = var_552_end_mask_0, squeeze_mask = var_552_squeeze_mask_0, x = reduce_max_0_cast_fp16)[name = tensor<string, []>("op_552_cast_fp16")];
            tensor<fp16, [589]> var_554_cast_fp16 = add(x = var_549_cast_fp16, y = var_552_cast_fp16)[name = tensor<string, []>("op_554_cast_fp16")];
            tensor<int32, [589]> slice_by_index_20 = const()[name = tensor<string, []>("slice_by_index_20"), val = tensor<int32, [589]>([589, 590, 591, 592, 593, 594, 595, 596, 597, 598, 599, 600, 601, 602, 603, 604, 605, 606, 607, 608, 609, 610, 611, 612, 613, 614, 615, 616, 617, 618, 619, 620, 621, 622, 623, 624, 625, 626, 627, 628, 629, 630, 631, 632, 633, 634, 635, 636, 637, 638, 639, 640, 641, 642, 643, 644, 645, 646, 647, 648, 649, 650, 651, 652, 653, 654, 655, 656, 657, 658, 659, 660, 661, 662, 663, 664, 665, 666, 667, 668, 669, 670, 671, 672, 673, 674, 675, 676, 677, 678, 679, 680, 681, 682, 683, 684, 685, 686, 687, 688, 689, 690, 691, 692, 693, 694, 695, 696, 697, 698, 699, 700, 701, 702, 703, 704, 705, 706, 707, 708, 709, 710, 711, 712, 713, 714, 715, 716, 717, 718, 719, 720, 721, 722, 723, 724, 725, 726, 727, 728, 729, 730, 731, 732, 733, 734, 735, 736, 737, 738, 739, 740, 741, 742, 743, 744, 745, 746, 747, 748, 749, 750, 751, 752, 753, 754, 755, 756, 757, 758, 759, 760, 761, 762, 763, 764, 765, 766, 767, 768, 769, 770, 771, 772, 773, 774, 775, 776, 777, 778, 779, 780, 781, 782, 783, 784, 785, 786, 787, 788, 789, 790, 791, 792, 793, 794, 795, 796, 797, 798, 799, 800, 801, 802, 803, 804, 805, 806, 807, 808, 809, 810, 811, 812, 813, 814, 815, 816, 817, 818, 819, 820, 821, 822, 823, 824, 825, 826, 827, 828, 829, 830, 831, 832, 833, 834, 835, 836, 837, 838, 839, 840, 841, 842, 843, 844, 845, 846, 847, 848, 849, 850, 851, 852, 853, 854, 855, 856, 857, 858, 859, 860, 861, 862, 863, 864, 865, 866, 867, 868, 869, 870, 871, 872, 873, 874, 875, 876, 877, 878, 879, 880, 881, 882, 883, 884, 885, 886, 887, 888, 889, 890, 891, 892, 893, 894, 895, 896, 897, 898, 899, 900, 901, 902, 903, 904, 905, 906, 907, 908, 909, 910, 911, 912, 913, 914, 915, 916, 917, 918, 919, 920, 921, 922, 923, 924, 925, 926, 927, 928, 929, 930, 931, 932, 933, 934, 935, 936, 937, 938, 939, 940, 941, 942, 943, 944, 945, 946, 947, 948, 949, 950, 951, 952, 953, 954, 955, 956, 957, 958, 959, 960, 961, 962, 963, 964, 965, 966, 967, 968, 969, 970, 971, 972, 973, 974, 975, 976, 977, 978, 979, 980, 981, 982, 983, 984, 985, 986, 987, 988, 989, 990, 991, 992, 993, 994, 995, 996, 997, 998, 999, 1000, 1001, 1002, 1003, 1004, 1005, 1006, 1007, 1008, 1009, 1010, 1011, 1012, 1013, 1014, 1015, 1016, 1017, 1018, 1019, 1020, 1021, 1022, 1023, 1024, 1025, 1026, 1027, 1028, 1029, 1030, 1031, 1032, 1033, 1034, 1035, 1036, 1037, 1038, 1039, 1040, 1041, 1042, 1043, 1044, 1045, 1046, 1047, 1048, 1049, 1050, 1051, 1052, 1053, 1054, 1055, 1056, 1057, 1058, 1059, 1060, 1061, 1062, 1063, 1064, 1065, 1066, 1067, 1068, 1069, 1070, 1071, 1072, 1073, 1074, 1075, 1076, 1077, 1078, 1079, 1080, 1081, 1082, 1083, 1084, 1085, 1086, 1087, 1088, 1089, 1090, 1091, 1092, 1093, 1094, 1095, 1096, 1097, 1098, 1099, 1100, 1101, 1102, 1103, 1104, 1105, 1106, 1107, 1108, 1109, 1110, 1111, 1112, 1113, 1114, 1115, 1116, 1117, 1118, 1119, 1120, 1121, 1122, 1123, 1124, 1125, 1126, 1127, 1128, 1129, 1130, 1131, 1132, 1133, 1134, 1135, 1136, 1137, 1138, 1139, 1140, 1141, 1142, 1143, 1144, 1145, 1146, 1147, 1148, 1149, 1150, 1151, 1152, 1153, 1154, 1155, 1156, 1157, 1158, 1159, 1160, 1161, 1162, 1163, 1164, 1165, 1166, 1167, 1168, 1169, 1170, 1171, 1172, 1173, 1174, 1175, 1176, 1177])];
            tensor<string, []> scatter_20_mode_0 = const()[name = tensor<string, []>("scatter_20_mode_0"), val = tensor<string, []>("update")];
            tensor<int32, []> scatter_20_axis_0 = const()[name = tensor<string, []>("scatter_20_axis_0"), val = tensor<int32, []>(0)];
            tensor<bool, []> scatter_20_validate_indices_0 = const()[name = tensor<string, []>("scatter_20_validate_indices_0"), val = tensor<bool, []>(false)];
            tensor<fp16, [1767]> scatter_20_cast_fp16 = scatter(axis = scatter_20_axis_0, data = scatter_18_cast_fp16, indices = slice_by_index_20, mode = scatter_20_mode_0, updates = var_554_cast_fp16, validate_indices = scatter_20_validate_indices_0)[name = tensor<string, []>("scatter_20_cast_fp16")];
            tensor<int32, [1]> var_564_begin_0 = const()[name = tensor<string, []>("op_564_begin_0"), val = tensor<int32, [1]>([589])];
            tensor<int32, [1]> var_564_end_0 = const()[name = tensor<string, []>("op_564_end_0"), val = tensor<int32, [1]>([1178])];
            tensor<bool, [1]> var_564_end_mask_0 = const()[name = tensor<string, []>("op_564_end_mask_0"), val = tensor<bool, [1]>([false])];
            tensor<fp16, [589]> var_564_cast_fp16 = slice_by_index(begin = var_564_begin_0, end = var_564_end_0, end_mask = var_564_end_mask_0, x = scatter_19_cast_fp16)[name = tensor<string, []>("op_564_cast_fp16")];
            tensor<fp16, []> var_565_to_fp16 = const()[name = tensor<string, []>("op_565_to_fp16"), val = tensor<fp16, []>(0x1p+0)];
            tensor<fp16, [589]> var_567_cast_fp16 = add(x = var_564_cast_fp16, y = var_565_to_fp16)[name = tensor<string, []>("op_567_cast_fp16")];
            tensor<string, []> scatter_21_mode_0 = const()[name = tensor<string, []>("scatter_21_mode_0"), val = tensor<string, []>("update")];
            tensor<int32, []> scatter_21_axis_0 = const()[name = tensor<string, []>("scatter_21_axis_0"), val = tensor<int32, []>(0)];
            tensor<bool, []> scatter_21_validate_indices_0 = const()[name = tensor<string, []>("scatter_21_validate_indices_0"), val = tensor<bool, []>(false)];
            tensor<fp16, [1767]> scatter_21_cast_fp16 = scatter(axis = scatter_21_axis_0, data = scatter_19_cast_fp16, indices = slice_by_index_20, mode = scatter_21_mode_0, updates = var_567_cast_fp16, validate_indices = scatter_21_validate_indices_0)[name = tensor<string, []>("scatter_21_cast_fp16")];
            tensor<int32, [1]> var_584_begin_0 = const()[name = tensor<string, []>("op_584_begin_0"), val = tensor<int32, [1]>([647])];
            tensor<int32, [1]> var_584_end_0 = const()[name = tensor<string, []>("op_584_end_0"), val = tensor<int32, [1]>([1236])];
            tensor<bool, [1]> var_584_end_mask_0 = const()[name = tensor<string, []>("op_584_end_mask_0"), val = tensor<bool, [1]>([false])];
            tensor<fp16, [589]> var_584_cast_fp16 = slice_by_index(begin = var_584_begin_0, end = var_584_end_0, end_mask = var_584_end_mask_0, x = scatter_20_cast_fp16)[name = tensor<string, []>("op_584_cast_fp16")];
            tensor<int32, [2]> var_587_begin_0 = const()[name = tensor<string, []>("op_587_begin_0"), val = tensor<int32, [2]>([11, 0])];
            tensor<int32, [2]> var_587_end_0 = const()[name = tensor<string, []>("op_587_end_0"), val = tensor<int32, [2]>([12, 589])];
            tensor<bool, [2]> var_587_end_mask_0 = const()[name = tensor<string, []>("op_587_end_mask_0"), val = tensor<bool, [2]>([false, true])];
            tensor<bool, [2]> var_587_squeeze_mask_0 = const()[name = tensor<string, []>("op_587_squeeze_mask_0"), val = tensor<bool, [2]>([true, false])];
            tensor<fp16, [589]> var_587_cast_fp16 = slice_by_index(begin = var_587_begin_0, end = var_587_end_0, end_mask = var_587_end_mask_0, squeeze_mask = var_587_squeeze_mask_0, x = reduce_max_0_cast_fp16)[name = tensor<string, []>("op_587_cast_fp16")];
            tensor<fp16, [589]> var_589_cast_fp16 = add(x = var_584_cast_fp16, y = var_587_cast_fp16)[name = tensor<string, []>("op_589_cast_fp16")];
            tensor<int32, [589]> slice_by_index_22 = const()[name = tensor<string, []>("slice_by_index_22"), val = tensor<int32, [589]>([647, 648, 649, 650, 651, 652, 653, 654, 655, 656, 657, 658, 659, 660, 661, 662, 663, 664, 665, 666, 667, 668, 669, 670, 671, 672, 673, 674, 675, 676, 677, 678, 679, 680, 681, 682, 683, 684, 685, 686, 687, 688, 689, 690, 691, 692, 693, 694, 695, 696, 697, 698, 699, 700, 701, 702, 703, 704, 705, 706, 707, 708, 709, 710, 711, 712, 713, 714, 715, 716, 717, 718, 719, 720, 721, 722, 723, 724, 725, 726, 727, 728, 729, 730, 731, 732, 733, 734, 735, 736, 737, 738, 739, 740, 741, 742, 743, 744, 745, 746, 747, 748, 749, 750, 751, 752, 753, 754, 755, 756, 757, 758, 759, 760, 761, 762, 763, 764, 765, 766, 767, 768, 769, 770, 771, 772, 773, 774, 775, 776, 777, 778, 779, 780, 781, 782, 783, 784, 785, 786, 787, 788, 789, 790, 791, 792, 793, 794, 795, 796, 797, 798, 799, 800, 801, 802, 803, 804, 805, 806, 807, 808, 809, 810, 811, 812, 813, 814, 815, 816, 817, 818, 819, 820, 821, 822, 823, 824, 825, 826, 827, 828, 829, 830, 831, 832, 833, 834, 835, 836, 837, 838, 839, 840, 841, 842, 843, 844, 845, 846, 847, 848, 849, 850, 851, 852, 853, 854, 855, 856, 857, 858, 859, 860, 861, 862, 863, 864, 865, 866, 867, 868, 869, 870, 871, 872, 873, 874, 875, 876, 877, 878, 879, 880, 881, 882, 883, 884, 885, 886, 887, 888, 889, 890, 891, 892, 893, 894, 895, 896, 897, 898, 899, 900, 901, 902, 903, 904, 905, 906, 907, 908, 909, 910, 911, 912, 913, 914, 915, 916, 917, 918, 919, 920, 921, 922, 923, 924, 925, 926, 927, 928, 929, 930, 931, 932, 933, 934, 935, 936, 937, 938, 939, 940, 941, 942, 943, 944, 945, 946, 947, 948, 949, 950, 951, 952, 953, 954, 955, 956, 957, 958, 959, 960, 961, 962, 963, 964, 965, 966, 967, 968, 969, 970, 971, 972, 973, 974, 975, 976, 977, 978, 979, 980, 981, 982, 983, 984, 985, 986, 987, 988, 989, 990, 991, 992, 993, 994, 995, 996, 997, 998, 999, 1000, 1001, 1002, 1003, 1004, 1005, 1006, 1007, 1008, 1009, 1010, 1011, 1012, 1013, 1014, 1015, 1016, 1017, 1018, 1019, 1020, 1021, 1022, 1023, 1024, 1025, 1026, 1027, 1028, 1029, 1030, 1031, 1032, 1033, 1034, 1035, 1036, 1037, 1038, 1039, 1040, 1041, 1042, 1043, 1044, 1045, 1046, 1047, 1048, 1049, 1050, 1051, 1052, 1053, 1054, 1055, 1056, 1057, 1058, 1059, 1060, 1061, 1062, 1063, 1064, 1065, 1066, 1067, 1068, 1069, 1070, 1071, 1072, 1073, 1074, 1075, 1076, 1077, 1078, 1079, 1080, 1081, 1082, 1083, 1084, 1085, 1086, 1087, 1088, 1089, 1090, 1091, 1092, 1093, 1094, 1095, 1096, 1097, 1098, 1099, 1100, 1101, 1102, 1103, 1104, 1105, 1106, 1107, 1108, 1109, 1110, 1111, 1112, 1113, 1114, 1115, 1116, 1117, 1118, 1119, 1120, 1121, 1122, 1123, 1124, 1125, 1126, 1127, 1128, 1129, 1130, 1131, 1132, 1133, 1134, 1135, 1136, 1137, 1138, 1139, 1140, 1141, 1142, 1143, 1144, 1145, 1146, 1147, 1148, 1149, 1150, 1151, 1152, 1153, 1154, 1155, 1156, 1157, 1158, 1159, 1160, 1161, 1162, 1163, 1164, 1165, 1166, 1167, 1168, 1169, 1170, 1171, 1172, 1173, 1174, 1175, 1176, 1177, 1178, 1179, 1180, 1181, 1182, 1183, 1184, 1185, 1186, 1187, 1188, 1189, 1190, 1191, 1192, 1193, 1194, 1195, 1196, 1197, 1198, 1199, 1200, 1201, 1202, 1203, 1204, 1205, 1206, 1207, 1208, 1209, 1210, 1211, 1212, 1213, 1214, 1215, 1216, 1217, 1218, 1219, 1220, 1221, 1222, 1223, 1224, 1225, 1226, 1227, 1228, 1229, 1230, 1231, 1232, 1233, 1234, 1235])];
            tensor<string, []> scatter_22_mode_0 = const()[name = tensor<string, []>("scatter_22_mode_0"), val = tensor<string, []>("update")];
            tensor<int32, []> scatter_22_axis_0 = const()[name = tensor<string, []>("scatter_22_axis_0"), val = tensor<int32, []>(0)];
            tensor<bool, []> scatter_22_validate_indices_0 = const()[name = tensor<string, []>("scatter_22_validate_indices_0"), val = tensor<bool, []>(false)];
            tensor<fp16, [1767]> scatter_22_cast_fp16 = scatter(axis = scatter_22_axis_0, data = scatter_20_cast_fp16, indices = slice_by_index_22, mode = scatter_22_mode_0, updates = var_589_cast_fp16, validate_indices = scatter_22_validate_indices_0)[name = tensor<string, []>("scatter_22_cast_fp16")];
            tensor<int32, [1]> var_599_begin_0 = const()[name = tensor<string, []>("op_599_begin_0"), val = tensor<int32, [1]>([647])];
            tensor<int32, [1]> var_599_end_0 = const()[name = tensor<string, []>("op_599_end_0"), val = tensor<int32, [1]>([1236])];
            tensor<bool, [1]> var_599_end_mask_0 = const()[name = tensor<string, []>("op_599_end_mask_0"), val = tensor<bool, [1]>([false])];
            tensor<fp16, [589]> var_599_cast_fp16 = slice_by_index(begin = var_599_begin_0, end = var_599_end_0, end_mask = var_599_end_mask_0, x = scatter_21_cast_fp16)[name = tensor<string, []>("op_599_cast_fp16")];
            tensor<fp16, []> var_600_to_fp16 = const()[name = tensor<string, []>("op_600_to_fp16"), val = tensor<fp16, []>(0x1p+0)];
            tensor<fp16, [589]> var_602_cast_fp16 = add(x = var_599_cast_fp16, y = var_600_to_fp16)[name = tensor<string, []>("op_602_cast_fp16")];
            tensor<string, []> scatter_23_mode_0 = const()[name = tensor<string, []>("scatter_23_mode_0"), val = tensor<string, []>("update")];
            tensor<int32, []> scatter_23_axis_0 = const()[name = tensor<string, []>("scatter_23_axis_0"), val = tensor<int32, []>(0)];
            tensor<bool, []> scatter_23_validate_indices_0 = const()[name = tensor<string, []>("scatter_23_validate_indices_0"), val = tensor<bool, []>(false)];
            tensor<fp16, [1767]> scatter_23_cast_fp16 = scatter(axis = scatter_23_axis_0, data = scatter_21_cast_fp16, indices = slice_by_index_22, mode = scatter_23_mode_0, updates = var_602_cast_fp16, validate_indices = scatter_23_validate_indices_0)[name = tensor<string, []>("scatter_23_cast_fp16")];
            tensor<int32, [1]> var_619_begin_0 = const()[name = tensor<string, []>("op_619_begin_0"), val = tensor<int32, [1]>([706])];
            tensor<int32, [1]> var_619_end_0 = const()[name = tensor<string, []>("op_619_end_0"), val = tensor<int32, [1]>([1295])];
            tensor<bool, [1]> var_619_end_mask_0 = const()[name = tensor<string, []>("op_619_end_mask_0"), val = tensor<bool, [1]>([false])];
            tensor<fp16, [589]> var_619_cast_fp16 = slice_by_index(begin = var_619_begin_0, end = var_619_end_0, end_mask = var_619_end_mask_0, x = scatter_22_cast_fp16)[name = tensor<string, []>("op_619_cast_fp16")];
            tensor<int32, [2]> var_622_begin_0 = const()[name = tensor<string, []>("op_622_begin_0"), val = tensor<int32, [2]>([12, 0])];
            tensor<int32, [2]> var_622_end_0 = const()[name = tensor<string, []>("op_622_end_0"), val = tensor<int32, [2]>([13, 589])];
            tensor<bool, [2]> var_622_end_mask_0 = const()[name = tensor<string, []>("op_622_end_mask_0"), val = tensor<bool, [2]>([false, true])];
            tensor<bool, [2]> var_622_squeeze_mask_0 = const()[name = tensor<string, []>("op_622_squeeze_mask_0"), val = tensor<bool, [2]>([true, false])];
            tensor<fp16, [589]> var_622_cast_fp16 = slice_by_index(begin = var_622_begin_0, end = var_622_end_0, end_mask = var_622_end_mask_0, squeeze_mask = var_622_squeeze_mask_0, x = reduce_max_0_cast_fp16)[name = tensor<string, []>("op_622_cast_fp16")];
            tensor<fp16, [589]> var_624_cast_fp16 = add(x = var_619_cast_fp16, y = var_622_cast_fp16)[name = tensor<string, []>("op_624_cast_fp16")];
            tensor<int32, [589]> slice_by_index_24 = const()[name = tensor<string, []>("slice_by_index_24"), val = tensor<int32, [589]>([706, 707, 708, 709, 710, 711, 712, 713, 714, 715, 716, 717, 718, 719, 720, 721, 722, 723, 724, 725, 726, 727, 728, 729, 730, 731, 732, 733, 734, 735, 736, 737, 738, 739, 740, 741, 742, 743, 744, 745, 746, 747, 748, 749, 750, 751, 752, 753, 754, 755, 756, 757, 758, 759, 760, 761, 762, 763, 764, 765, 766, 767, 768, 769, 770, 771, 772, 773, 774, 775, 776, 777, 778, 779, 780, 781, 782, 783, 784, 785, 786, 787, 788, 789, 790, 791, 792, 793, 794, 795, 796, 797, 798, 799, 800, 801, 802, 803, 804, 805, 806, 807, 808, 809, 810, 811, 812, 813, 814, 815, 816, 817, 818, 819, 820, 821, 822, 823, 824, 825, 826, 827, 828, 829, 830, 831, 832, 833, 834, 835, 836, 837, 838, 839, 840, 841, 842, 843, 844, 845, 846, 847, 848, 849, 850, 851, 852, 853, 854, 855, 856, 857, 858, 859, 860, 861, 862, 863, 864, 865, 866, 867, 868, 869, 870, 871, 872, 873, 874, 875, 876, 877, 878, 879, 880, 881, 882, 883, 884, 885, 886, 887, 888, 889, 890, 891, 892, 893, 894, 895, 896, 897, 898, 899, 900, 901, 902, 903, 904, 905, 906, 907, 908, 909, 910, 911, 912, 913, 914, 915, 916, 917, 918, 919, 920, 921, 922, 923, 924, 925, 926, 927, 928, 929, 930, 931, 932, 933, 934, 935, 936, 937, 938, 939, 940, 941, 942, 943, 944, 945, 946, 947, 948, 949, 950, 951, 952, 953, 954, 955, 956, 957, 958, 959, 960, 961, 962, 963, 964, 965, 966, 967, 968, 969, 970, 971, 972, 973, 974, 975, 976, 977, 978, 979, 980, 981, 982, 983, 984, 985, 986, 987, 988, 989, 990, 991, 992, 993, 994, 995, 996, 997, 998, 999, 1000, 1001, 1002, 1003, 1004, 1005, 1006, 1007, 1008, 1009, 1010, 1011, 1012, 1013, 1014, 1015, 1016, 1017, 1018, 1019, 1020, 1021, 1022, 1023, 1024, 1025, 1026, 1027, 1028, 1029, 1030, 1031, 1032, 1033, 1034, 1035, 1036, 1037, 1038, 1039, 1040, 1041, 1042, 1043, 1044, 1045, 1046, 1047, 1048, 1049, 1050, 1051, 1052, 1053, 1054, 1055, 1056, 1057, 1058, 1059, 1060, 1061, 1062, 1063, 1064, 1065, 1066, 1067, 1068, 1069, 1070, 1071, 1072, 1073, 1074, 1075, 1076, 1077, 1078, 1079, 1080, 1081, 1082, 1083, 1084, 1085, 1086, 1087, 1088, 1089, 1090, 1091, 1092, 1093, 1094, 1095, 1096, 1097, 1098, 1099, 1100, 1101, 1102, 1103, 1104, 1105, 1106, 1107, 1108, 1109, 1110, 1111, 1112, 1113, 1114, 1115, 1116, 1117, 1118, 1119, 1120, 1121, 1122, 1123, 1124, 1125, 1126, 1127, 1128, 1129, 1130, 1131, 1132, 1133, 1134, 1135, 1136, 1137, 1138, 1139, 1140, 1141, 1142, 1143, 1144, 1145, 1146, 1147, 1148, 1149, 1150, 1151, 1152, 1153, 1154, 1155, 1156, 1157, 1158, 1159, 1160, 1161, 1162, 1163, 1164, 1165, 1166, 1167, 1168, 1169, 1170, 1171, 1172, 1173, 1174, 1175, 1176, 1177, 1178, 1179, 1180, 1181, 1182, 1183, 1184, 1185, 1186, 1187, 1188, 1189, 1190, 1191, 1192, 1193, 1194, 1195, 1196, 1197, 1198, 1199, 1200, 1201, 1202, 1203, 1204, 1205, 1206, 1207, 1208, 1209, 1210, 1211, 1212, 1213, 1214, 1215, 1216, 1217, 1218, 1219, 1220, 1221, 1222, 1223, 1224, 1225, 1226, 1227, 1228, 1229, 1230, 1231, 1232, 1233, 1234, 1235, 1236, 1237, 1238, 1239, 1240, 1241, 1242, 1243, 1244, 1245, 1246, 1247, 1248, 1249, 1250, 1251, 1252, 1253, 1254, 1255, 1256, 1257, 1258, 1259, 1260, 1261, 1262, 1263, 1264, 1265, 1266, 1267, 1268, 1269, 1270, 1271, 1272, 1273, 1274, 1275, 1276, 1277, 1278, 1279, 1280, 1281, 1282, 1283, 1284, 1285, 1286, 1287, 1288, 1289, 1290, 1291, 1292, 1293, 1294])];
            tensor<string, []> scatter_24_mode_0 = const()[name = tensor<string, []>("scatter_24_mode_0"), val = tensor<string, []>("update")];
            tensor<int32, []> scatter_24_axis_0 = const()[name = tensor<string, []>("scatter_24_axis_0"), val = tensor<int32, []>(0)];
            tensor<bool, []> scatter_24_validate_indices_0 = const()[name = tensor<string, []>("scatter_24_validate_indices_0"), val = tensor<bool, []>(false)];
            tensor<fp16, [1767]> scatter_24_cast_fp16 = scatter(axis = scatter_24_axis_0, data = scatter_22_cast_fp16, indices = slice_by_index_24, mode = scatter_24_mode_0, updates = var_624_cast_fp16, validate_indices = scatter_24_validate_indices_0)[name = tensor<string, []>("scatter_24_cast_fp16")];
            tensor<int32, [1]> var_634_begin_0 = const()[name = tensor<string, []>("op_634_begin_0"), val = tensor<int32, [1]>([706])];
            tensor<int32, [1]> var_634_end_0 = const()[name = tensor<string, []>("op_634_end_0"), val = tensor<int32, [1]>([1295])];
            tensor<bool, [1]> var_634_end_mask_0 = const()[name = tensor<string, []>("op_634_end_mask_0"), val = tensor<bool, [1]>([false])];
            tensor<fp16, [589]> var_634_cast_fp16 = slice_by_index(begin = var_634_begin_0, end = var_634_end_0, end_mask = var_634_end_mask_0, x = scatter_23_cast_fp16)[name = tensor<string, []>("op_634_cast_fp16")];
            tensor<fp16, []> var_635_to_fp16 = const()[name = tensor<string, []>("op_635_to_fp16"), val = tensor<fp16, []>(0x1p+0)];
            tensor<fp16, [589]> var_637_cast_fp16 = add(x = var_634_cast_fp16, y = var_635_to_fp16)[name = tensor<string, []>("op_637_cast_fp16")];
            tensor<string, []> scatter_25_mode_0 = const()[name = tensor<string, []>("scatter_25_mode_0"), val = tensor<string, []>("update")];
            tensor<int32, []> scatter_25_axis_0 = const()[name = tensor<string, []>("scatter_25_axis_0"), val = tensor<int32, []>(0)];
            tensor<bool, []> scatter_25_validate_indices_0 = const()[name = tensor<string, []>("scatter_25_validate_indices_0"), val = tensor<bool, []>(false)];
            tensor<fp16, [1767]> scatter_25_cast_fp16 = scatter(axis = scatter_25_axis_0, data = scatter_23_cast_fp16, indices = slice_by_index_24, mode = scatter_25_mode_0, updates = var_637_cast_fp16, validate_indices = scatter_25_validate_indices_0)[name = tensor<string, []>("scatter_25_cast_fp16")];
            tensor<int32, [1]> var_654_begin_0 = const()[name = tensor<string, []>("op_654_begin_0"), val = tensor<int32, [1]>([765])];
            tensor<int32, [1]> var_654_end_0 = const()[name = tensor<string, []>("op_654_end_0"), val = tensor<int32, [1]>([1354])];
            tensor<bool, [1]> var_654_end_mask_0 = const()[name = tensor<string, []>("op_654_end_mask_0"), val = tensor<bool, [1]>([false])];
            tensor<fp16, [589]> var_654_cast_fp16 = slice_by_index(begin = var_654_begin_0, end = var_654_end_0, end_mask = var_654_end_mask_0, x = scatter_24_cast_fp16)[name = tensor<string, []>("op_654_cast_fp16")];
            tensor<int32, [2]> var_657_begin_0 = const()[name = tensor<string, []>("op_657_begin_0"), val = tensor<int32, [2]>([13, 0])];
            tensor<int32, [2]> var_657_end_0 = const()[name = tensor<string, []>("op_657_end_0"), val = tensor<int32, [2]>([14, 589])];
            tensor<bool, [2]> var_657_end_mask_0 = const()[name = tensor<string, []>("op_657_end_mask_0"), val = tensor<bool, [2]>([false, true])];
            tensor<bool, [2]> var_657_squeeze_mask_0 = const()[name = tensor<string, []>("op_657_squeeze_mask_0"), val = tensor<bool, [2]>([true, false])];
            tensor<fp16, [589]> var_657_cast_fp16 = slice_by_index(begin = var_657_begin_0, end = var_657_end_0, end_mask = var_657_end_mask_0, squeeze_mask = var_657_squeeze_mask_0, x = reduce_max_0_cast_fp16)[name = tensor<string, []>("op_657_cast_fp16")];
            tensor<fp16, [589]> var_659_cast_fp16 = add(x = var_654_cast_fp16, y = var_657_cast_fp16)[name = tensor<string, []>("op_659_cast_fp16")];
            tensor<int32, [589]> slice_by_index_26 = const()[name = tensor<string, []>("slice_by_index_26"), val = tensor<int32, [589]>([765, 766, 767, 768, 769, 770, 771, 772, 773, 774, 775, 776, 777, 778, 779, 780, 781, 782, 783, 784, 785, 786, 787, 788, 789, 790, 791, 792, 793, 794, 795, 796, 797, 798, 799, 800, 801, 802, 803, 804, 805, 806, 807, 808, 809, 810, 811, 812, 813, 814, 815, 816, 817, 818, 819, 820, 821, 822, 823, 824, 825, 826, 827, 828, 829, 830, 831, 832, 833, 834, 835, 836, 837, 838, 839, 840, 841, 842, 843, 844, 845, 846, 847, 848, 849, 850, 851, 852, 853, 854, 855, 856, 857, 858, 859, 860, 861, 862, 863, 864, 865, 866, 867, 868, 869, 870, 871, 872, 873, 874, 875, 876, 877, 878, 879, 880, 881, 882, 883, 884, 885, 886, 887, 888, 889, 890, 891, 892, 893, 894, 895, 896, 897, 898, 899, 900, 901, 902, 903, 904, 905, 906, 907, 908, 909, 910, 911, 912, 913, 914, 915, 916, 917, 918, 919, 920, 921, 922, 923, 924, 925, 926, 927, 928, 929, 930, 931, 932, 933, 934, 935, 936, 937, 938, 939, 940, 941, 942, 943, 944, 945, 946, 947, 948, 949, 950, 951, 952, 953, 954, 955, 956, 957, 958, 959, 960, 961, 962, 963, 964, 965, 966, 967, 968, 969, 970, 971, 972, 973, 974, 975, 976, 977, 978, 979, 980, 981, 982, 983, 984, 985, 986, 987, 988, 989, 990, 991, 992, 993, 994, 995, 996, 997, 998, 999, 1000, 1001, 1002, 1003, 1004, 1005, 1006, 1007, 1008, 1009, 1010, 1011, 1012, 1013, 1014, 1015, 1016, 1017, 1018, 1019, 1020, 1021, 1022, 1023, 1024, 1025, 1026, 1027, 1028, 1029, 1030, 1031, 1032, 1033, 1034, 1035, 1036, 1037, 1038, 1039, 1040, 1041, 1042, 1043, 1044, 1045, 1046, 1047, 1048, 1049, 1050, 1051, 1052, 1053, 1054, 1055, 1056, 1057, 1058, 1059, 1060, 1061, 1062, 1063, 1064, 1065, 1066, 1067, 1068, 1069, 1070, 1071, 1072, 1073, 1074, 1075, 1076, 1077, 1078, 1079, 1080, 1081, 1082, 1083, 1084, 1085, 1086, 1087, 1088, 1089, 1090, 1091, 1092, 1093, 1094, 1095, 1096, 1097, 1098, 1099, 1100, 1101, 1102, 1103, 1104, 1105, 1106, 1107, 1108, 1109, 1110, 1111, 1112, 1113, 1114, 1115, 1116, 1117, 1118, 1119, 1120, 1121, 1122, 1123, 1124, 1125, 1126, 1127, 1128, 1129, 1130, 1131, 1132, 1133, 1134, 1135, 1136, 1137, 1138, 1139, 1140, 1141, 1142, 1143, 1144, 1145, 1146, 1147, 1148, 1149, 1150, 1151, 1152, 1153, 1154, 1155, 1156, 1157, 1158, 1159, 1160, 1161, 1162, 1163, 1164, 1165, 1166, 1167, 1168, 1169, 1170, 1171, 1172, 1173, 1174, 1175, 1176, 1177, 1178, 1179, 1180, 1181, 1182, 1183, 1184, 1185, 1186, 1187, 1188, 1189, 1190, 1191, 1192, 1193, 1194, 1195, 1196, 1197, 1198, 1199, 1200, 1201, 1202, 1203, 1204, 1205, 1206, 1207, 1208, 1209, 1210, 1211, 1212, 1213, 1214, 1215, 1216, 1217, 1218, 1219, 1220, 1221, 1222, 1223, 1224, 1225, 1226, 1227, 1228, 1229, 1230, 1231, 1232, 1233, 1234, 1235, 1236, 1237, 1238, 1239, 1240, 1241, 1242, 1243, 1244, 1245, 1246, 1247, 1248, 1249, 1250, 1251, 1252, 1253, 1254, 1255, 1256, 1257, 1258, 1259, 1260, 1261, 1262, 1263, 1264, 1265, 1266, 1267, 1268, 1269, 1270, 1271, 1272, 1273, 1274, 1275, 1276, 1277, 1278, 1279, 1280, 1281, 1282, 1283, 1284, 1285, 1286, 1287, 1288, 1289, 1290, 1291, 1292, 1293, 1294, 1295, 1296, 1297, 1298, 1299, 1300, 1301, 1302, 1303, 1304, 1305, 1306, 1307, 1308, 1309, 1310, 1311, 1312, 1313, 1314, 1315, 1316, 1317, 1318, 1319, 1320, 1321, 1322, 1323, 1324, 1325, 1326, 1327, 1328, 1329, 1330, 1331, 1332, 1333, 1334, 1335, 1336, 1337, 1338, 1339, 1340, 1341, 1342, 1343, 1344, 1345, 1346, 1347, 1348, 1349, 1350, 1351, 1352, 1353])];
            tensor<string, []> scatter_26_mode_0 = const()[name = tensor<string, []>("scatter_26_mode_0"), val = tensor<string, []>("update")];
            tensor<int32, []> scatter_26_axis_0 = const()[name = tensor<string, []>("scatter_26_axis_0"), val = tensor<int32, []>(0)];
            tensor<bool, []> scatter_26_validate_indices_0 = const()[name = tensor<string, []>("scatter_26_validate_indices_0"), val = tensor<bool, []>(false)];
            tensor<fp16, [1767]> scatter_26_cast_fp16 = scatter(axis = scatter_26_axis_0, data = scatter_24_cast_fp16, indices = slice_by_index_26, mode = scatter_26_mode_0, updates = var_659_cast_fp16, validate_indices = scatter_26_validate_indices_0)[name = tensor<string, []>("scatter_26_cast_fp16")];
            tensor<int32, [1]> var_669_begin_0 = const()[name = tensor<string, []>("op_669_begin_0"), val = tensor<int32, [1]>([765])];
            tensor<int32, [1]> var_669_end_0 = const()[name = tensor<string, []>("op_669_end_0"), val = tensor<int32, [1]>([1354])];
            tensor<bool, [1]> var_669_end_mask_0 = const()[name = tensor<string, []>("op_669_end_mask_0"), val = tensor<bool, [1]>([false])];
            tensor<fp16, [589]> var_669_cast_fp16 = slice_by_index(begin = var_669_begin_0, end = var_669_end_0, end_mask = var_669_end_mask_0, x = scatter_25_cast_fp16)[name = tensor<string, []>("op_669_cast_fp16")];
            tensor<fp16, []> var_670_to_fp16 = const()[name = tensor<string, []>("op_670_to_fp16"), val = tensor<fp16, []>(0x1p+0)];
            tensor<fp16, [589]> var_672_cast_fp16 = add(x = var_669_cast_fp16, y = var_670_to_fp16)[name = tensor<string, []>("op_672_cast_fp16")];
            tensor<string, []> scatter_27_mode_0 = const()[name = tensor<string, []>("scatter_27_mode_0"), val = tensor<string, []>("update")];
            tensor<int32, []> scatter_27_axis_0 = const()[name = tensor<string, []>("scatter_27_axis_0"), val = tensor<int32, []>(0)];
            tensor<bool, []> scatter_27_validate_indices_0 = const()[name = tensor<string, []>("scatter_27_validate_indices_0"), val = tensor<bool, []>(false)];
            tensor<fp16, [1767]> scatter_27_cast_fp16 = scatter(axis = scatter_27_axis_0, data = scatter_25_cast_fp16, indices = slice_by_index_26, mode = scatter_27_mode_0, updates = var_672_cast_fp16, validate_indices = scatter_27_validate_indices_0)[name = tensor<string, []>("scatter_27_cast_fp16")];
            tensor<int32, [1]> var_689_begin_0 = const()[name = tensor<string, []>("op_689_begin_0"), val = tensor<int32, [1]>([824])];
            tensor<int32, [1]> var_689_end_0 = const()[name = tensor<string, []>("op_689_end_0"), val = tensor<int32, [1]>([1413])];
            tensor<bool, [1]> var_689_end_mask_0 = const()[name = tensor<string, []>("op_689_end_mask_0"), val = tensor<bool, [1]>([false])];
            tensor<fp16, [589]> var_689_cast_fp16 = slice_by_index(begin = var_689_begin_0, end = var_689_end_0, end_mask = var_689_end_mask_0, x = scatter_26_cast_fp16)[name = tensor<string, []>("op_689_cast_fp16")];
            tensor<int32, [2]> var_692_begin_0 = const()[name = tensor<string, []>("op_692_begin_0"), val = tensor<int32, [2]>([14, 0])];
            tensor<int32, [2]> var_692_end_0 = const()[name = tensor<string, []>("op_692_end_0"), val = tensor<int32, [2]>([15, 589])];
            tensor<bool, [2]> var_692_end_mask_0 = const()[name = tensor<string, []>("op_692_end_mask_0"), val = tensor<bool, [2]>([false, true])];
            tensor<bool, [2]> var_692_squeeze_mask_0 = const()[name = tensor<string, []>("op_692_squeeze_mask_0"), val = tensor<bool, [2]>([true, false])];
            tensor<fp16, [589]> var_692_cast_fp16 = slice_by_index(begin = var_692_begin_0, end = var_692_end_0, end_mask = var_692_end_mask_0, squeeze_mask = var_692_squeeze_mask_0, x = reduce_max_0_cast_fp16)[name = tensor<string, []>("op_692_cast_fp16")];
            tensor<fp16, [589]> var_694_cast_fp16 = add(x = var_689_cast_fp16, y = var_692_cast_fp16)[name = tensor<string, []>("op_694_cast_fp16")];
            tensor<int32, [589]> slice_by_index_28 = const()[name = tensor<string, []>("slice_by_index_28"), val = tensor<int32, [589]>([824, 825, 826, 827, 828, 829, 830, 831, 832, 833, 834, 835, 836, 837, 838, 839, 840, 841, 842, 843, 844, 845, 846, 847, 848, 849, 850, 851, 852, 853, 854, 855, 856, 857, 858, 859, 860, 861, 862, 863, 864, 865, 866, 867, 868, 869, 870, 871, 872, 873, 874, 875, 876, 877, 878, 879, 880, 881, 882, 883, 884, 885, 886, 887, 888, 889, 890, 891, 892, 893, 894, 895, 896, 897, 898, 899, 900, 901, 902, 903, 904, 905, 906, 907, 908, 909, 910, 911, 912, 913, 914, 915, 916, 917, 918, 919, 920, 921, 922, 923, 924, 925, 926, 927, 928, 929, 930, 931, 932, 933, 934, 935, 936, 937, 938, 939, 940, 941, 942, 943, 944, 945, 946, 947, 948, 949, 950, 951, 952, 953, 954, 955, 956, 957, 958, 959, 960, 961, 962, 963, 964, 965, 966, 967, 968, 969, 970, 971, 972, 973, 974, 975, 976, 977, 978, 979, 980, 981, 982, 983, 984, 985, 986, 987, 988, 989, 990, 991, 992, 993, 994, 995, 996, 997, 998, 999, 1000, 1001, 1002, 1003, 1004, 1005, 1006, 1007, 1008, 1009, 1010, 1011, 1012, 1013, 1014, 1015, 1016, 1017, 1018, 1019, 1020, 1021, 1022, 1023, 1024, 1025, 1026, 1027, 1028, 1029, 1030, 1031, 1032, 1033, 1034, 1035, 1036, 1037, 1038, 1039, 1040, 1041, 1042, 1043, 1044, 1045, 1046, 1047, 1048, 1049, 1050, 1051, 1052, 1053, 1054, 1055, 1056, 1057, 1058, 1059, 1060, 1061, 1062, 1063, 1064, 1065, 1066, 1067, 1068, 1069, 1070, 1071, 1072, 1073, 1074, 1075, 1076, 1077, 1078, 1079, 1080, 1081, 1082, 1083, 1084, 1085, 1086, 1087, 1088, 1089, 1090, 1091, 1092, 1093, 1094, 1095, 1096, 1097, 1098, 1099, 1100, 1101, 1102, 1103, 1104, 1105, 1106, 1107, 1108, 1109, 1110, 1111, 1112, 1113, 1114, 1115, 1116, 1117, 1118, 1119, 1120, 1121, 1122, 1123, 1124, 1125, 1126, 1127, 1128, 1129, 1130, 1131, 1132, 1133, 1134, 1135, 1136, 1137, 1138, 1139, 1140, 1141, 1142, 1143, 1144, 1145, 1146, 1147, 1148, 1149, 1150, 1151, 1152, 1153, 1154, 1155, 1156, 1157, 1158, 1159, 1160, 1161, 1162, 1163, 1164, 1165, 1166, 1167, 1168, 1169, 1170, 1171, 1172, 1173, 1174, 1175, 1176, 1177, 1178, 1179, 1180, 1181, 1182, 1183, 1184, 1185, 1186, 1187, 1188, 1189, 1190, 1191, 1192, 1193, 1194, 1195, 1196, 1197, 1198, 1199, 1200, 1201, 1202, 1203, 1204, 1205, 1206, 1207, 1208, 1209, 1210, 1211, 1212, 1213, 1214, 1215, 1216, 1217, 1218, 1219, 1220, 1221, 1222, 1223, 1224, 1225, 1226, 1227, 1228, 1229, 1230, 1231, 1232, 1233, 1234, 1235, 1236, 1237, 1238, 1239, 1240, 1241, 1242, 1243, 1244, 1245, 1246, 1247, 1248, 1249, 1250, 1251, 1252, 1253, 1254, 1255, 1256, 1257, 1258, 1259, 1260, 1261, 1262, 1263, 1264, 1265, 1266, 1267, 1268, 1269, 1270, 1271, 1272, 1273, 1274, 1275, 1276, 1277, 1278, 1279, 1280, 1281, 1282, 1283, 1284, 1285, 1286, 1287, 1288, 1289, 1290, 1291, 1292, 1293, 1294, 1295, 1296, 1297, 1298, 1299, 1300, 1301, 1302, 1303, 1304, 1305, 1306, 1307, 1308, 1309, 1310, 1311, 1312, 1313, 1314, 1315, 1316, 1317, 1318, 1319, 1320, 1321, 1322, 1323, 1324, 1325, 1326, 1327, 1328, 1329, 1330, 1331, 1332, 1333, 1334, 1335, 1336, 1337, 1338, 1339, 1340, 1341, 1342, 1343, 1344, 1345, 1346, 1347, 1348, 1349, 1350, 1351, 1352, 1353, 1354, 1355, 1356, 1357, 1358, 1359, 1360, 1361, 1362, 1363, 1364, 1365, 1366, 1367, 1368, 1369, 1370, 1371, 1372, 1373, 1374, 1375, 1376, 1377, 1378, 1379, 1380, 1381, 1382, 1383, 1384, 1385, 1386, 1387, 1388, 1389, 1390, 1391, 1392, 1393, 1394, 1395, 1396, 1397, 1398, 1399, 1400, 1401, 1402, 1403, 1404, 1405, 1406, 1407, 1408, 1409, 1410, 1411, 1412])];
            tensor<string, []> scatter_28_mode_0 = const()[name = tensor<string, []>("scatter_28_mode_0"), val = tensor<string, []>("update")];
            tensor<int32, []> scatter_28_axis_0 = const()[name = tensor<string, []>("scatter_28_axis_0"), val = tensor<int32, []>(0)];
            tensor<bool, []> scatter_28_validate_indices_0 = const()[name = tensor<string, []>("scatter_28_validate_indices_0"), val = tensor<bool, []>(false)];
            tensor<fp16, [1767]> scatter_28_cast_fp16 = scatter(axis = scatter_28_axis_0, data = scatter_26_cast_fp16, indices = slice_by_index_28, mode = scatter_28_mode_0, updates = var_694_cast_fp16, validate_indices = scatter_28_validate_indices_0)[name = tensor<string, []>("scatter_28_cast_fp16")];
            tensor<int32, [1]> var_704_begin_0 = const()[name = tensor<string, []>("op_704_begin_0"), val = tensor<int32, [1]>([824])];
            tensor<int32, [1]> var_704_end_0 = const()[name = tensor<string, []>("op_704_end_0"), val = tensor<int32, [1]>([1413])];
            tensor<bool, [1]> var_704_end_mask_0 = const()[name = tensor<string, []>("op_704_end_mask_0"), val = tensor<bool, [1]>([false])];
            tensor<fp16, [589]> var_704_cast_fp16 = slice_by_index(begin = var_704_begin_0, end = var_704_end_0, end_mask = var_704_end_mask_0, x = scatter_27_cast_fp16)[name = tensor<string, []>("op_704_cast_fp16")];
            tensor<fp16, []> var_705_to_fp16 = const()[name = tensor<string, []>("op_705_to_fp16"), val = tensor<fp16, []>(0x1p+0)];
            tensor<fp16, [589]> var_707_cast_fp16 = add(x = var_704_cast_fp16, y = var_705_to_fp16)[name = tensor<string, []>("op_707_cast_fp16")];
            tensor<string, []> scatter_29_mode_0 = const()[name = tensor<string, []>("scatter_29_mode_0"), val = tensor<string, []>("update")];
            tensor<int32, []> scatter_29_axis_0 = const()[name = tensor<string, []>("scatter_29_axis_0"), val = tensor<int32, []>(0)];
            tensor<bool, []> scatter_29_validate_indices_0 = const()[name = tensor<string, []>("scatter_29_validate_indices_0"), val = tensor<bool, []>(false)];
            tensor<fp16, [1767]> scatter_29_cast_fp16 = scatter(axis = scatter_29_axis_0, data = scatter_27_cast_fp16, indices = slice_by_index_28, mode = scatter_29_mode_0, updates = var_707_cast_fp16, validate_indices = scatter_29_validate_indices_0)[name = tensor<string, []>("scatter_29_cast_fp16")];
            tensor<int32, [1]> var_724_begin_0 = const()[name = tensor<string, []>("op_724_begin_0"), val = tensor<int32, [1]>([883])];
            tensor<int32, [1]> var_724_end_0 = const()[name = tensor<string, []>("op_724_end_0"), val = tensor<int32, [1]>([1472])];
            tensor<bool, [1]> var_724_end_mask_0 = const()[name = tensor<string, []>("op_724_end_mask_0"), val = tensor<bool, [1]>([false])];
            tensor<fp16, [589]> var_724_cast_fp16 = slice_by_index(begin = var_724_begin_0, end = var_724_end_0, end_mask = var_724_end_mask_0, x = scatter_28_cast_fp16)[name = tensor<string, []>("op_724_cast_fp16")];
            tensor<int32, [2]> var_727_begin_0 = const()[name = tensor<string, []>("op_727_begin_0"), val = tensor<int32, [2]>([15, 0])];
            tensor<int32, [2]> var_727_end_0 = const()[name = tensor<string, []>("op_727_end_0"), val = tensor<int32, [2]>([16, 589])];
            tensor<bool, [2]> var_727_end_mask_0 = const()[name = tensor<string, []>("op_727_end_mask_0"), val = tensor<bool, [2]>([false, true])];
            tensor<bool, [2]> var_727_squeeze_mask_0 = const()[name = tensor<string, []>("op_727_squeeze_mask_0"), val = tensor<bool, [2]>([true, false])];
            tensor<fp16, [589]> var_727_cast_fp16 = slice_by_index(begin = var_727_begin_0, end = var_727_end_0, end_mask = var_727_end_mask_0, squeeze_mask = var_727_squeeze_mask_0, x = reduce_max_0_cast_fp16)[name = tensor<string, []>("op_727_cast_fp16")];
            tensor<fp16, [589]> var_729_cast_fp16 = add(x = var_724_cast_fp16, y = var_727_cast_fp16)[name = tensor<string, []>("op_729_cast_fp16")];
            tensor<int32, [589]> slice_by_index_30 = const()[name = tensor<string, []>("slice_by_index_30"), val = tensor<int32, [589]>([883, 884, 885, 886, 887, 888, 889, 890, 891, 892, 893, 894, 895, 896, 897, 898, 899, 900, 901, 902, 903, 904, 905, 906, 907, 908, 909, 910, 911, 912, 913, 914, 915, 916, 917, 918, 919, 920, 921, 922, 923, 924, 925, 926, 927, 928, 929, 930, 931, 932, 933, 934, 935, 936, 937, 938, 939, 940, 941, 942, 943, 944, 945, 946, 947, 948, 949, 950, 951, 952, 953, 954, 955, 956, 957, 958, 959, 960, 961, 962, 963, 964, 965, 966, 967, 968, 969, 970, 971, 972, 973, 974, 975, 976, 977, 978, 979, 980, 981, 982, 983, 984, 985, 986, 987, 988, 989, 990, 991, 992, 993, 994, 995, 996, 997, 998, 999, 1000, 1001, 1002, 1003, 1004, 1005, 1006, 1007, 1008, 1009, 1010, 1011, 1012, 1013, 1014, 1015, 1016, 1017, 1018, 1019, 1020, 1021, 1022, 1023, 1024, 1025, 1026, 1027, 1028, 1029, 1030, 1031, 1032, 1033, 1034, 1035, 1036, 1037, 1038, 1039, 1040, 1041, 1042, 1043, 1044, 1045, 1046, 1047, 1048, 1049, 1050, 1051, 1052, 1053, 1054, 1055, 1056, 1057, 1058, 1059, 1060, 1061, 1062, 1063, 1064, 1065, 1066, 1067, 1068, 1069, 1070, 1071, 1072, 1073, 1074, 1075, 1076, 1077, 1078, 1079, 1080, 1081, 1082, 1083, 1084, 1085, 1086, 1087, 1088, 1089, 1090, 1091, 1092, 1093, 1094, 1095, 1096, 1097, 1098, 1099, 1100, 1101, 1102, 1103, 1104, 1105, 1106, 1107, 1108, 1109, 1110, 1111, 1112, 1113, 1114, 1115, 1116, 1117, 1118, 1119, 1120, 1121, 1122, 1123, 1124, 1125, 1126, 1127, 1128, 1129, 1130, 1131, 1132, 1133, 1134, 1135, 1136, 1137, 1138, 1139, 1140, 1141, 1142, 1143, 1144, 1145, 1146, 1147, 1148, 1149, 1150, 1151, 1152, 1153, 1154, 1155, 1156, 1157, 1158, 1159, 1160, 1161, 1162, 1163, 1164, 1165, 1166, 1167, 1168, 1169, 1170, 1171, 1172, 1173, 1174, 1175, 1176, 1177, 1178, 1179, 1180, 1181, 1182, 1183, 1184, 1185, 1186, 1187, 1188, 1189, 1190, 1191, 1192, 1193, 1194, 1195, 1196, 1197, 1198, 1199, 1200, 1201, 1202, 1203, 1204, 1205, 1206, 1207, 1208, 1209, 1210, 1211, 1212, 1213, 1214, 1215, 1216, 1217, 1218, 1219, 1220, 1221, 1222, 1223, 1224, 1225, 1226, 1227, 1228, 1229, 1230, 1231, 1232, 1233, 1234, 1235, 1236, 1237, 1238, 1239, 1240, 1241, 1242, 1243, 1244, 1245, 1246, 1247, 1248, 1249, 1250, 1251, 1252, 1253, 1254, 1255, 1256, 1257, 1258, 1259, 1260, 1261, 1262, 1263, 1264, 1265, 1266, 1267, 1268, 1269, 1270, 1271, 1272, 1273, 1274, 1275, 1276, 1277, 1278, 1279, 1280, 1281, 1282, 1283, 1284, 1285, 1286, 1287, 1288, 1289, 1290, 1291, 1292, 1293, 1294, 1295, 1296, 1297, 1298, 1299, 1300, 1301, 1302, 1303, 1304, 1305, 1306, 1307, 1308, 1309, 1310, 1311, 1312, 1313, 1314, 1315, 1316, 1317, 1318, 1319, 1320, 1321, 1322, 1323, 1324, 1325, 1326, 1327, 1328, 1329, 1330, 1331, 1332, 1333, 1334, 1335, 1336, 1337, 1338, 1339, 1340, 1341, 1342, 1343, 1344, 1345, 1346, 1347, 1348, 1349, 1350, 1351, 1352, 1353, 1354, 1355, 1356, 1357, 1358, 1359, 1360, 1361, 1362, 1363, 1364, 1365, 1366, 1367, 1368, 1369, 1370, 1371, 1372, 1373, 1374, 1375, 1376, 1377, 1378, 1379, 1380, 1381, 1382, 1383, 1384, 1385, 1386, 1387, 1388, 1389, 1390, 1391, 1392, 1393, 1394, 1395, 1396, 1397, 1398, 1399, 1400, 1401, 1402, 1403, 1404, 1405, 1406, 1407, 1408, 1409, 1410, 1411, 1412, 1413, 1414, 1415, 1416, 1417, 1418, 1419, 1420, 1421, 1422, 1423, 1424, 1425, 1426, 1427, 1428, 1429, 1430, 1431, 1432, 1433, 1434, 1435, 1436, 1437, 1438, 1439, 1440, 1441, 1442, 1443, 1444, 1445, 1446, 1447, 1448, 1449, 1450, 1451, 1452, 1453, 1454, 1455, 1456, 1457, 1458, 1459, 1460, 1461, 1462, 1463, 1464, 1465, 1466, 1467, 1468, 1469, 1470, 1471])];
            tensor<string, []> scatter_30_mode_0 = const()[name = tensor<string, []>("scatter_30_mode_0"), val = tensor<string, []>("update")];
            tensor<int32, []> scatter_30_axis_0 = const()[name = tensor<string, []>("scatter_30_axis_0"), val = tensor<int32, []>(0)];
            tensor<bool, []> scatter_30_validate_indices_0 = const()[name = tensor<string, []>("scatter_30_validate_indices_0"), val = tensor<bool, []>(false)];
            tensor<fp16, [1767]> scatter_30_cast_fp16 = scatter(axis = scatter_30_axis_0, data = scatter_28_cast_fp16, indices = slice_by_index_30, mode = scatter_30_mode_0, updates = var_729_cast_fp16, validate_indices = scatter_30_validate_indices_0)[name = tensor<string, []>("scatter_30_cast_fp16")];
            tensor<int32, [1]> var_739_begin_0 = const()[name = tensor<string, []>("op_739_begin_0"), val = tensor<int32, [1]>([883])];
            tensor<int32, [1]> var_739_end_0 = const()[name = tensor<string, []>("op_739_end_0"), val = tensor<int32, [1]>([1472])];
            tensor<bool, [1]> var_739_end_mask_0 = const()[name = tensor<string, []>("op_739_end_mask_0"), val = tensor<bool, [1]>([false])];
            tensor<fp16, [589]> var_739_cast_fp16 = slice_by_index(begin = var_739_begin_0, end = var_739_end_0, end_mask = var_739_end_mask_0, x = scatter_29_cast_fp16)[name = tensor<string, []>("op_739_cast_fp16")];
            tensor<fp16, []> var_740_to_fp16 = const()[name = tensor<string, []>("op_740_to_fp16"), val = tensor<fp16, []>(0x1p+0)];
            tensor<fp16, [589]> var_742_cast_fp16 = add(x = var_739_cast_fp16, y = var_740_to_fp16)[name = tensor<string, []>("op_742_cast_fp16")];
            tensor<string, []> scatter_31_mode_0 = const()[name = tensor<string, []>("scatter_31_mode_0"), val = tensor<string, []>("update")];
            tensor<int32, []> scatter_31_axis_0 = const()[name = tensor<string, []>("scatter_31_axis_0"), val = tensor<int32, []>(0)];
            tensor<bool, []> scatter_31_validate_indices_0 = const()[name = tensor<string, []>("scatter_31_validate_indices_0"), val = tensor<bool, []>(false)];
            tensor<fp16, [1767]> scatter_31_cast_fp16 = scatter(axis = scatter_31_axis_0, data = scatter_29_cast_fp16, indices = slice_by_index_30, mode = scatter_31_mode_0, updates = var_742_cast_fp16, validate_indices = scatter_31_validate_indices_0)[name = tensor<string, []>("scatter_31_cast_fp16")];
            tensor<int32, [1]> var_759_begin_0 = const()[name = tensor<string, []>("op_759_begin_0"), val = tensor<int32, [1]>([942])];
            tensor<int32, [1]> var_759_end_0 = const()[name = tensor<string, []>("op_759_end_0"), val = tensor<int32, [1]>([1531])];
            tensor<bool, [1]> var_759_end_mask_0 = const()[name = tensor<string, []>("op_759_end_mask_0"), val = tensor<bool, [1]>([false])];
            tensor<fp16, [589]> var_759_cast_fp16 = slice_by_index(begin = var_759_begin_0, end = var_759_end_0, end_mask = var_759_end_mask_0, x = scatter_30_cast_fp16)[name = tensor<string, []>("op_759_cast_fp16")];
            tensor<int32, [2]> var_762_begin_0 = const()[name = tensor<string, []>("op_762_begin_0"), val = tensor<int32, [2]>([16, 0])];
            tensor<int32, [2]> var_762_end_0 = const()[name = tensor<string, []>("op_762_end_0"), val = tensor<int32, [2]>([17, 589])];
            tensor<bool, [2]> var_762_end_mask_0 = const()[name = tensor<string, []>("op_762_end_mask_0"), val = tensor<bool, [2]>([false, true])];
            tensor<bool, [2]> var_762_squeeze_mask_0 = const()[name = tensor<string, []>("op_762_squeeze_mask_0"), val = tensor<bool, [2]>([true, false])];
            tensor<fp16, [589]> var_762_cast_fp16 = slice_by_index(begin = var_762_begin_0, end = var_762_end_0, end_mask = var_762_end_mask_0, squeeze_mask = var_762_squeeze_mask_0, x = reduce_max_0_cast_fp16)[name = tensor<string, []>("op_762_cast_fp16")];
            tensor<fp16, [589]> var_764_cast_fp16 = add(x = var_759_cast_fp16, y = var_762_cast_fp16)[name = tensor<string, []>("op_764_cast_fp16")];
            tensor<int32, [589]> slice_by_index_32 = const()[name = tensor<string, []>("slice_by_index_32"), val = tensor<int32, [589]>([942, 943, 944, 945, 946, 947, 948, 949, 950, 951, 952, 953, 954, 955, 956, 957, 958, 959, 960, 961, 962, 963, 964, 965, 966, 967, 968, 969, 970, 971, 972, 973, 974, 975, 976, 977, 978, 979, 980, 981, 982, 983, 984, 985, 986, 987, 988, 989, 990, 991, 992, 993, 994, 995, 996, 997, 998, 999, 1000, 1001, 1002, 1003, 1004, 1005, 1006, 1007, 1008, 1009, 1010, 1011, 1012, 1013, 1014, 1015, 1016, 1017, 1018, 1019, 1020, 1021, 1022, 1023, 1024, 1025, 1026, 1027, 1028, 1029, 1030, 1031, 1032, 1033, 1034, 1035, 1036, 1037, 1038, 1039, 1040, 1041, 1042, 1043, 1044, 1045, 1046, 1047, 1048, 1049, 1050, 1051, 1052, 1053, 1054, 1055, 1056, 1057, 1058, 1059, 1060, 1061, 1062, 1063, 1064, 1065, 1066, 1067, 1068, 1069, 1070, 1071, 1072, 1073, 1074, 1075, 1076, 1077, 1078, 1079, 1080, 1081, 1082, 1083, 1084, 1085, 1086, 1087, 1088, 1089, 1090, 1091, 1092, 1093, 1094, 1095, 1096, 1097, 1098, 1099, 1100, 1101, 1102, 1103, 1104, 1105, 1106, 1107, 1108, 1109, 1110, 1111, 1112, 1113, 1114, 1115, 1116, 1117, 1118, 1119, 1120, 1121, 1122, 1123, 1124, 1125, 1126, 1127, 1128, 1129, 1130, 1131, 1132, 1133, 1134, 1135, 1136, 1137, 1138, 1139, 1140, 1141, 1142, 1143, 1144, 1145, 1146, 1147, 1148, 1149, 1150, 1151, 1152, 1153, 1154, 1155, 1156, 1157, 1158, 1159, 1160, 1161, 1162, 1163, 1164, 1165, 1166, 1167, 1168, 1169, 1170, 1171, 1172, 1173, 1174, 1175, 1176, 1177, 1178, 1179, 1180, 1181, 1182, 1183, 1184, 1185, 1186, 1187, 1188, 1189, 1190, 1191, 1192, 1193, 1194, 1195, 1196, 1197, 1198, 1199, 1200, 1201, 1202, 1203, 1204, 1205, 1206, 1207, 1208, 1209, 1210, 1211, 1212, 1213, 1214, 1215, 1216, 1217, 1218, 1219, 1220, 1221, 1222, 1223, 1224, 1225, 1226, 1227, 1228, 1229, 1230, 1231, 1232, 1233, 1234, 1235, 1236, 1237, 1238, 1239, 1240, 1241, 1242, 1243, 1244, 1245, 1246, 1247, 1248, 1249, 1250, 1251, 1252, 1253, 1254, 1255, 1256, 1257, 1258, 1259, 1260, 1261, 1262, 1263, 1264, 1265, 1266, 1267, 1268, 1269, 1270, 1271, 1272, 1273, 1274, 1275, 1276, 1277, 1278, 1279, 1280, 1281, 1282, 1283, 1284, 1285, 1286, 1287, 1288, 1289, 1290, 1291, 1292, 1293, 1294, 1295, 1296, 1297, 1298, 1299, 1300, 1301, 1302, 1303, 1304, 1305, 1306, 1307, 1308, 1309, 1310, 1311, 1312, 1313, 1314, 1315, 1316, 1317, 1318, 1319, 1320, 1321, 1322, 1323, 1324, 1325, 1326, 1327, 1328, 1329, 1330, 1331, 1332, 1333, 1334, 1335, 1336, 1337, 1338, 1339, 1340, 1341, 1342, 1343, 1344, 1345, 1346, 1347, 1348, 1349, 1350, 1351, 1352, 1353, 1354, 1355, 1356, 1357, 1358, 1359, 1360, 1361, 1362, 1363, 1364, 1365, 1366, 1367, 1368, 1369, 1370, 1371, 1372, 1373, 1374, 1375, 1376, 1377, 1378, 1379, 1380, 1381, 1382, 1383, 1384, 1385, 1386, 1387, 1388, 1389, 1390, 1391, 1392, 1393, 1394, 1395, 1396, 1397, 1398, 1399, 1400, 1401, 1402, 1403, 1404, 1405, 1406, 1407, 1408, 1409, 1410, 1411, 1412, 1413, 1414, 1415, 1416, 1417, 1418, 1419, 1420, 1421, 1422, 1423, 1424, 1425, 1426, 1427, 1428, 1429, 1430, 1431, 1432, 1433, 1434, 1435, 1436, 1437, 1438, 1439, 1440, 1441, 1442, 1443, 1444, 1445, 1446, 1447, 1448, 1449, 1450, 1451, 1452, 1453, 1454, 1455, 1456, 1457, 1458, 1459, 1460, 1461, 1462, 1463, 1464, 1465, 1466, 1467, 1468, 1469, 1470, 1471, 1472, 1473, 1474, 1475, 1476, 1477, 1478, 1479, 1480, 1481, 1482, 1483, 1484, 1485, 1486, 1487, 1488, 1489, 1490, 1491, 1492, 1493, 1494, 1495, 1496, 1497, 1498, 1499, 1500, 1501, 1502, 1503, 1504, 1505, 1506, 1507, 1508, 1509, 1510, 1511, 1512, 1513, 1514, 1515, 1516, 1517, 1518, 1519, 1520, 1521, 1522, 1523, 1524, 1525, 1526, 1527, 1528, 1529, 1530])];
            tensor<string, []> scatter_32_mode_0 = const()[name = tensor<string, []>("scatter_32_mode_0"), val = tensor<string, []>("update")];
            tensor<int32, []> scatter_32_axis_0 = const()[name = tensor<string, []>("scatter_32_axis_0"), val = tensor<int32, []>(0)];
            tensor<bool, []> scatter_32_validate_indices_0 = const()[name = tensor<string, []>("scatter_32_validate_indices_0"), val = tensor<bool, []>(false)];
            tensor<fp16, [1767]> scatter_32_cast_fp16 = scatter(axis = scatter_32_axis_0, data = scatter_30_cast_fp16, indices = slice_by_index_32, mode = scatter_32_mode_0, updates = var_764_cast_fp16, validate_indices = scatter_32_validate_indices_0)[name = tensor<string, []>("scatter_32_cast_fp16")];
            tensor<int32, [1]> var_774_begin_0 = const()[name = tensor<string, []>("op_774_begin_0"), val = tensor<int32, [1]>([942])];
            tensor<int32, [1]> var_774_end_0 = const()[name = tensor<string, []>("op_774_end_0"), val = tensor<int32, [1]>([1531])];
            tensor<bool, [1]> var_774_end_mask_0 = const()[name = tensor<string, []>("op_774_end_mask_0"), val = tensor<bool, [1]>([false])];
            tensor<fp16, [589]> var_774_cast_fp16 = slice_by_index(begin = var_774_begin_0, end = var_774_end_0, end_mask = var_774_end_mask_0, x = scatter_31_cast_fp16)[name = tensor<string, []>("op_774_cast_fp16")];
            tensor<fp16, []> var_775_to_fp16 = const()[name = tensor<string, []>("op_775_to_fp16"), val = tensor<fp16, []>(0x1p+0)];
            tensor<fp16, [589]> var_777_cast_fp16 = add(x = var_774_cast_fp16, y = var_775_to_fp16)[name = tensor<string, []>("op_777_cast_fp16")];
            tensor<string, []> scatter_33_mode_0 = const()[name = tensor<string, []>("scatter_33_mode_0"), val = tensor<string, []>("update")];
            tensor<int32, []> scatter_33_axis_0 = const()[name = tensor<string, []>("scatter_33_axis_0"), val = tensor<int32, []>(0)];
            tensor<bool, []> scatter_33_validate_indices_0 = const()[name = tensor<string, []>("scatter_33_validate_indices_0"), val = tensor<bool, []>(false)];
            tensor<fp16, [1767]> scatter_33_cast_fp16 = scatter(axis = scatter_33_axis_0, data = scatter_31_cast_fp16, indices = slice_by_index_32, mode = scatter_33_mode_0, updates = var_777_cast_fp16, validate_indices = scatter_33_validate_indices_0)[name = tensor<string, []>("scatter_33_cast_fp16")];
            tensor<int32, [1]> var_794_begin_0 = const()[name = tensor<string, []>("op_794_begin_0"), val = tensor<int32, [1]>([1001])];
            tensor<int32, [1]> var_794_end_0 = const()[name = tensor<string, []>("op_794_end_0"), val = tensor<int32, [1]>([1590])];
            tensor<bool, [1]> var_794_end_mask_0 = const()[name = tensor<string, []>("op_794_end_mask_0"), val = tensor<bool, [1]>([false])];
            tensor<fp16, [589]> var_794_cast_fp16 = slice_by_index(begin = var_794_begin_0, end = var_794_end_0, end_mask = var_794_end_mask_0, x = scatter_32_cast_fp16)[name = tensor<string, []>("op_794_cast_fp16")];
            tensor<int32, [2]> var_797_begin_0 = const()[name = tensor<string, []>("op_797_begin_0"), val = tensor<int32, [2]>([17, 0])];
            tensor<int32, [2]> var_797_end_0 = const()[name = tensor<string, []>("op_797_end_0"), val = tensor<int32, [2]>([18, 589])];
            tensor<bool, [2]> var_797_end_mask_0 = const()[name = tensor<string, []>("op_797_end_mask_0"), val = tensor<bool, [2]>([false, true])];
            tensor<bool, [2]> var_797_squeeze_mask_0 = const()[name = tensor<string, []>("op_797_squeeze_mask_0"), val = tensor<bool, [2]>([true, false])];
            tensor<fp16, [589]> var_797_cast_fp16 = slice_by_index(begin = var_797_begin_0, end = var_797_end_0, end_mask = var_797_end_mask_0, squeeze_mask = var_797_squeeze_mask_0, x = reduce_max_0_cast_fp16)[name = tensor<string, []>("op_797_cast_fp16")];
            tensor<fp16, [589]> var_799_cast_fp16 = add(x = var_794_cast_fp16, y = var_797_cast_fp16)[name = tensor<string, []>("op_799_cast_fp16")];
            tensor<int32, [589]> slice_by_index_34 = const()[name = tensor<string, []>("slice_by_index_34"), val = tensor<int32, [589]>([1001, 1002, 1003, 1004, 1005, 1006, 1007, 1008, 1009, 1010, 1011, 1012, 1013, 1014, 1015, 1016, 1017, 1018, 1019, 1020, 1021, 1022, 1023, 1024, 1025, 1026, 1027, 1028, 1029, 1030, 1031, 1032, 1033, 1034, 1035, 1036, 1037, 1038, 1039, 1040, 1041, 1042, 1043, 1044, 1045, 1046, 1047, 1048, 1049, 1050, 1051, 1052, 1053, 1054, 1055, 1056, 1057, 1058, 1059, 1060, 1061, 1062, 1063, 1064, 1065, 1066, 1067, 1068, 1069, 1070, 1071, 1072, 1073, 1074, 1075, 1076, 1077, 1078, 1079, 1080, 1081, 1082, 1083, 1084, 1085, 1086, 1087, 1088, 1089, 1090, 1091, 1092, 1093, 1094, 1095, 1096, 1097, 1098, 1099, 1100, 1101, 1102, 1103, 1104, 1105, 1106, 1107, 1108, 1109, 1110, 1111, 1112, 1113, 1114, 1115, 1116, 1117, 1118, 1119, 1120, 1121, 1122, 1123, 1124, 1125, 1126, 1127, 1128, 1129, 1130, 1131, 1132, 1133, 1134, 1135, 1136, 1137, 1138, 1139, 1140, 1141, 1142, 1143, 1144, 1145, 1146, 1147, 1148, 1149, 1150, 1151, 1152, 1153, 1154, 1155, 1156, 1157, 1158, 1159, 1160, 1161, 1162, 1163, 1164, 1165, 1166, 1167, 1168, 1169, 1170, 1171, 1172, 1173, 1174, 1175, 1176, 1177, 1178, 1179, 1180, 1181, 1182, 1183, 1184, 1185, 1186, 1187, 1188, 1189, 1190, 1191, 1192, 1193, 1194, 1195, 1196, 1197, 1198, 1199, 1200, 1201, 1202, 1203, 1204, 1205, 1206, 1207, 1208, 1209, 1210, 1211, 1212, 1213, 1214, 1215, 1216, 1217, 1218, 1219, 1220, 1221, 1222, 1223, 1224, 1225, 1226, 1227, 1228, 1229, 1230, 1231, 1232, 1233, 1234, 1235, 1236, 1237, 1238, 1239, 1240, 1241, 1242, 1243, 1244, 1245, 1246, 1247, 1248, 1249, 1250, 1251, 1252, 1253, 1254, 1255, 1256, 1257, 1258, 1259, 1260, 1261, 1262, 1263, 1264, 1265, 1266, 1267, 1268, 1269, 1270, 1271, 1272, 1273, 1274, 1275, 1276, 1277, 1278, 1279, 1280, 1281, 1282, 1283, 1284, 1285, 1286, 1287, 1288, 1289, 1290, 1291, 1292, 1293, 1294, 1295, 1296, 1297, 1298, 1299, 1300, 1301, 1302, 1303, 1304, 1305, 1306, 1307, 1308, 1309, 1310, 1311, 1312, 1313, 1314, 1315, 1316, 1317, 1318, 1319, 1320, 1321, 1322, 1323, 1324, 1325, 1326, 1327, 1328, 1329, 1330, 1331, 1332, 1333, 1334, 1335, 1336, 1337, 1338, 1339, 1340, 1341, 1342, 1343, 1344, 1345, 1346, 1347, 1348, 1349, 1350, 1351, 1352, 1353, 1354, 1355, 1356, 1357, 1358, 1359, 1360, 1361, 1362, 1363, 1364, 1365, 1366, 1367, 1368, 1369, 1370, 1371, 1372, 1373, 1374, 1375, 1376, 1377, 1378, 1379, 1380, 1381, 1382, 1383, 1384, 1385, 1386, 1387, 1388, 1389, 1390, 1391, 1392, 1393, 1394, 1395, 1396, 1397, 1398, 1399, 1400, 1401, 1402, 1403, 1404, 1405, 1406, 1407, 1408, 1409, 1410, 1411, 1412, 1413, 1414, 1415, 1416, 1417, 1418, 1419, 1420, 1421, 1422, 1423, 1424, 1425, 1426, 1427, 1428, 1429, 1430, 1431, 1432, 1433, 1434, 1435, 1436, 1437, 1438, 1439, 1440, 1441, 1442, 1443, 1444, 1445, 1446, 1447, 1448, 1449, 1450, 1451, 1452, 1453, 1454, 1455, 1456, 1457, 1458, 1459, 1460, 1461, 1462, 1463, 1464, 1465, 1466, 1467, 1468, 1469, 1470, 1471, 1472, 1473, 1474, 1475, 1476, 1477, 1478, 1479, 1480, 1481, 1482, 1483, 1484, 1485, 1486, 1487, 1488, 1489, 1490, 1491, 1492, 1493, 1494, 1495, 1496, 1497, 1498, 1499, 1500, 1501, 1502, 1503, 1504, 1505, 1506, 1507, 1508, 1509, 1510, 1511, 1512, 1513, 1514, 1515, 1516, 1517, 1518, 1519, 1520, 1521, 1522, 1523, 1524, 1525, 1526, 1527, 1528, 1529, 1530, 1531, 1532, 1533, 1534, 1535, 1536, 1537, 1538, 1539, 1540, 1541, 1542, 1543, 1544, 1545, 1546, 1547, 1548, 1549, 1550, 1551, 1552, 1553, 1554, 1555, 1556, 1557, 1558, 1559, 1560, 1561, 1562, 1563, 1564, 1565, 1566, 1567, 1568, 1569, 1570, 1571, 1572, 1573, 1574, 1575, 1576, 1577, 1578, 1579, 1580, 1581, 1582, 1583, 1584, 1585, 1586, 1587, 1588, 1589])];
            tensor<string, []> scatter_34_mode_0 = const()[name = tensor<string, []>("scatter_34_mode_0"), val = tensor<string, []>("update")];
            tensor<int32, []> scatter_34_axis_0 = const()[name = tensor<string, []>("scatter_34_axis_0"), val = tensor<int32, []>(0)];
            tensor<bool, []> scatter_34_validate_indices_0 = const()[name = tensor<string, []>("scatter_34_validate_indices_0"), val = tensor<bool, []>(false)];
            tensor<fp16, [1767]> scatter_34_cast_fp16 = scatter(axis = scatter_34_axis_0, data = scatter_32_cast_fp16, indices = slice_by_index_34, mode = scatter_34_mode_0, updates = var_799_cast_fp16, validate_indices = scatter_34_validate_indices_0)[name = tensor<string, []>("scatter_34_cast_fp16")];
            tensor<int32, [1]> var_809_begin_0 = const()[name = tensor<string, []>("op_809_begin_0"), val = tensor<int32, [1]>([1001])];
            tensor<int32, [1]> var_809_end_0 = const()[name = tensor<string, []>("op_809_end_0"), val = tensor<int32, [1]>([1590])];
            tensor<bool, [1]> var_809_end_mask_0 = const()[name = tensor<string, []>("op_809_end_mask_0"), val = tensor<bool, [1]>([false])];
            tensor<fp16, [589]> var_809_cast_fp16 = slice_by_index(begin = var_809_begin_0, end = var_809_end_0, end_mask = var_809_end_mask_0, x = scatter_33_cast_fp16)[name = tensor<string, []>("op_809_cast_fp16")];
            tensor<fp16, []> var_810_to_fp16 = const()[name = tensor<string, []>("op_810_to_fp16"), val = tensor<fp16, []>(0x1p+0)];
            tensor<fp16, [589]> var_812_cast_fp16 = add(x = var_809_cast_fp16, y = var_810_to_fp16)[name = tensor<string, []>("op_812_cast_fp16")];
            tensor<string, []> scatter_35_mode_0 = const()[name = tensor<string, []>("scatter_35_mode_0"), val = tensor<string, []>("update")];
            tensor<int32, []> scatter_35_axis_0 = const()[name = tensor<string, []>("scatter_35_axis_0"), val = tensor<int32, []>(0)];
            tensor<bool, []> scatter_35_validate_indices_0 = const()[name = tensor<string, []>("scatter_35_validate_indices_0"), val = tensor<bool, []>(false)];
            tensor<fp16, [1767]> scatter_35_cast_fp16 = scatter(axis = scatter_35_axis_0, data = scatter_33_cast_fp16, indices = slice_by_index_34, mode = scatter_35_mode_0, updates = var_812_cast_fp16, validate_indices = scatter_35_validate_indices_0)[name = tensor<string, []>("scatter_35_cast_fp16")];
            tensor<int32, [1]> var_829_begin_0 = const()[name = tensor<string, []>("op_829_begin_0"), val = tensor<int32, [1]>([1060])];
            tensor<int32, [1]> var_829_end_0 = const()[name = tensor<string, []>("op_829_end_0"), val = tensor<int32, [1]>([1649])];
            tensor<bool, [1]> var_829_end_mask_0 = const()[name = tensor<string, []>("op_829_end_mask_0"), val = tensor<bool, [1]>([false])];
            tensor<fp16, [589]> var_829_cast_fp16 = slice_by_index(begin = var_829_begin_0, end = var_829_end_0, end_mask = var_829_end_mask_0, x = scatter_34_cast_fp16)[name = tensor<string, []>("op_829_cast_fp16")];
            tensor<int32, [2]> var_832_begin_0 = const()[name = tensor<string, []>("op_832_begin_0"), val = tensor<int32, [2]>([18, 0])];
            tensor<int32, [2]> var_832_end_0 = const()[name = tensor<string, []>("op_832_end_0"), val = tensor<int32, [2]>([19, 589])];
            tensor<bool, [2]> var_832_end_mask_0 = const()[name = tensor<string, []>("op_832_end_mask_0"), val = tensor<bool, [2]>([false, true])];
            tensor<bool, [2]> var_832_squeeze_mask_0 = const()[name = tensor<string, []>("op_832_squeeze_mask_0"), val = tensor<bool, [2]>([true, false])];
            tensor<fp16, [589]> var_832_cast_fp16 = slice_by_index(begin = var_832_begin_0, end = var_832_end_0, end_mask = var_832_end_mask_0, squeeze_mask = var_832_squeeze_mask_0, x = reduce_max_0_cast_fp16)[name = tensor<string, []>("op_832_cast_fp16")];
            tensor<fp16, [589]> var_834_cast_fp16 = add(x = var_829_cast_fp16, y = var_832_cast_fp16)[name = tensor<string, []>("op_834_cast_fp16")];
            tensor<int32, [589]> slice_by_index_36 = const()[name = tensor<string, []>("slice_by_index_36"), val = tensor<int32, [589]>([1060, 1061, 1062, 1063, 1064, 1065, 1066, 1067, 1068, 1069, 1070, 1071, 1072, 1073, 1074, 1075, 1076, 1077, 1078, 1079, 1080, 1081, 1082, 1083, 1084, 1085, 1086, 1087, 1088, 1089, 1090, 1091, 1092, 1093, 1094, 1095, 1096, 1097, 1098, 1099, 1100, 1101, 1102, 1103, 1104, 1105, 1106, 1107, 1108, 1109, 1110, 1111, 1112, 1113, 1114, 1115, 1116, 1117, 1118, 1119, 1120, 1121, 1122, 1123, 1124, 1125, 1126, 1127, 1128, 1129, 1130, 1131, 1132, 1133, 1134, 1135, 1136, 1137, 1138, 1139, 1140, 1141, 1142, 1143, 1144, 1145, 1146, 1147, 1148, 1149, 1150, 1151, 1152, 1153, 1154, 1155, 1156, 1157, 1158, 1159, 1160, 1161, 1162, 1163, 1164, 1165, 1166, 1167, 1168, 1169, 1170, 1171, 1172, 1173, 1174, 1175, 1176, 1177, 1178, 1179, 1180, 1181, 1182, 1183, 1184, 1185, 1186, 1187, 1188, 1189, 1190, 1191, 1192, 1193, 1194, 1195, 1196, 1197, 1198, 1199, 1200, 1201, 1202, 1203, 1204, 1205, 1206, 1207, 1208, 1209, 1210, 1211, 1212, 1213, 1214, 1215, 1216, 1217, 1218, 1219, 1220, 1221, 1222, 1223, 1224, 1225, 1226, 1227, 1228, 1229, 1230, 1231, 1232, 1233, 1234, 1235, 1236, 1237, 1238, 1239, 1240, 1241, 1242, 1243, 1244, 1245, 1246, 1247, 1248, 1249, 1250, 1251, 1252, 1253, 1254, 1255, 1256, 1257, 1258, 1259, 1260, 1261, 1262, 1263, 1264, 1265, 1266, 1267, 1268, 1269, 1270, 1271, 1272, 1273, 1274, 1275, 1276, 1277, 1278, 1279, 1280, 1281, 1282, 1283, 1284, 1285, 1286, 1287, 1288, 1289, 1290, 1291, 1292, 1293, 1294, 1295, 1296, 1297, 1298, 1299, 1300, 1301, 1302, 1303, 1304, 1305, 1306, 1307, 1308, 1309, 1310, 1311, 1312, 1313, 1314, 1315, 1316, 1317, 1318, 1319, 1320, 1321, 1322, 1323, 1324, 1325, 1326, 1327, 1328, 1329, 1330, 1331, 1332, 1333, 1334, 1335, 1336, 1337, 1338, 1339, 1340, 1341, 1342, 1343, 1344, 1345, 1346, 1347, 1348, 1349, 1350, 1351, 1352, 1353, 1354, 1355, 1356, 1357, 1358, 1359, 1360, 1361, 1362, 1363, 1364, 1365, 1366, 1367, 1368, 1369, 1370, 1371, 1372, 1373, 1374, 1375, 1376, 1377, 1378, 1379, 1380, 1381, 1382, 1383, 1384, 1385, 1386, 1387, 1388, 1389, 1390, 1391, 1392, 1393, 1394, 1395, 1396, 1397, 1398, 1399, 1400, 1401, 1402, 1403, 1404, 1405, 1406, 1407, 1408, 1409, 1410, 1411, 1412, 1413, 1414, 1415, 1416, 1417, 1418, 1419, 1420, 1421, 1422, 1423, 1424, 1425, 1426, 1427, 1428, 1429, 1430, 1431, 1432, 1433, 1434, 1435, 1436, 1437, 1438, 1439, 1440, 1441, 1442, 1443, 1444, 1445, 1446, 1447, 1448, 1449, 1450, 1451, 1452, 1453, 1454, 1455, 1456, 1457, 1458, 1459, 1460, 1461, 1462, 1463, 1464, 1465, 1466, 1467, 1468, 1469, 1470, 1471, 1472, 1473, 1474, 1475, 1476, 1477, 1478, 1479, 1480, 1481, 1482, 1483, 1484, 1485, 1486, 1487, 1488, 1489, 1490, 1491, 1492, 1493, 1494, 1495, 1496, 1497, 1498, 1499, 1500, 1501, 1502, 1503, 1504, 1505, 1506, 1507, 1508, 1509, 1510, 1511, 1512, 1513, 1514, 1515, 1516, 1517, 1518, 1519, 1520, 1521, 1522, 1523, 1524, 1525, 1526, 1527, 1528, 1529, 1530, 1531, 1532, 1533, 1534, 1535, 1536, 1537, 1538, 1539, 1540, 1541, 1542, 1543, 1544, 1545, 1546, 1547, 1548, 1549, 1550, 1551, 1552, 1553, 1554, 1555, 1556, 1557, 1558, 1559, 1560, 1561, 1562, 1563, 1564, 1565, 1566, 1567, 1568, 1569, 1570, 1571, 1572, 1573, 1574, 1575, 1576, 1577, 1578, 1579, 1580, 1581, 1582, 1583, 1584, 1585, 1586, 1587, 1588, 1589, 1590, 1591, 1592, 1593, 1594, 1595, 1596, 1597, 1598, 1599, 1600, 1601, 1602, 1603, 1604, 1605, 1606, 1607, 1608, 1609, 1610, 1611, 1612, 1613, 1614, 1615, 1616, 1617, 1618, 1619, 1620, 1621, 1622, 1623, 1624, 1625, 1626, 1627, 1628, 1629, 1630, 1631, 1632, 1633, 1634, 1635, 1636, 1637, 1638, 1639, 1640, 1641, 1642, 1643, 1644, 1645, 1646, 1647, 1648])];
            tensor<string, []> scatter_36_mode_0 = const()[name = tensor<string, []>("scatter_36_mode_0"), val = tensor<string, []>("update")];
            tensor<int32, []> scatter_36_axis_0 = const()[name = tensor<string, []>("scatter_36_axis_0"), val = tensor<int32, []>(0)];
            tensor<bool, []> scatter_36_validate_indices_0 = const()[name = tensor<string, []>("scatter_36_validate_indices_0"), val = tensor<bool, []>(false)];
            tensor<fp16, [1767]> scatter_36_cast_fp16 = scatter(axis = scatter_36_axis_0, data = scatter_34_cast_fp16, indices = slice_by_index_36, mode = scatter_36_mode_0, updates = var_834_cast_fp16, validate_indices = scatter_36_validate_indices_0)[name = tensor<string, []>("scatter_36_cast_fp16")];
            tensor<int32, [1]> var_844_begin_0 = const()[name = tensor<string, []>("op_844_begin_0"), val = tensor<int32, [1]>([1060])];
            tensor<int32, [1]> var_844_end_0 = const()[name = tensor<string, []>("op_844_end_0"), val = tensor<int32, [1]>([1649])];
            tensor<bool, [1]> var_844_end_mask_0 = const()[name = tensor<string, []>("op_844_end_mask_0"), val = tensor<bool, [1]>([false])];
            tensor<fp16, [589]> var_844_cast_fp16 = slice_by_index(begin = var_844_begin_0, end = var_844_end_0, end_mask = var_844_end_mask_0, x = scatter_35_cast_fp16)[name = tensor<string, []>("op_844_cast_fp16")];
            tensor<fp16, []> var_845_to_fp16 = const()[name = tensor<string, []>("op_845_to_fp16"), val = tensor<fp16, []>(0x1p+0)];
            tensor<fp16, [589]> var_847_cast_fp16 = add(x = var_844_cast_fp16, y = var_845_to_fp16)[name = tensor<string, []>("op_847_cast_fp16")];
            tensor<string, []> scatter_37_mode_0 = const()[name = tensor<string, []>("scatter_37_mode_0"), val = tensor<string, []>("update")];
            tensor<int32, []> scatter_37_axis_0 = const()[name = tensor<string, []>("scatter_37_axis_0"), val = tensor<int32, []>(0)];
            tensor<bool, []> scatter_37_validate_indices_0 = const()[name = tensor<string, []>("scatter_37_validate_indices_0"), val = tensor<bool, []>(false)];
            tensor<fp16, [1767]> scatter_37_cast_fp16 = scatter(axis = scatter_37_axis_0, data = scatter_35_cast_fp16, indices = slice_by_index_36, mode = scatter_37_mode_0, updates = var_847_cast_fp16, validate_indices = scatter_37_validate_indices_0)[name = tensor<string, []>("scatter_37_cast_fp16")];
            tensor<int32, [1]> var_864_begin_0 = const()[name = tensor<string, []>("op_864_begin_0"), val = tensor<int32, [1]>([1119])];
            tensor<int32, [1]> var_864_end_0 = const()[name = tensor<string, []>("op_864_end_0"), val = tensor<int32, [1]>([1708])];
            tensor<bool, [1]> var_864_end_mask_0 = const()[name = tensor<string, []>("op_864_end_mask_0"), val = tensor<bool, [1]>([false])];
            tensor<fp16, [589]> var_864_cast_fp16 = slice_by_index(begin = var_864_begin_0, end = var_864_end_0, end_mask = var_864_end_mask_0, x = scatter_36_cast_fp16)[name = tensor<string, []>("op_864_cast_fp16")];
            tensor<int32, [2]> var_867_begin_0 = const()[name = tensor<string, []>("op_867_begin_0"), val = tensor<int32, [2]>([19, 0])];
            tensor<int32, [2]> var_867_end_0 = const()[name = tensor<string, []>("op_867_end_0"), val = tensor<int32, [2]>([20, 589])];
            tensor<bool, [2]> var_867_end_mask_0 = const()[name = tensor<string, []>("op_867_end_mask_0"), val = tensor<bool, [2]>([false, true])];
            tensor<bool, [2]> var_867_squeeze_mask_0 = const()[name = tensor<string, []>("op_867_squeeze_mask_0"), val = tensor<bool, [2]>([true, false])];
            tensor<fp16, [589]> var_867_cast_fp16 = slice_by_index(begin = var_867_begin_0, end = var_867_end_0, end_mask = var_867_end_mask_0, squeeze_mask = var_867_squeeze_mask_0, x = reduce_max_0_cast_fp16)[name = tensor<string, []>("op_867_cast_fp16")];
            tensor<fp16, [589]> var_869_cast_fp16 = add(x = var_864_cast_fp16, y = var_867_cast_fp16)[name = tensor<string, []>("op_869_cast_fp16")];
            tensor<int32, [589]> slice_by_index_38 = const()[name = tensor<string, []>("slice_by_index_38"), val = tensor<int32, [589]>([1119, 1120, 1121, 1122, 1123, 1124, 1125, 1126, 1127, 1128, 1129, 1130, 1131, 1132, 1133, 1134, 1135, 1136, 1137, 1138, 1139, 1140, 1141, 1142, 1143, 1144, 1145, 1146, 1147, 1148, 1149, 1150, 1151, 1152, 1153, 1154, 1155, 1156, 1157, 1158, 1159, 1160, 1161, 1162, 1163, 1164, 1165, 1166, 1167, 1168, 1169, 1170, 1171, 1172, 1173, 1174, 1175, 1176, 1177, 1178, 1179, 1180, 1181, 1182, 1183, 1184, 1185, 1186, 1187, 1188, 1189, 1190, 1191, 1192, 1193, 1194, 1195, 1196, 1197, 1198, 1199, 1200, 1201, 1202, 1203, 1204, 1205, 1206, 1207, 1208, 1209, 1210, 1211, 1212, 1213, 1214, 1215, 1216, 1217, 1218, 1219, 1220, 1221, 1222, 1223, 1224, 1225, 1226, 1227, 1228, 1229, 1230, 1231, 1232, 1233, 1234, 1235, 1236, 1237, 1238, 1239, 1240, 1241, 1242, 1243, 1244, 1245, 1246, 1247, 1248, 1249, 1250, 1251, 1252, 1253, 1254, 1255, 1256, 1257, 1258, 1259, 1260, 1261, 1262, 1263, 1264, 1265, 1266, 1267, 1268, 1269, 1270, 1271, 1272, 1273, 1274, 1275, 1276, 1277, 1278, 1279, 1280, 1281, 1282, 1283, 1284, 1285, 1286, 1287, 1288, 1289, 1290, 1291, 1292, 1293, 1294, 1295, 1296, 1297, 1298, 1299, 1300, 1301, 1302, 1303, 1304, 1305, 1306, 1307, 1308, 1309, 1310, 1311, 1312, 1313, 1314, 1315, 1316, 1317, 1318, 1319, 1320, 1321, 1322, 1323, 1324, 1325, 1326, 1327, 1328, 1329, 1330, 1331, 1332, 1333, 1334, 1335, 1336, 1337, 1338, 1339, 1340, 1341, 1342, 1343, 1344, 1345, 1346, 1347, 1348, 1349, 1350, 1351, 1352, 1353, 1354, 1355, 1356, 1357, 1358, 1359, 1360, 1361, 1362, 1363, 1364, 1365, 1366, 1367, 1368, 1369, 1370, 1371, 1372, 1373, 1374, 1375, 1376, 1377, 1378, 1379, 1380, 1381, 1382, 1383, 1384, 1385, 1386, 1387, 1388, 1389, 1390, 1391, 1392, 1393, 1394, 1395, 1396, 1397, 1398, 1399, 1400, 1401, 1402, 1403, 1404, 1405, 1406, 1407, 1408, 1409, 1410, 1411, 1412, 1413, 1414, 1415, 1416, 1417, 1418, 1419, 1420, 1421, 1422, 1423, 1424, 1425, 1426, 1427, 1428, 1429, 1430, 1431, 1432, 1433, 1434, 1435, 1436, 1437, 1438, 1439, 1440, 1441, 1442, 1443, 1444, 1445, 1446, 1447, 1448, 1449, 1450, 1451, 1452, 1453, 1454, 1455, 1456, 1457, 1458, 1459, 1460, 1461, 1462, 1463, 1464, 1465, 1466, 1467, 1468, 1469, 1470, 1471, 1472, 1473, 1474, 1475, 1476, 1477, 1478, 1479, 1480, 1481, 1482, 1483, 1484, 1485, 1486, 1487, 1488, 1489, 1490, 1491, 1492, 1493, 1494, 1495, 1496, 1497, 1498, 1499, 1500, 1501, 1502, 1503, 1504, 1505, 1506, 1507, 1508, 1509, 1510, 1511, 1512, 1513, 1514, 1515, 1516, 1517, 1518, 1519, 1520, 1521, 1522, 1523, 1524, 1525, 1526, 1527, 1528, 1529, 1530, 1531, 1532, 1533, 1534, 1535, 1536, 1537, 1538, 1539, 1540, 1541, 1542, 1543, 1544, 1545, 1546, 1547, 1548, 1549, 1550, 1551, 1552, 1553, 1554, 1555, 1556, 1557, 1558, 1559, 1560, 1561, 1562, 1563, 1564, 1565, 1566, 1567, 1568, 1569, 1570, 1571, 1572, 1573, 1574, 1575, 1576, 1577, 1578, 1579, 1580, 1581, 1582, 1583, 1584, 1585, 1586, 1587, 1588, 1589, 1590, 1591, 1592, 1593, 1594, 1595, 1596, 1597, 1598, 1599, 1600, 1601, 1602, 1603, 1604, 1605, 1606, 1607, 1608, 1609, 1610, 1611, 1612, 1613, 1614, 1615, 1616, 1617, 1618, 1619, 1620, 1621, 1622, 1623, 1624, 1625, 1626, 1627, 1628, 1629, 1630, 1631, 1632, 1633, 1634, 1635, 1636, 1637, 1638, 1639, 1640, 1641, 1642, 1643, 1644, 1645, 1646, 1647, 1648, 1649, 1650, 1651, 1652, 1653, 1654, 1655, 1656, 1657, 1658, 1659, 1660, 1661, 1662, 1663, 1664, 1665, 1666, 1667, 1668, 1669, 1670, 1671, 1672, 1673, 1674, 1675, 1676, 1677, 1678, 1679, 1680, 1681, 1682, 1683, 1684, 1685, 1686, 1687, 1688, 1689, 1690, 1691, 1692, 1693, 1694, 1695, 1696, 1697, 1698, 1699, 1700, 1701, 1702, 1703, 1704, 1705, 1706, 1707])];
            tensor<string, []> scatter_38_mode_0 = const()[name = tensor<string, []>("scatter_38_mode_0"), val = tensor<string, []>("update")];
            tensor<int32, []> scatter_38_axis_0 = const()[name = tensor<string, []>("scatter_38_axis_0"), val = tensor<int32, []>(0)];
            tensor<bool, []> scatter_38_validate_indices_0 = const()[name = tensor<string, []>("scatter_38_validate_indices_0"), val = tensor<bool, []>(false)];
            tensor<fp16, [1767]> scatter_38_cast_fp16 = scatter(axis = scatter_38_axis_0, data = scatter_36_cast_fp16, indices = slice_by_index_38, mode = scatter_38_mode_0, updates = var_869_cast_fp16, validate_indices = scatter_38_validate_indices_0)[name = tensor<string, []>("scatter_38_cast_fp16")];
            tensor<int32, [1]> var_879_begin_0 = const()[name = tensor<string, []>("op_879_begin_0"), val = tensor<int32, [1]>([1119])];
            tensor<int32, [1]> var_879_end_0 = const()[name = tensor<string, []>("op_879_end_0"), val = tensor<int32, [1]>([1708])];
            tensor<bool, [1]> var_879_end_mask_0 = const()[name = tensor<string, []>("op_879_end_mask_0"), val = tensor<bool, [1]>([false])];
            tensor<fp16, [589]> var_879_cast_fp16 = slice_by_index(begin = var_879_begin_0, end = var_879_end_0, end_mask = var_879_end_mask_0, x = scatter_37_cast_fp16)[name = tensor<string, []>("op_879_cast_fp16")];
            tensor<fp16, []> var_880_to_fp16 = const()[name = tensor<string, []>("op_880_to_fp16"), val = tensor<fp16, []>(0x1p+0)];
            tensor<fp16, [589]> var_882_cast_fp16 = add(x = var_879_cast_fp16, y = var_880_to_fp16)[name = tensor<string, []>("op_882_cast_fp16")];
            tensor<string, []> scatter_39_mode_0 = const()[name = tensor<string, []>("scatter_39_mode_0"), val = tensor<string, []>("update")];
            tensor<int32, []> scatter_39_axis_0 = const()[name = tensor<string, []>("scatter_39_axis_0"), val = tensor<int32, []>(0)];
            tensor<bool, []> scatter_39_validate_indices_0 = const()[name = tensor<string, []>("scatter_39_validate_indices_0"), val = tensor<bool, []>(false)];
            tensor<fp16, [1767]> scatter_39_cast_fp16 = scatter(axis = scatter_39_axis_0, data = scatter_37_cast_fp16, indices = slice_by_index_38, mode = scatter_39_mode_0, updates = var_882_cast_fp16, validate_indices = scatter_39_validate_indices_0)[name = tensor<string, []>("scatter_39_cast_fp16")];
            tensor<int32, [1]> var_899_begin_0 = const()[name = tensor<string, []>("op_899_begin_0"), val = tensor<int32, [1]>([1178])];
            tensor<int32, [1]> var_899_end_0 = const()[name = tensor<string, []>("op_899_end_0"), val = tensor<int32, [1]>([1767])];
            tensor<bool, [1]> var_899_end_mask_0 = const()[name = tensor<string, []>("op_899_end_mask_0"), val = tensor<bool, [1]>([false])];
            tensor<fp16, [589]> var_899_cast_fp16 = slice_by_index(begin = var_899_begin_0, end = var_899_end_0, end_mask = var_899_end_mask_0, x = scatter_38_cast_fp16)[name = tensor<string, []>("op_899_cast_fp16")];
            tensor<int32, [2]> var_902_begin_0 = const()[name = tensor<string, []>("op_902_begin_0"), val = tensor<int32, [2]>([20, 0])];
            tensor<int32, [2]> var_902_end_0 = const()[name = tensor<string, []>("op_902_end_0"), val = tensor<int32, [2]>([21, 589])];
            tensor<bool, [2]> var_902_end_mask_0 = const()[name = tensor<string, []>("op_902_end_mask_0"), val = tensor<bool, [2]>([false, true])];
            tensor<bool, [2]> var_902_squeeze_mask_0 = const()[name = tensor<string, []>("op_902_squeeze_mask_0"), val = tensor<bool, [2]>([true, false])];
            tensor<fp16, [589]> var_902_cast_fp16 = slice_by_index(begin = var_902_begin_0, end = var_902_end_0, end_mask = var_902_end_mask_0, squeeze_mask = var_902_squeeze_mask_0, x = reduce_max_0_cast_fp16)[name = tensor<string, []>("op_902_cast_fp16")];
            tensor<fp16, [589]> var_904_cast_fp16 = add(x = var_899_cast_fp16, y = var_902_cast_fp16)[name = tensor<string, []>("op_904_cast_fp16")];
            tensor<int32, [589]> slice_by_index_40 = const()[name = tensor<string, []>("slice_by_index_40"), val = tensor<int32, [589]>([1178, 1179, 1180, 1181, 1182, 1183, 1184, 1185, 1186, 1187, 1188, 1189, 1190, 1191, 1192, 1193, 1194, 1195, 1196, 1197, 1198, 1199, 1200, 1201, 1202, 1203, 1204, 1205, 1206, 1207, 1208, 1209, 1210, 1211, 1212, 1213, 1214, 1215, 1216, 1217, 1218, 1219, 1220, 1221, 1222, 1223, 1224, 1225, 1226, 1227, 1228, 1229, 1230, 1231, 1232, 1233, 1234, 1235, 1236, 1237, 1238, 1239, 1240, 1241, 1242, 1243, 1244, 1245, 1246, 1247, 1248, 1249, 1250, 1251, 1252, 1253, 1254, 1255, 1256, 1257, 1258, 1259, 1260, 1261, 1262, 1263, 1264, 1265, 1266, 1267, 1268, 1269, 1270, 1271, 1272, 1273, 1274, 1275, 1276, 1277, 1278, 1279, 1280, 1281, 1282, 1283, 1284, 1285, 1286, 1287, 1288, 1289, 1290, 1291, 1292, 1293, 1294, 1295, 1296, 1297, 1298, 1299, 1300, 1301, 1302, 1303, 1304, 1305, 1306, 1307, 1308, 1309, 1310, 1311, 1312, 1313, 1314, 1315, 1316, 1317, 1318, 1319, 1320, 1321, 1322, 1323, 1324, 1325, 1326, 1327, 1328, 1329, 1330, 1331, 1332, 1333, 1334, 1335, 1336, 1337, 1338, 1339, 1340, 1341, 1342, 1343, 1344, 1345, 1346, 1347, 1348, 1349, 1350, 1351, 1352, 1353, 1354, 1355, 1356, 1357, 1358, 1359, 1360, 1361, 1362, 1363, 1364, 1365, 1366, 1367, 1368, 1369, 1370, 1371, 1372, 1373, 1374, 1375, 1376, 1377, 1378, 1379, 1380, 1381, 1382, 1383, 1384, 1385, 1386, 1387, 1388, 1389, 1390, 1391, 1392, 1393, 1394, 1395, 1396, 1397, 1398, 1399, 1400, 1401, 1402, 1403, 1404, 1405, 1406, 1407, 1408, 1409, 1410, 1411, 1412, 1413, 1414, 1415, 1416, 1417, 1418, 1419, 1420, 1421, 1422, 1423, 1424, 1425, 1426, 1427, 1428, 1429, 1430, 1431, 1432, 1433, 1434, 1435, 1436, 1437, 1438, 1439, 1440, 1441, 1442, 1443, 1444, 1445, 1446, 1447, 1448, 1449, 1450, 1451, 1452, 1453, 1454, 1455, 1456, 1457, 1458, 1459, 1460, 1461, 1462, 1463, 1464, 1465, 1466, 1467, 1468, 1469, 1470, 1471, 1472, 1473, 1474, 1475, 1476, 1477, 1478, 1479, 1480, 1481, 1482, 1483, 1484, 1485, 1486, 1487, 1488, 1489, 1490, 1491, 1492, 1493, 1494, 1495, 1496, 1497, 1498, 1499, 1500, 1501, 1502, 1503, 1504, 1505, 1506, 1507, 1508, 1509, 1510, 1511, 1512, 1513, 1514, 1515, 1516, 1517, 1518, 1519, 1520, 1521, 1522, 1523, 1524, 1525, 1526, 1527, 1528, 1529, 1530, 1531, 1532, 1533, 1534, 1535, 1536, 1537, 1538, 1539, 1540, 1541, 1542, 1543, 1544, 1545, 1546, 1547, 1548, 1549, 1550, 1551, 1552, 1553, 1554, 1555, 1556, 1557, 1558, 1559, 1560, 1561, 1562, 1563, 1564, 1565, 1566, 1567, 1568, 1569, 1570, 1571, 1572, 1573, 1574, 1575, 1576, 1577, 1578, 1579, 1580, 1581, 1582, 1583, 1584, 1585, 1586, 1587, 1588, 1589, 1590, 1591, 1592, 1593, 1594, 1595, 1596, 1597, 1598, 1599, 1600, 1601, 1602, 1603, 1604, 1605, 1606, 1607, 1608, 1609, 1610, 1611, 1612, 1613, 1614, 1615, 1616, 1617, 1618, 1619, 1620, 1621, 1622, 1623, 1624, 1625, 1626, 1627, 1628, 1629, 1630, 1631, 1632, 1633, 1634, 1635, 1636, 1637, 1638, 1639, 1640, 1641, 1642, 1643, 1644, 1645, 1646, 1647, 1648, 1649, 1650, 1651, 1652, 1653, 1654, 1655, 1656, 1657, 1658, 1659, 1660, 1661, 1662, 1663, 1664, 1665, 1666, 1667, 1668, 1669, 1670, 1671, 1672, 1673, 1674, 1675, 1676, 1677, 1678, 1679, 1680, 1681, 1682, 1683, 1684, 1685, 1686, 1687, 1688, 1689, 1690, 1691, 1692, 1693, 1694, 1695, 1696, 1697, 1698, 1699, 1700, 1701, 1702, 1703, 1704, 1705, 1706, 1707, 1708, 1709, 1710, 1711, 1712, 1713, 1714, 1715, 1716, 1717, 1718, 1719, 1720, 1721, 1722, 1723, 1724, 1725, 1726, 1727, 1728, 1729, 1730, 1731, 1732, 1733, 1734, 1735, 1736, 1737, 1738, 1739, 1740, 1741, 1742, 1743, 1744, 1745, 1746, 1747, 1748, 1749, 1750, 1751, 1752, 1753, 1754, 1755, 1756, 1757, 1758, 1759, 1760, 1761, 1762, 1763, 1764, 1765, 1766])];
            tensor<string, []> scatter_40_mode_0 = const()[name = tensor<string, []>("scatter_40_mode_0"), val = tensor<string, []>("update")];
            tensor<int32, []> scatter_40_axis_0 = const()[name = tensor<string, []>("scatter_40_axis_0"), val = tensor<int32, []>(0)];
            tensor<bool, []> scatter_40_validate_indices_0 = const()[name = tensor<string, []>("scatter_40_validate_indices_0"), val = tensor<bool, []>(false)];
            tensor<fp16, [1767]> scatter_40_cast_fp16 = scatter(axis = scatter_40_axis_0, data = scatter_38_cast_fp16, indices = slice_by_index_40, mode = scatter_40_mode_0, updates = var_904_cast_fp16, validate_indices = scatter_40_validate_indices_0)[name = tensor<string, []>("scatter_40_cast_fp16")];
            tensor<int32, [1]> var_914_begin_0 = const()[name = tensor<string, []>("op_914_begin_0"), val = tensor<int32, [1]>([1178])];
            tensor<int32, [1]> var_914_end_0 = const()[name = tensor<string, []>("op_914_end_0"), val = tensor<int32, [1]>([1767])];
            tensor<bool, [1]> var_914_end_mask_0 = const()[name = tensor<string, []>("op_914_end_mask_0"), val = tensor<bool, [1]>([false])];
            tensor<fp16, [589]> var_914_cast_fp16 = slice_by_index(begin = var_914_begin_0, end = var_914_end_0, end_mask = var_914_end_mask_0, x = scatter_39_cast_fp16)[name = tensor<string, []>("op_914_cast_fp16")];
            tensor<fp16, []> var_915_to_fp16 = const()[name = tensor<string, []>("op_915_to_fp16"), val = tensor<fp16, []>(0x1p+0)];
            tensor<fp16, [589]> var_917_cast_fp16 = add(x = var_914_cast_fp16, y = var_915_to_fp16)[name = tensor<string, []>("op_917_cast_fp16")];
            tensor<string, []> scatter_41_mode_0 = const()[name = tensor<string, []>("scatter_41_mode_0"), val = tensor<string, []>("update")];
            tensor<int32, []> scatter_41_axis_0 = const()[name = tensor<string, []>("scatter_41_axis_0"), val = tensor<int32, []>(0)];
            tensor<bool, []> scatter_41_validate_indices_0 = const()[name = tensor<string, []>("scatter_41_validate_indices_0"), val = tensor<bool, []>(false)];
            tensor<fp16, [1767]> scatter_41_cast_fp16 = scatter(axis = scatter_41_axis_0, data = scatter_39_cast_fp16, indices = slice_by_index_40, mode = scatter_41_mode_0, updates = var_917_cast_fp16, validate_indices = scatter_41_validate_indices_0)[name = tensor<string, []>("scatter_41_cast_fp16")];
            tensor<fp16, [1767]> voice_activity = real_div(x = scatter_40_cast_fp16, y = scatter_41_cast_fp16)[name = tensor<string, []>("op_924_cast_fp16")];
            tensor<int32, [1]> var_929_axes_0 = const()[name = tensor<string, []>("op_929_axes_0"), val = tensor<int32, [1]>([1])];
            tensor<bool, []> var_929_keep_dims_0 = const()[name = tensor<string, []>("op_929_keep_dims_0"), val = tensor<bool, []>(false)];
            tensor<fp16, [21, 3]> speaker_activity = reduce_sum(axes = var_929_axes_0, keep_dims = var_929_keep_dims_0, x = speaker_ids)[name = tensor<string, []>("op_929_cast_fp16")];
            tensor<int32, [1]> var_934_axes_0 = const()[name = tensor<string, []>("op_934_axes_0"), val = tensor<int32, [1]>([2])];
            tensor<bool, []> var_934_keep_dims_0 = const()[name = tensor<string, []>("op_934_keep_dims_0"), val = tensor<bool, []>(false)];
            tensor<fp16, [21, 589]> var_934_cast_fp16 = reduce_sum(axes = var_934_axes_0, keep_dims = var_934_keep_dims_0, x = speaker_ids)[name = tensor<string, []>("op_934_cast_fp16")];
            tensor<fp16, []> var_935_to_fp16 = const()[name = tensor<string, []>("op_935_to_fp16"), val = tensor<fp16, []>(0x1p+0)];
            tensor<bool, [21, 589]> var_936_cast_fp16 = greater(x = var_934_cast_fp16, y = var_935_to_fp16)[name = tensor<string, []>("op_936_cast_fp16")];
            tensor<string, []> cast_8_dtype_0 = const()[name = tensor<string, []>("cast_8_dtype_0"), val = tensor<string, []>("fp16")];
            tensor<fp16, [21, 589]> overlapped_speaker_activity = cast(dtype = cast_8_dtype_0, x = var_936_cast_fp16)[name = tensor<string, []>("cast_0")];
        } -> (speaker_probs, speaker_ids, speaker_activity, overlapped_speaker_activity, voice_activity, sliding_window_waveform);
}